{"format": "graph-model", "generatedBy": "2.13.1", "convertedBy": "TensorFlow.js Converter v4.14.0", "signature": {"outputs": {"Identity:0": {"name": "Identity:0"}}}, "modelTopology": {"node": [{"name": "ConstantFolding/PartitionedCall/model_23/tf.math.divide/truediv_recip", "op": "Const", "attr": {"value": {"tensor": {"dtype": "DT_FLOAT", "tensorShape": {"dim": [{"size": "1"}, {"size": "1"}, {"size": "1"}]}}}, "dtype": {"type": "DT_FLOAT"}}}, {"name": "2735", "op": "Const", "attr": {"value": {"tensor": {"dtype": "DT_FLOAT", "tensorShape": {"dim": [{"size": "1"}, {"size": "2"}, {"size": "34000"}]}}}, "dtype": {"type": "DT_FLOAT"}}}, {"name": "2721", "op": "Const", "attr": {"value": {"tensor": {"dtype": "DT_INT64", "tensorShape": {"dim": [{"size": "3"}]}}}, "dtype": {"type": "DT_INT64"}}}, {"name": "2723", "op": "Const", "attr": {"value": {"tensor": {"dtype": "DT_INT64", "tensorShape": {"dim": [{"size": "3"}]}}}, "dtype": {"type": "DT_INT64"}}}, {"name": "PartitionedCall/model_23/tf.strided_slice_27/ones_like", "op": "Const", "attr": {"value": {"tensor": {"dtype": "DT_INT64", "tensorShape": {"dim": [{"size": "3"}]}}}, "dtype": {"type": "DT_INT64"}}}, {"name": "2737", "op": "Const", "attr": {"dtype": {"type": "DT_FLOAT"}, "value": {"tensor": {"dtype": "DT_FLOAT", "tensorShape": {"dim": [{"size": "1"}, {"size": "2"}, {"size": "34000"}]}}}}}, {"name": "2693", "op": "Const", "attr": {"dtype": {"type": "DT_INT64"}, "value": {"tensor": {"dtype": "DT_INT64", "tensorShape": {"dim": [{"size": "3"}]}}}}}, {"name": "2695", "op": "Const", "attr": {"value": {"tensor": {"dtype": "DT_INT64", "tensorShape": {"dim": [{"size": "3"}]}}}, "dtype": {"type": "DT_INT64"}}}, {"name": "PartitionedCall/model_23/tf.strided_slice_22/StridedSlice/strides", "op": "Const", "attr": {"dtype": {"type": "DT_INT64"}, "value": {"tensor": {"dtype": "DT_INT64", "tensorShape": {"dim": [{"size": "3"}]}}}}}, {"name": "PartitionedCall/model_23/tf.reshape_9/Reshape/shape", "op": "Const", "attr": {"value": {"tensor": {"dtype": "DT_INT32", "tensorShape": {"dim": [{"size": "4"}]}}}, "dtype": {"type": "DT_INT32"}}}, {"name": "PartitionedCall/model_23/tf.compat.v1.transpose_1186/transpose/perm", "op": "Const", "attr": {"dtype": {"type": "DT_INT32"}, "value": {"tensor": {"dtype": "DT_INT32", "tensorShape": {"dim": [{"size": "4"}]}}}}}, {"name": "PartitionedCall/model_23/tf.compat.v1.transpose_1187/transpose/perm", "op": "Const", "attr": {"dtype": {"type": "DT_INT32"}, "value": {"tensor": {"dtype": "DT_INT32", "tensorShape": {"dim": [{"size": "4"}]}}}}}, {"name": "2713", "op": "Const", "attr": {"dtype": {"type": "DT_FLOAT"}, "value": {"tensor": {"dtype": "DT_FLOAT", "tensorShape": {"dim": [{"size": "1"}, {"size": "1"}, {"size": "16"}, {"size": "1"}]}}}}}, {"name": "PartitionedCall/model_23/tf.compat.v1.transpose_1190/transpose/perm", "op": "Const", "attr": {"dtype": {"type": "DT_INT32"}, "value": {"tensor": {"dtype": "DT_INT32", "tensorShape": {"dim": [{"size": "4"}]}}}}}, {"name": "PartitionedCall/model_23/tf.reshape_10/Reshape/shape", "op": "Const", "attr": {"value": {"tensor": {"dtype": "DT_INT32", "tensorShape": {"dim": [{"size": "3"}]}}}, "dtype": {"type": "DT_INT32"}}}, {"name": "2725", "op": "Const", "attr": {"value": {"tensor": {"dtype": "DT_INT64", "tensorShape": {"dim": [{"size": "3"}]}}}, "dtype": {"type": "DT_INT64"}}}, {"name": "2727", "op": "Const", "attr": {"value": {"tensor": {"dtype": "DT_INT64", "tensorShape": {"dim": [{"size": "3"}]}}}, "dtype": {"type": "DT_INT64"}}}, {"name": "PartitionedCall/model_23/tf.strided_slice_26/ones_like", "op": "Const", "attr": {"dtype": {"type": "DT_INT64"}, "value": {"tensor": {"dtype": "DT_INT64", "tensorShape": {"dim": [{"size": "3"}]}}}}}, {"name": "PartitionedCall/model_23/tf.concat_602/concat/axis", "op": "Const", "attr": {"dtype": {"type": "DT_INT32"}, "value": {"tensor": {"dtype": "DT_INT32", "tensorShape": {}}}}}, {"name": "PartitionedCall/model_23/tf.math.multiply_461/Mul/y", "op": "Const", "attr": {"dtype": {"type": "DT_FLOAT"}, "value": {"tensor": {"dtype": "DT_FLOAT", "tensorShape": {"dim": [{"size": "1"}, {"size": "1"}, {"size": "34000"}]}}}}}, {"name": "2581", "op": "Const", "attr": {"value": {"tensor": {"dtype": "DT_FLOAT", "tensorShape": {"dim": [{"size": "3"}, {"size": "3"}, {"size": "320"}, {"size": "80"}]}}}, "dtype": {"type": "DT_FLOAT"}}}, {"name": "2595", "op": "Const", "attr": {"value": {"tensor": {"dtype": "DT_FLOAT", "tensorShape": {"dim": [{"size": "80"}]}}}, "dtype": {"type": "DT_FLOAT"}}}, {"name": "2613", "op": "Const", "attr": {"dtype": {"type": "DT_FLOAT"}, "value": {"tensor": {"dtype": "DT_FLOAT", "tensorShape": {"dim": [{"size": "3"}, {"size": "3"}, {"size": "80"}, {"size": "80"}]}}}}}, {"name": "2627", "op": "Const", "attr": {"dtype": {"type": "DT_FLOAT"}, "value": {"tensor": {"dtype": "DT_FLOAT", "tensorShape": {"dim": [{"size": "80"}]}}}}}, {"name": "2647", "op": "Const", "attr": {"dtype": {"type": "DT_FLOAT"}, "value": {"tensor": {"dtype": "DT_FLOAT", "tensorShape": {"dim": [{"size": "1"}, {"size": "1"}, {"size": "80"}, {"size": "64"}]}}}}}, {"name": "2667", "op": "Const", "attr": {"value": {"tensor": {"dtype": "DT_FLOAT", "tensorShape": {"dim": [{"size": "64"}]}}}, "dtype": {"type": "DT_FLOAT"}}}, {"name": "2579", "op": "Const", "attr": {"dtype": {"type": "DT_FLOAT"}, "value": {"tensor": {"dtype": "DT_FLOAT", "tensorShape": {"dim": [{"size": "3"}, {"size": "3"}, {"size": "320"}, {"size": "320"}]}}}}}, {"name": "2593", "op": "Const", "attr": {"dtype": {"type": "DT_FLOAT"}, "value": {"tensor": {"dtype": "DT_FLOAT", "tensorShape": {"dim": [{"size": "320"}]}}}}}, {"name": "2611", "op": "Const", "attr": {"value": {"tensor": {"dtype": "DT_FLOAT", "tensorShape": {"dim": [{"size": "3"}, {"size": "3"}, {"size": "320"}, {"size": "320"}]}}}, "dtype": {"type": "DT_FLOAT"}}}, {"name": "2625", "op": "Const", "attr": {"value": {"tensor": {"dtype": "DT_FLOAT", "tensorShape": {"dim": [{"size": "320"}]}}}, "dtype": {"type": "DT_FLOAT"}}}, {"name": "2645", "op": "Const", "attr": {"value": {"tensor": {"dtype": "DT_FLOAT", "tensorShape": {"dim": [{"size": "1"}, {"size": "1"}, {"size": "320"}, {"size": "1"}]}}}, "dtype": {"type": "DT_FLOAT"}}}, {"name": "2669", "op": "Const", "attr": {"value": {"tensor": {"dtype": "DT_FLOAT", "tensorShape": {"dim": [{"size": "1"}]}}}, "dtype": {"type": "DT_FLOAT"}}}, {"name": "PartitionedCall/model_23/tf.concat_590/concat/axis", "op": "Const", "attr": {"value": {"tensor": {"dtype": "DT_INT32", "tensorShape": {}}}, "dtype": {"type": "DT_INT32"}}}, {"name": "PartitionedCall/model_23/tf.compat.v1.transpose_1173/transpose/perm", "op": "Const", "attr": {"value": {"tensor": {"dtype": "DT_INT32", "tensorShape": {"dim": [{"size": "4"}]}}}, "dtype": {"type": "DT_INT32"}}}, {"name": "PartitionedCall/model_23/tf.reshape_1/Reshape/shape", "op": "Const", "attr": {"value": {"tensor": {"dtype": "DT_INT32", "tensorShape": {"dim": [{"size": "3"}]}}}, "dtype": {"type": "DT_INT32"}}}, {"name": "2565", "op": "Const", "attr": {"value": {"tensor": {"dtype": "DT_FLOAT", "tensorShape": {"dim": [{"size": "3"}, {"size": "3"}, {"size": "640"}, {"size": "80"}]}}}, "dtype": {"type": "DT_FLOAT"}}}, {"name": "2567", "op": "Const", "attr": {"value": {"tensor": {"dtype": "DT_FLOAT", "tensorShape": {"dim": [{"size": "80"}]}}}, "dtype": {"type": "DT_FLOAT"}}}, {"name": "2597", "op": "Const", "attr": {"dtype": {"type": "DT_FLOAT"}, "value": {"tensor": {"dtype": "DT_FLOAT", "tensorShape": {"dim": [{"size": "3"}, {"size": "3"}, {"size": "80"}, {"size": "80"}]}}}}}, {"name": "2609", "op": "Const", "attr": {"value": {"tensor": {"dtype": "DT_FLOAT", "tensorShape": {"dim": [{"size": "80"}]}}}, "dtype": {"type": "DT_FLOAT"}}}, {"name": "2643", "op": "Const", "attr": {"dtype": {"type": "DT_FLOAT"}, "value": {"tensor": {"dtype": "DT_FLOAT", "tensorShape": {"dim": [{"size": "1"}, {"size": "1"}, {"size": "80"}, {"size": "64"}]}}}}}, {"name": "2663", "op": "Const", "attr": {"value": {"tensor": {"dtype": "DT_FLOAT", "tensorShape": {"dim": [{"size": "64"}]}}}, "dtype": {"type": "DT_FLOAT"}}}, {"name": "2577", "op": "Const", "attr": {"value": {"tensor": {"dtype": "DT_FLOAT", "tensorShape": {"dim": [{"size": "3"}, {"size": "3"}, {"size": "640"}, {"size": "320"}]}}}, "dtype": {"type": "DT_FLOAT"}}}, {"name": "2591", "op": "Const", "attr": {"dtype": {"type": "DT_FLOAT"}, "value": {"tensor": {"dtype": "DT_FLOAT", "tensorShape": {"dim": [{"size": "320"}]}}}}}, {"name": "2607", "op": "Const", "attr": {"dtype": {"type": "DT_FLOAT"}, "value": {"tensor": {"dtype": "DT_FLOAT", "tensorShape": {"dim": [{"size": "3"}, {"size": "3"}, {"size": "320"}, {"size": "320"}]}}}}}, {"name": "2623", "op": "Const", "attr": {"dtype": {"type": "DT_FLOAT"}, "value": {"tensor": {"dtype": "DT_FLOAT", "tensorShape": {"dim": [{"size": "320"}]}}}}}, {"name": "2641", "op": "Const", "attr": {"value": {"tensor": {"dtype": "DT_FLOAT", "tensorShape": {"dim": [{"size": "1"}, {"size": "1"}, {"size": "320"}, {"size": "1"}]}}}, "dtype": {"type": "DT_FLOAT"}}}, {"name": "2665", "op": "Const", "attr": {"dtype": {"type": "DT_FLOAT"}, "value": {"tensor": {"dtype": "DT_FLOAT", "tensorShape": {"dim": [{"size": "1"}]}}}}}, {"name": "PartitionedCall/model_23/tf.concat_593/concat/axis", "op": "Const", "attr": {"value": {"tensor": {"dtype": "DT_INT32", "tensorShape": {}}}, "dtype": {"type": "DT_INT32"}}}, {"name": "PartitionedCall/model_23/tf.compat.v1.transpose_1179/transpose/perm", "op": "Const", "attr": {"dtype": {"type": "DT_INT32"}, "value": {"tensor": {"dtype": "DT_INT32", "tensorShape": {"dim": [{"size": "4"}]}}}}}, {"name": "PartitionedCall/model_23/tf.reshape_3/Reshape/shape", "op": "Const", "attr": {"value": {"tensor": {"dtype": "DT_INT32", "tensorShape": {"dim": [{"size": "3"}]}}}, "dtype": {"type": "DT_INT32"}}}, {"name": "2575", "op": "Const", "attr": {"value": {"tensor": {"dtype": "DT_FLOAT", "tensorShape": {"dim": [{"size": "3"}, {"size": "3"}, {"size": "640"}, {"size": "80"}]}}}, "dtype": {"type": "DT_FLOAT"}}}, {"name": "2589", "op": "Const", "attr": {"value": {"tensor": {"dtype": "DT_FLOAT", "tensorShape": {"dim": [{"size": "80"}]}}}, "dtype": {"type": "DT_FLOAT"}}}, {"name": "2605", "op": "Const", "attr": {"value": {"tensor": {"dtype": "DT_FLOAT", "tensorShape": {"dim": [{"size": "3"}, {"size": "3"}, {"size": "80"}, {"size": "80"}]}}}, "dtype": {"type": "DT_FLOAT"}}}, {"name": "2621", "op": "Const", "attr": {"dtype": {"type": "DT_FLOAT"}, "value": {"tensor": {"dtype": "DT_FLOAT", "tensorShape": {"dim": [{"size": "80"}]}}}}}, {"name": "2639", "op": "Const", "attr": {"dtype": {"type": "DT_FLOAT"}, "value": {"tensor": {"dtype": "DT_FLOAT", "tensorShape": {"dim": [{"size": "1"}, {"size": "1"}, {"size": "80"}, {"size": "64"}]}}}}}, {"name": "2659", "op": "Const", "attr": {"dtype": {"type": "DT_FLOAT"}, "value": {"tensor": {"dtype": "DT_FLOAT", "tensorShape": {"dim": [{"size": "64"}]}}}}}, {"name": "2573", "op": "Const", "attr": {"dtype": {"type": "DT_FLOAT"}, "value": {"tensor": {"dtype": "DT_FLOAT", "tensorShape": {"dim": [{"size": "3"}, {"size": "3"}, {"size": "640"}, {"size": "320"}]}}}}}, {"name": "2587", "op": "Const", "attr": {"dtype": {"type": "DT_FLOAT"}, "value": {"tensor": {"dtype": "DT_FLOAT", "tensorShape": {"dim": [{"size": "320"}]}}}}}, {"name": "2603", "op": "Const", "attr": {"dtype": {"type": "DT_FLOAT"}, "value": {"tensor": {"dtype": "DT_FLOAT", "tensorShape": {"dim": [{"size": "3"}, {"size": "3"}, {"size": "320"}, {"size": "320"}]}}}}}, {"name": "2619", "op": "Const", "attr": {"value": {"tensor": {"dtype": "DT_FLOAT", "tensorShape": {"dim": [{"size": "320"}]}}}, "dtype": {"type": "DT_FLOAT"}}}, {"name": "2637", "op": "Const", "attr": {"dtype": {"type": "DT_FLOAT"}, "value": {"tensor": {"dtype": "DT_FLOAT", "tensorShape": {"dim": [{"size": "1"}, {"size": "1"}, {"size": "320"}, {"size": "1"}]}}}}}, {"name": "2661", "op": "Const", "attr": {"value": {"tensor": {"dtype": "DT_FLOAT", "tensorShape": {"dim": [{"size": "1"}]}}}, "dtype": {"type": "DT_FLOAT"}}}, {"name": "PartitionedCall/model_23/tf.concat_596/concat/axis", "op": "Const", "attr": {"dtype": {"type": "DT_INT32"}, "value": {"tensor": {"dtype": "DT_INT32", "tensorShape": {}}}}}, {"name": "PartitionedCall/model_23/tf.compat.v1.transpose_1181/transpose/perm", "op": "Const", "attr": {"value": {"tensor": {"dtype": "DT_INT32", "tensorShape": {"dim": [{"size": "4"}]}}}, "dtype": {"type": "DT_INT32"}}}, {"name": "PartitionedCall/model_23/tf.reshape_5/Reshape/shape", "op": "Const", "attr": {"value": {"tensor": {"dtype": "DT_INT32", "tensorShape": {"dim": [{"size": "3"}]}}}, "dtype": {"type": "DT_INT32"}}}, {"name": "2571", "op": "Const", "attr": {"dtype": {"type": "DT_FLOAT"}, "value": {"tensor": {"dtype": "DT_FLOAT", "tensorShape": {"dim": [{"size": "3"}, {"size": "3"}, {"size": "640"}, {"size": "80"}]}}}}}, {"name": "2585", "op": "Const", "attr": {"value": {"tensor": {"dtype": "DT_FLOAT", "tensorShape": {"dim": [{"size": "80"}]}}}, "dtype": {"type": "DT_FLOAT"}}}, {"name": "2601", "op": "Const", "attr": {"value": {"tensor": {"dtype": "DT_FLOAT", "tensorShape": {"dim": [{"size": "3"}, {"size": "3"}, {"size": "80"}, {"size": "80"}]}}}, "dtype": {"type": "DT_FLOAT"}}}, {"name": "2617", "op": "Const", "attr": {"dtype": {"type": "DT_FLOAT"}, "value": {"tensor": {"dtype": "DT_FLOAT", "tensorShape": {"dim": [{"size": "80"}]}}}}}, {"name": "2635", "op": "Const", "attr": {"dtype": {"type": "DT_FLOAT"}, "value": {"tensor": {"dtype": "DT_FLOAT", "tensorShape": {"dim": [{"size": "1"}, {"size": "1"}, {"size": "80"}, {"size": "64"}]}}}}}, {"name": "2655", "op": "Const", "attr": {"value": {"tensor": {"dtype": "DT_FLOAT", "tensorShape": {"dim": [{"size": "64"}]}}}, "dtype": {"type": "DT_FLOAT"}}}, {"name": "2569", "op": "Const", "attr": {"dtype": {"type": "DT_FLOAT"}, "value": {"tensor": {"dtype": "DT_FLOAT", "tensorShape": {"dim": [{"size": "3"}, {"size": "3"}, {"size": "640"}, {"size": "320"}]}}}}}, {"name": "2583", "op": "Const", "attr": {"value": {"tensor": {"dtype": "DT_FLOAT", "tensorShape": {"dim": [{"size": "320"}]}}}, "dtype": {"type": "DT_FLOAT"}}}, {"name": "2599", "op": "Const", "attr": {"value": {"tensor": {"dtype": "DT_FLOAT", "tensorShape": {"dim": [{"size": "3"}, {"size": "3"}, {"size": "320"}, {"size": "320"}]}}}, "dtype": {"type": "DT_FLOAT"}}}, {"name": "2615", "op": "Const", "attr": {"value": {"tensor": {"dtype": "DT_FLOAT", "tensorShape": {"dim": [{"size": "320"}]}}}, "dtype": {"type": "DT_FLOAT"}}}, {"name": "2633", "op": "Const", "attr": {"dtype": {"type": "DT_FLOAT"}, "value": {"tensor": {"dtype": "DT_FLOAT", "tensorShape": {"dim": [{"size": "1"}, {"size": "1"}, {"size": "320"}, {"size": "1"}]}}}}}, {"name": "2657", "op": "Const", "attr": {"value": {"tensor": {"dtype": "DT_FLOAT", "tensorShape": {"dim": [{"size": "1"}]}}}, "dtype": {"type": "DT_FLOAT"}}}, {"name": "PartitionedCall/model_23/tf.concat_598/concat/axis", "op": "Const", "attr": {"value": {"tensor": {"dtype": "DT_INT32", "tensorShape": {}}}, "dtype": {"type": "DT_INT32"}}}, {"name": "PartitionedCall/model_23/tf.compat.v1.transpose_1183/transpose/perm", "op": "Const", "attr": {"value": {"tensor": {"dtype": "DT_INT32", "tensorShape": {"dim": [{"size": "4"}]}}}, "dtype": {"type": "DT_INT32"}}}, {"name": "PartitionedCall/model_23/tf.reshape_7/Reshape/shape", "op": "Const", "attr": {"value": {"tensor": {"dtype": "DT_INT32", "tensorShape": {"dim": [{"size": "3"}]}}}, "dtype": {"type": "DT_INT32"}}}, {"name": "PartitionedCall/model_23/tf.concat_600/concat/axis", "op": "Const", "attr": {"value": {"tensor": {"dtype": "DT_INT32", "tensorShape": {}}}, "dtype": {"type": "DT_INT32"}}}, {"name": "2741", "op": "Const", "attr": {"dtype": {"type": "DT_INT64"}, "value": {"tensor": {"dtype": "DT_INT64", "tensorShape": {"dim": [{"size": "3"}]}}}}}, {"name": "2743", "op": "Const", "attr": {"value": {"tensor": {"dtype": "DT_INT64", "tensorShape": {"dim": [{"size": "3"}]}}}, "dtype": {"type": "DT_INT64"}}}, {"name": "PartitionedCall/model_23/tf.strided_slice_23/StridedSlice/strides", "op": "Const", "attr": {"dtype": {"type": "DT_INT64"}, "value": {"tensor": {"dtype": "DT_INT64", "tensorShape": {"dim": [{"size": "3"}]}}}}}, {"name": "2715", "op": "Const", "attr": {"value": {"tensor": {"dtype": "DT_INT64", "tensorShape": {"dim": [{"size": "4"}]}}}, "dtype": {"type": "DT_INT64"}}}, {"name": "2717", "op": "Const", "attr": {"dtype": {"type": "DT_INT64"}, "value": {"tensor": {"dtype": "DT_INT64", "tensorShape": {"dim": [{"size": "4"}]}}}}}, {"name": "PartitionedCall/model_23/tf.strided_slice_24/StridedSlice/strides", "op": "Const", "attr": {"dtype": {"type": "DT_INT64"}, "value": {"tensor": {"dtype": "DT_INT64", "tensorShape": {"dim": [{"size": "4"}]}}}}}, {"name": "2719", "op": "Const", "attr": {"dtype": {"type": "DT_FLOAT"}, "value": {"tensor": {"dtype": "DT_FLOAT", "tensorShape": {"dim": [{"size": "1"}, {"size": "1"}, {"size": "1"}, {"size": "1"}]}}}}}, {"name": "2733", "op": "Const", "attr": {"dtype": {"type": "DT_FLOAT"}, "value": {"tensor": {"dtype": "DT_FLOAT", "tensorShape": {"dim": [{"size": "1"}, {"size": "1"}, {"size": "2"}, {"size": "34000"}]}}}}}, {"name": "PartitionedCall/model_23/tf.math.multiply_448/Mul/y", "op": "Const", "attr": {"value": {"tensor": {"dtype": "DT_FLOAT", "tensorShape": {"dim": [{"size": "1"}, {"size": "1"}, {"size": "1"}, {"size": "34000"}]}}}, "dtype": {"type": "DT_FLOAT"}}}, {"name": "2653", "op": "Const", "attr": {"dtype": {"type": "DT_FLOAT"}, "value": {"tensor": {"dtype": "DT_FLOAT", "tensorShape": {"dim": [{"size": "3"}, {"size": "3"}, {"size": "320"}, {"size": "80"}]}}}}}, {"name": "2675", "op": "Const", "attr": {"dtype": {"type": "DT_FLOAT"}, "value": {"tensor": {"dtype": "DT_FLOAT", "tensorShape": {"dim": [{"size": "80"}]}}}}}, {"name": "2685", "op": "Const", "attr": {"value": {"tensor": {"dtype": "DT_FLOAT", "tensorShape": {"dim": [{"size": "3"}, {"size": "3"}, {"size": "80"}, {"size": "80"}]}}}, "dtype": {"type": "DT_FLOAT"}}}, {"name": "2691", "op": "Const", "attr": {"dtype": {"type": "DT_FLOAT"}, "value": {"tensor": {"dtype": "DT_FLOAT", "tensorShape": {"dim": [{"size": "80"}]}}}}}, {"name": "2703", "op": "Const", "attr": {"dtype": {"type": "DT_FLOAT"}, "value": {"tensor": {"dtype": "DT_FLOAT", "tensorShape": {"dim": [{"size": "1"}, {"size": "1"}, {"size": "80"}, {"size": "51"}]}}}}}, {"name": "2711", "op": "Const", "attr": {"dtype": {"type": "DT_FLOAT"}, "value": {"tensor": {"dtype": "DT_FLOAT", "tensorShape": {"dim": [{"size": "51"}]}}}}}, {"name": "PartitionedCall/model_23/tf.compat.v1.transpose_1172/transpose/perm", "op": "Const", "attr": {"dtype": {"type": "DT_INT32"}, "value": {"tensor": {"dtype": "DT_INT32", "tensorShape": {"dim": [{"size": "4"}]}}}}}, {"name": "PartitionedCall/model_23/tf.reshape/Reshape/shape", "op": "Const", "attr": {"value": {"tensor": {"dtype": "DT_INT32", "tensorShape": {"dim": [{"size": "3"}]}}}, "dtype": {"type": "DT_INT32"}}}, {"name": "2629", "op": "Const", "attr": {"dtype": {"type": "DT_FLOAT"}, "value": {"tensor": {"dtype": "DT_FLOAT", "tensorShape": {"dim": [{"size": "3"}, {"size": "3"}, {"size": "640"}, {"size": "80"}]}}}}}, {"name": "2631", "op": "Const", "attr": {"value": {"tensor": {"dtype": "DT_FLOAT", "tensorShape": {"dim": [{"size": "80"}]}}}, "dtype": {"type": "DT_FLOAT"}}}, {"name": "2677", "op": "Const", "attr": {"value": {"tensor": {"dtype": "DT_FLOAT", "tensorShape": {"dim": [{"size": "3"}, {"size": "3"}, {"size": "80"}, {"size": "80"}]}}}, "dtype": {"type": "DT_FLOAT"}}}, {"name": "2683", "op": "Const", "attr": {"value": {"tensor": {"dtype": "DT_FLOAT", "tensorShape": {"dim": [{"size": "80"}]}}}, "dtype": {"type": "DT_FLOAT"}}}, {"name": "2701", "op": "Const", "attr": {"dtype": {"type": "DT_FLOAT"}, "value": {"tensor": {"dtype": "DT_FLOAT", "tensorShape": {"dim": [{"size": "1"}, {"size": "1"}, {"size": "80"}, {"size": "51"}]}}}}}, {"name": "2709", "op": "Const", "attr": {"dtype": {"type": "DT_FLOAT"}, "value": {"tensor": {"dtype": "DT_FLOAT", "tensorShape": {"dim": [{"size": "51"}]}}}}}, {"name": "PartitionedCall/model_23/tf.compat.v1.transpose_1178/transpose/perm", "op": "Const", "attr": {"value": {"tensor": {"dtype": "DT_INT32", "tensorShape": {"dim": [{"size": "4"}]}}}, "dtype": {"type": "DT_INT32"}}}, {"name": "PartitionedCall/model_23/tf.reshape_2/Reshape/shape", "op": "Const", "attr": {"dtype": {"type": "DT_INT32"}, "value": {"tensor": {"dtype": "DT_INT32", "tensorShape": {"dim": [{"size": "3"}]}}}}}, {"name": "2651", "op": "Const", "attr": {"dtype": {"type": "DT_FLOAT"}, "value": {"tensor": {"dtype": "DT_FLOAT", "tensorShape": {"dim": [{"size": "3"}, {"size": "3"}, {"size": "640"}, {"size": "80"}]}}}}}, {"name": "2673", "op": "Const", "attr": {"value": {"tensor": {"dtype": "DT_FLOAT", "tensorShape": {"dim": [{"size": "80"}]}}}, "dtype": {"type": "DT_FLOAT"}}}, {"name": "2681", "op": "Const", "attr": {"value": {"tensor": {"dtype": "DT_FLOAT", "tensorShape": {"dim": [{"size": "3"}, {"size": "3"}, {"size": "80"}, {"size": "80"}]}}}, "dtype": {"type": "DT_FLOAT"}}}, {"name": "2689", "op": "Const", "attr": {"value": {"tensor": {"dtype": "DT_FLOAT", "tensorShape": {"dim": [{"size": "80"}]}}}, "dtype": {"type": "DT_FLOAT"}}}, {"name": "2699", "op": "Const", "attr": {"dtype": {"type": "DT_FLOAT"}, "value": {"tensor": {"dtype": "DT_FLOAT", "tensorShape": {"dim": [{"size": "1"}, {"size": "1"}, {"size": "80"}, {"size": "51"}]}}}}}, {"name": "2707", "op": "Const", "attr": {"value": {"tensor": {"dtype": "DT_FLOAT", "tensorShape": {"dim": [{"size": "51"}]}}}, "dtype": {"type": "DT_FLOAT"}}}, {"name": "PartitionedCall/model_23/tf.compat.v1.transpose_1180/transpose/perm", "op": "Const", "attr": {"dtype": {"type": "DT_INT32"}, "value": {"tensor": {"dtype": "DT_INT32", "tensorShape": {"dim": [{"size": "4"}]}}}}}, {"name": "PartitionedCall/model_23/tf.reshape_4/Reshape/shape", "op": "Const", "attr": {"value": {"tensor": {"dtype": "DT_INT32", "tensorShape": {"dim": [{"size": "3"}]}}}, "dtype": {"type": "DT_INT32"}}}, {"name": "2529", "op": "Const", "attr": {"dtype": {"type": "DT_INT64"}, "value": {"tensor": {"dtype": "DT_INT64", "tensorShape": {"dim": [{"size": "4"}]}}}}}, {"name": "2531", "op": "Const", "attr": {"dtype": {"type": "DT_INT64"}, "value": {"tensor": {"dtype": "DT_INT64", "tensorShape": {"dim": [{"size": "4"}]}}}}}, {"name": "PartitionedCall/model_23/tf.strided_slice_20/ones_like", "op": "Const", "attr": {"value": {"tensor": {"dtype": "DT_INT64", "tensorShape": {"dim": [{"size": "4"}]}}}, "dtype": {"type": "DT_INT64"}}}, {"name": "2533", "op": "Const", "attr": {"dtype": {"type": "DT_FLOAT"}, "value": {"tensor": {"dtype": "DT_FLOAT", "tensorShape": {"dim": [{"size": "3"}, {"size": "3"}, {"size": "320"}, {"size": "320"}]}}}}}, {"name": "2535", "op": "Const", "attr": {"value": {"tensor": {"dtype": "DT_FLOAT", "tensorShape": {"dim": [{"size": "320"}]}}}, "dtype": {"type": "DT_FLOAT"}}}, {"name": "2537", "op": "Const", "attr": {"dtype": {"type": "DT_FLOAT"}, "value": {"tensor": {"dtype": "DT_FLOAT", "tensorShape": {"dim": [{"size": "3"}, {"size": "3"}, {"size": "320"}, {"size": "320"}]}}}}}, {"name": "2539", "op": "Const", "attr": {"dtype": {"type": "DT_FLOAT"}, "value": {"tensor": {"dtype": "DT_FLOAT", "tensorShape": {"dim": [{"size": "320"}]}}}}}, {"name": "2541", "op": "Const", "attr": {"dtype": {"type": "DT_FLOAT"}, "value": {"tensor": {"dtype": "DT_FLOAT", "tensorShape": {"dim": [{"size": "3"}, {"size": "3"}, {"size": "320"}, {"size": "320"}]}}}}}, {"name": "2543", "op": "Const", "attr": {"dtype": {"type": "DT_FLOAT"}, "value": {"tensor": {"dtype": "DT_FLOAT", "tensorShape": {"dim": [{"size": "320"}]}}}}}, {"name": "2545", "op": "Const", "attr": {"dtype": {"type": "DT_FLOAT"}, "value": {"tensor": {"dtype": "DT_FLOAT", "tensorShape": {"dim": [{"size": "3"}, {"size": "3"}, {"size": "320"}, {"size": "320"}]}}}}}, {"name": "2547", "op": "Const", "attr": {"dtype": {"type": "DT_FLOAT"}, "value": {"tensor": {"dtype": "DT_FLOAT", "tensorShape": {"dim": [{"size": "320"}]}}}}}, {"name": "2549", "op": "Const", "attr": {"value": {"tensor": {"dtype": "DT_FLOAT", "tensorShape": {"dim": [{"size": "3"}, {"size": "3"}, {"size": "320"}, {"size": "320"}]}}}, "dtype": {"type": "DT_FLOAT"}}}, {"name": "2551", "op": "Const", "attr": {"value": {"tensor": {"dtype": "DT_FLOAT", "tensorShape": {"dim": [{"size": "320"}]}}}, "dtype": {"type": "DT_FLOAT"}}}, {"name": "2553", "op": "Const", "attr": {"value": {"tensor": {"dtype": "DT_FLOAT", "tensorShape": {"dim": [{"size": "3"}, {"size": "3"}, {"size": "320"}, {"size": "320"}]}}}, "dtype": {"type": "DT_FLOAT"}}}, {"name": "2555", "op": "Const", "attr": {"dtype": {"type": "DT_FLOAT"}, "value": {"tensor": {"dtype": "DT_FLOAT", "tensorShape": {"dim": [{"size": "320"}]}}}}}, {"name": "2483", "op": "Const", "attr": {"dtype": {"type": "DT_INT64"}, "value": {"tensor": {"dtype": "DT_INT64", "tensorShape": {"dim": [{"size": "4"}]}}}}}, {"name": "2485", "op": "Const", "attr": {"value": {"tensor": {"dtype": "DT_INT64", "tensorShape": {"dim": [{"size": "4"}]}}}, "dtype": {"type": "DT_INT64"}}}, {"name": "PartitionedCall/model_23/tf.strided_slice_18/ones_like", "op": "Const", "attr": {"dtype": {"type": "DT_INT64"}, "value": {"tensor": {"dtype": "DT_INT64", "tensorShape": {"dim": [{"size": "4"}]}}}}}, {"name": "2487", "op": "Const", "attr": {"value": {"tensor": {"dtype": "DT_FLOAT", "tensorShape": {"dim": [{"size": "3"}, {"size": "3"}, {"size": "320"}, {"size": "320"}]}}}, "dtype": {"type": "DT_FLOAT"}}}, {"name": "2489", "op": "Const", "attr": {"value": {"tensor": {"dtype": "DT_FLOAT", "tensorShape": {"dim": [{"size": "320"}]}}}, "dtype": {"type": "DT_FLOAT"}}}, {"name": "2491", "op": "Const", "attr": {"value": {"tensor": {"dtype": "DT_FLOAT", "tensorShape": {"dim": [{"size": "3"}, {"size": "3"}, {"size": "320"}, {"size": "320"}]}}}, "dtype": {"type": "DT_FLOAT"}}}, {"name": "2493", "op": "Const", "attr": {"value": {"tensor": {"dtype": "DT_FLOAT", "tensorShape": {"dim": [{"size": "320"}]}}}, "dtype": {"type": "DT_FLOAT"}}}, {"name": "2495", "op": "Const", "attr": {"dtype": {"type": "DT_FLOAT"}, "value": {"tensor": {"dtype": "DT_FLOAT", "tensorShape": {"dim": [{"size": "3"}, {"size": "3"}, {"size": "320"}, {"size": "320"}]}}}}}, {"name": "2497", "op": "Const", "attr": {"dtype": {"type": "DT_FLOAT"}, "value": {"tensor": {"dtype": "DT_FLOAT", "tensorShape": {"dim": [{"size": "320"}]}}}}}, {"name": "2499", "op": "Const", "attr": {"value": {"tensor": {"dtype": "DT_FLOAT", "tensorShape": {"dim": [{"size": "3"}, {"size": "3"}, {"size": "320"}, {"size": "320"}]}}}, "dtype": {"type": "DT_FLOAT"}}}, {"name": "2501", "op": "Const", "attr": {"value": {"tensor": {"dtype": "DT_FLOAT", "tensorShape": {"dim": [{"size": "320"}]}}}, "dtype": {"type": "DT_FLOAT"}}}, {"name": "2503", "op": "Const", "attr": {"dtype": {"type": "DT_FLOAT"}, "value": {"tensor": {"dtype": "DT_FLOAT", "tensorShape": {"dim": [{"size": "3"}, {"size": "3"}, {"size": "320"}, {"size": "320"}]}}}}}, {"name": "2505", "op": "Const", "attr": {"dtype": {"type": "DT_FLOAT"}, "value": {"tensor": {"dtype": "DT_FLOAT", "tensorShape": {"dim": [{"size": "320"}]}}}}}, {"name": "2507", "op": "Const", "attr": {"dtype": {"type": "DT_FLOAT"}, "value": {"tensor": {"dtype": "DT_FLOAT", "tensorShape": {"dim": [{"size": "3"}, {"size": "3"}, {"size": "320"}, {"size": "320"}]}}}}}, {"name": "2509", "op": "Const", "attr": {"dtype": {"type": "DT_FLOAT"}, "value": {"tensor": {"dtype": "DT_FLOAT", "tensorShape": {"dim": [{"size": "320"}]}}}}}, {"name": "2437", "op": "Const", "attr": {"dtype": {"type": "DT_INT64"}, "value": {"tensor": {"dtype": "DT_INT64", "tensorShape": {"dim": [{"size": "4"}]}}}}}, {"name": "2439", "op": "Const", "attr": {"value": {"tensor": {"dtype": "DT_INT64", "tensorShape": {"dim": [{"size": "4"}]}}}, "dtype": {"type": "DT_INT64"}}}, {"name": "PartitionedCall/model_23/tf.strided_slice_16/ones_like", "op": "Const", "attr": {"value": {"tensor": {"dtype": "DT_INT64", "tensorShape": {"dim": [{"size": "4"}]}}}, "dtype": {"type": "DT_INT64"}}}, {"name": "2441", "op": "Const", "attr": {"value": {"tensor": {"dtype": "DT_FLOAT", "tensorShape": {"dim": [{"size": "3"}, {"size": "3"}, {"size": "320"}, {"size": "320"}]}}}, "dtype": {"type": "DT_FLOAT"}}}, {"name": "2443", "op": "Const", "attr": {"value": {"tensor": {"dtype": "DT_FLOAT", "tensorShape": {"dim": [{"size": "320"}]}}}, "dtype": {"type": "DT_FLOAT"}}}, {"name": "2445", "op": "Const", "attr": {"dtype": {"type": "DT_FLOAT"}, "value": {"tensor": {"dtype": "DT_FLOAT", "tensorShape": {"dim": [{"size": "3"}, {"size": "3"}, {"size": "320"}, {"size": "320"}]}}}}}, {"name": "2447", "op": "Const", "attr": {"value": {"tensor": {"dtype": "DT_FLOAT", "tensorShape": {"dim": [{"size": "320"}]}}}, "dtype": {"type": "DT_FLOAT"}}}, {"name": "2449", "op": "Const", "attr": {"value": {"tensor": {"dtype": "DT_FLOAT", "tensorShape": {"dim": [{"size": "3"}, {"size": "3"}, {"size": "320"}, {"size": "320"}]}}}, "dtype": {"type": "DT_FLOAT"}}}, {"name": "2451", "op": "Const", "attr": {"value": {"tensor": {"dtype": "DT_FLOAT", "tensorShape": {"dim": [{"size": "320"}]}}}, "dtype": {"type": "DT_FLOAT"}}}, {"name": "2453", "op": "Const", "attr": {"dtype": {"type": "DT_FLOAT"}, "value": {"tensor": {"dtype": "DT_FLOAT", "tensorShape": {"dim": [{"size": "3"}, {"size": "3"}, {"size": "320"}, {"size": "320"}]}}}}}, {"name": "2455", "op": "Const", "attr": {"value": {"tensor": {"dtype": "DT_FLOAT", "tensorShape": {"dim": [{"size": "320"}]}}}, "dtype": {"type": "DT_FLOAT"}}}, {"name": "2457", "op": "Const", "attr": {"value": {"tensor": {"dtype": "DT_FLOAT", "tensorShape": {"dim": [{"size": "3"}, {"size": "3"}, {"size": "320"}, {"size": "320"}]}}}, "dtype": {"type": "DT_FLOAT"}}}, {"name": "2459", "op": "Const", "attr": {"dtype": {"type": "DT_FLOAT"}, "value": {"tensor": {"dtype": "DT_FLOAT", "tensorShape": {"dim": [{"size": "320"}]}}}}}, {"name": "2461", "op": "Const", "attr": {"dtype": {"type": "DT_FLOAT"}, "value": {"tensor": {"dtype": "DT_FLOAT", "tensorShape": {"dim": [{"size": "3"}, {"size": "3"}, {"size": "320"}, {"size": "320"}]}}}}}, {"name": "2463", "op": "Const", "attr": {"value": {"tensor": {"dtype": "DT_FLOAT", "tensorShape": {"dim": [{"size": "320"}]}}}, "dtype": {"type": "DT_FLOAT"}}}, {"name": "2391", "op": "Const", "attr": {"dtype": {"type": "DT_INT64"}, "value": {"tensor": {"dtype": "DT_INT64", "tensorShape": {"dim": [{"size": "4"}]}}}}}, {"name": "2393", "op": "Const", "attr": {"dtype": {"type": "DT_INT64"}, "value": {"tensor": {"dtype": "DT_INT64", "tensorShape": {"dim": [{"size": "4"}]}}}}}, {"name": "PartitionedCall/model_23/tf.strided_slice_14/ones_like", "op": "Const", "attr": {"dtype": {"type": "DT_INT64"}, "value": {"tensor": {"dtype": "DT_INT64", "tensorShape": {"dim": [{"size": "4"}]}}}}}, {"name": "2395", "op": "Const", "attr": {"dtype": {"type": "DT_FLOAT"}, "value": {"tensor": {"dtype": "DT_FLOAT", "tensorShape": {"dim": [{"size": "3"}, {"size": "3"}, {"size": "160"}, {"size": "160"}]}}}}}, {"name": "2397", "op": "Const", "attr": {"value": {"tensor": {"dtype": "DT_FLOAT", "tensorShape": {"dim": [{"size": "160"}]}}}, "dtype": {"type": "DT_FLOAT"}}}, {"name": "2399", "op": "Const", "attr": {"dtype": {"type": "DT_FLOAT"}, "value": {"tensor": {"dtype": "DT_FLOAT", "tensorShape": {"dim": [{"size": "3"}, {"size": "3"}, {"size": "160"}, {"size": "160"}]}}}}}, {"name": "2401", "op": "Const", "attr": {"dtype": {"type": "DT_FLOAT"}, "value": {"tensor": {"dtype": "DT_FLOAT", "tensorShape": {"dim": [{"size": "160"}]}}}}}, {"name": "2403", "op": "Const", "attr": {"value": {"tensor": {"dtype": "DT_FLOAT", "tensorShape": {"dim": [{"size": "3"}, {"size": "3"}, {"size": "160"}, {"size": "160"}]}}}, "dtype": {"type": "DT_FLOAT"}}}, {"name": "2405", "op": "Const", "attr": {"dtype": {"type": "DT_FLOAT"}, "value": {"tensor": {"dtype": "DT_FLOAT", "tensorShape": {"dim": [{"size": "160"}]}}}}}, {"name": "2407", "op": "Const", "attr": {"value": {"tensor": {"dtype": "DT_FLOAT", "tensorShape": {"dim": [{"size": "3"}, {"size": "3"}, {"size": "160"}, {"size": "160"}]}}}, "dtype": {"type": "DT_FLOAT"}}}, {"name": "2409", "op": "Const", "attr": {"value": {"tensor": {"dtype": "DT_FLOAT", "tensorShape": {"dim": [{"size": "160"}]}}}, "dtype": {"type": "DT_FLOAT"}}}, {"name": "2411", "op": "Const", "attr": {"dtype": {"type": "DT_FLOAT"}, "value": {"tensor": {"dtype": "DT_FLOAT", "tensorShape": {"dim": [{"size": "3"}, {"size": "3"}, {"size": "160"}, {"size": "160"}]}}}}}, {"name": "2413", "op": "Const", "attr": {"dtype": {"type": "DT_FLOAT"}, "value": {"tensor": {"dtype": "DT_FLOAT", "tensorShape": {"dim": [{"size": "160"}]}}}}}, {"name": "2415", "op": "Const", "attr": {"dtype": {"type": "DT_FLOAT"}, "value": {"tensor": {"dtype": "DT_FLOAT", "tensorShape": {"dim": [{"size": "3"}, {"size": "3"}, {"size": "160"}, {"size": "160"}]}}}}}, {"name": "2417", "op": "Const", "attr": {"dtype": {"type": "DT_FLOAT"}, "value": {"tensor": {"dtype": "DT_FLOAT", "tensorShape": {"dim": [{"size": "160"}]}}}}}, {"name": "PartitionedCall/model_23/lambda_2//model.18/Resize/size", "op": "Const", "attr": {"value": {"tensor": {"dtype": "DT_INT32", "tensorShape": {"dim": [{"size": "2"}]}}}, "dtype": {"type": "DT_INT32"}}}, {"name": "PartitionedCall/model_23/tf.concat_10/concat/axis", "op": "Const", "attr": {"dtype": {"type": "DT_INT32"}, "value": {"tensor": {"dtype": "DT_INT32", "tensorShape": {}}}}}, {"name": "2387", "op": "Const", "attr": {"value": {"tensor": {"dtype": "DT_FLOAT", "tensorShape": {"dim": [{"size": "1"}, {"size": "1"}, {"size": "960"}, {"size": "320"}]}}}, "dtype": {"type": "DT_FLOAT"}}}, {"name": "2389", "op": "Const", "attr": {"value": {"tensor": {"dtype": "DT_FLOAT", "tensorShape": {"dim": [{"size": "320"}]}}}, "dtype": {"type": "DT_FLOAT"}}}, {"name": "2419", "op": "Const", "attr": {"dtype": {"type": "DT_INT64"}, "value": {"tensor": {"dtype": "DT_INT64", "tensorShape": {"dim": [{"size": "4"}]}}}}}, {"name": "2421", "op": "Const", "attr": {"dtype": {"type": "DT_INT64"}, "value": {"tensor": {"dtype": "DT_INT64", "tensorShape": {"dim": [{"size": "4"}]}}}}}, {"name": "PartitionedCall/model_23/tf.strided_slice_15/ones_like", "op": "Const", "attr": {"dtype": {"type": "DT_INT64"}, "value": {"tensor": {"dtype": "DT_INT64", "tensorShape": {"dim": [{"size": "4"}]}}}}}, {"name": "PartitionedCall/model_23/tf.concat_588/concat/axis", "op": "Const", "attr": {"dtype": {"type": "DT_INT32"}, "value": {"tensor": {"dtype": "DT_INT32", "tensorShape": {}}}}}, {"name": "2423", "op": "Const", "attr": {"value": {"tensor": {"dtype": "DT_FLOAT", "tensorShape": {"dim": [{"size": "1"}, {"size": "1"}, {"size": "320"}, {"size": "320"}]}}}, "dtype": {"type": "DT_FLOAT"}}}, {"name": "2425", "op": "Const", "attr": {"dtype": {"type": "DT_FLOAT"}, "value": {"tensor": {"dtype": "DT_FLOAT", "tensorShape": {"dim": [{"size": "320"}]}}}}}, {"name": "2427", "op": "Const", "attr": {"value": {"tensor": {"dtype": "DT_INT32", "tensorShape": {"dim": [{"size": "4"}, {"size": "2"}]}}}, "dtype": {"type": "DT_INT32"}}}, {"name": "2429", "op": "Const", "attr": {"value": {"tensor": {"dtype": "DT_FLOAT", "tensorShape": {"dim": [{"size": "3"}, {"size": "3"}, {"size": "320"}, {"size": "320"}]}}}, "dtype": {"type": "DT_FLOAT"}}}, {"name": "2431", "op": "Const", "attr": {"value": {"tensor": {"dtype": "DT_FLOAT", "tensorShape": {"dim": [{"size": "320"}]}}}, "dtype": {"type": "DT_FLOAT"}}}, {"name": "2351", "op": "Const", "attr": {"value": {"tensor": {"dtype": "DT_INT64", "tensorShape": {"dim": [{"size": "4"}]}}}, "dtype": {"type": "DT_INT64"}}}, {"name": "2353", "op": "Const", "attr": {"dtype": {"type": "DT_INT64"}, "value": {"tensor": {"dtype": "DT_INT64", "tensorShape": {"dim": [{"size": "4"}]}}}}}, {"name": "PartitionedCall/model_23/tf.strided_slice_12/ones_like", "op": "Const", "attr": {"value": {"tensor": {"dtype": "DT_INT64", "tensorShape": {"dim": [{"size": "4"}]}}}, "dtype": {"type": "DT_INT64"}}}, {"name": "2355", "op": "Const", "attr": {"value": {"tensor": {"dtype": "DT_FLOAT", "tensorShape": {"dim": [{"size": "3"}, {"size": "3"}, {"size": "320"}, {"size": "320"}]}}}, "dtype": {"type": "DT_FLOAT"}}}, {"name": "2357", "op": "Const", "attr": {"value": {"tensor": {"dtype": "DT_FLOAT", "tensorShape": {"dim": [{"size": "320"}]}}}, "dtype": {"type": "DT_FLOAT"}}}, {"name": "2359", "op": "Const", "attr": {"value": {"tensor": {"dtype": "DT_FLOAT", "tensorShape": {"dim": [{"size": "3"}, {"size": "3"}, {"size": "320"}, {"size": "320"}]}}}, "dtype": {"type": "DT_FLOAT"}}}, {"name": "2361", "op": "Const", "attr": {"value": {"tensor": {"dtype": "DT_FLOAT", "tensorShape": {"dim": [{"size": "320"}]}}}, "dtype": {"type": "DT_FLOAT"}}}, {"name": "2363", "op": "Const", "attr": {"dtype": {"type": "DT_FLOAT"}, "value": {"tensor": {"dtype": "DT_FLOAT", "tensorShape": {"dim": [{"size": "3"}, {"size": "3"}, {"size": "320"}, {"size": "320"}]}}}}}, {"name": "2365", "op": "Const", "attr": {"dtype": {"type": "DT_FLOAT"}, "value": {"tensor": {"dtype": "DT_FLOAT", "tensorShape": {"dim": [{"size": "320"}]}}}}}, {"name": "2367", "op": "Const", "attr": {"value": {"tensor": {"dtype": "DT_FLOAT", "tensorShape": {"dim": [{"size": "3"}, {"size": "3"}, {"size": "320"}, {"size": "320"}]}}}, "dtype": {"type": "DT_FLOAT"}}}, {"name": "2369", "op": "Const", "attr": {"dtype": {"type": "DT_FLOAT"}, "value": {"tensor": {"dtype": "DT_FLOAT", "tensorShape": {"dim": [{"size": "320"}]}}}}}, {"name": "2371", "op": "Const", "attr": {"value": {"tensor": {"dtype": "DT_FLOAT", "tensorShape": {"dim": [{"size": "3"}, {"size": "3"}, {"size": "320"}, {"size": "320"}]}}}, "dtype": {"type": "DT_FLOAT"}}}, {"name": "2373", "op": "Const", "attr": {"value": {"tensor": {"dtype": "DT_FLOAT", "tensorShape": {"dim": [{"size": "320"}]}}}, "dtype": {"type": "DT_FLOAT"}}}, {"name": "2375", "op": "Const", "attr": {"dtype": {"type": "DT_FLOAT"}, "value": {"tensor": {"dtype": "DT_FLOAT", "tensorShape": {"dim": [{"size": "3"}, {"size": "3"}, {"size": "320"}, {"size": "320"}]}}}}}, {"name": "2377", "op": "Const", "attr": {"value": {"tensor": {"dtype": "DT_FLOAT", "tensorShape": {"dim": [{"size": "320"}]}}}, "dtype": {"type": "DT_FLOAT"}}}, {"name": "PartitionedCall/model_23/lambda_1//model.15/Resize/size", "op": "Const", "attr": {"dtype": {"type": "DT_INT32"}, "value": {"tensor": {"dtype": "DT_INT32", "tensorShape": {"dim": [{"size": "2"}]}}}}}, {"name": "PartitionedCall/model_23/tf.concat_8/concat/axis", "op": "Const", "attr": {"dtype": {"type": "DT_INT32"}, "value": {"tensor": {"dtype": "DT_INT32", "tensorShape": {}}}}}, {"name": "2347", "op": "Const", "attr": {"value": {"tensor": {"dtype": "DT_FLOAT", "tensorShape": {"dim": [{"size": "1"}, {"size": "1"}, {"size": "1280"}, {"size": "640"}]}}}, "dtype": {"type": "DT_FLOAT"}}}, {"name": "2349", "op": "Const", "attr": {"dtype": {"type": "DT_FLOAT"}, "value": {"tensor": {"dtype": "DT_FLOAT", "tensorShape": {"dim": [{"size": "640"}]}}}}}, {"name": "2379", "op": "Const", "attr": {"dtype": {"type": "DT_INT64"}, "value": {"tensor": {"dtype": "DT_INT64", "tensorShape": {"dim": [{"size": "4"}]}}}}}, {"name": "2381", "op": "Const", "attr": {"value": {"tensor": {"dtype": "DT_INT64", "tensorShape": {"dim": [{"size": "4"}]}}}, "dtype": {"type": "DT_INT64"}}}, {"name": "PartitionedCall/model_23/tf.strided_slice_13/ones_like", "op": "Const", "attr": {"value": {"tensor": {"dtype": "DT_INT64", "tensorShape": {"dim": [{"size": "4"}]}}}, "dtype": {"type": "DT_INT64"}}}, {"name": "PartitionedCall/model_23/tf.concat_9/concat/axis", "op": "Const", "attr": {"dtype": {"type": "DT_INT32"}, "value": {"tensor": {"dtype": "DT_INT32", "tensorShape": {}}}}}, {"name": "2383", "op": "Const", "attr": {"value": {"tensor": {"dtype": "DT_FLOAT", "tensorShape": {"dim": [{"size": "1"}, {"size": "1"}, {"size": "640"}, {"size": "640"}]}}}, "dtype": {"type": "DT_FLOAT"}}}, {"name": "2385", "op": "Const", "attr": {"dtype": {"type": "DT_FLOAT"}, "value": {"tensor": {"dtype": "DT_FLOAT", "tensorShape": {"dim": [{"size": "640"}]}}}}}, {"name": "PartitionedCall/model_23/tf.concat_589/concat/axis", "op": "Const", "attr": {"value": {"tensor": {"dtype": "DT_INT32", "tensorShape": {}}}, "dtype": {"type": "DT_INT32"}}}, {"name": "2433", "op": "Const", "attr": {"value": {"tensor": {"dtype": "DT_FLOAT", "tensorShape": {"dim": [{"size": "1"}, {"size": "1"}, {"size": "960"}, {"size": "640"}]}}}, "dtype": {"type": "DT_FLOAT"}}}, {"name": "2435", "op": "Const", "attr": {"dtype": {"type": "DT_FLOAT"}, "value": {"tensor": {"dtype": "DT_FLOAT", "tensorShape": {"dim": [{"size": "640"}]}}}}}, {"name": "2465", "op": "Const", "attr": {"value": {"tensor": {"dtype": "DT_INT64", "tensorShape": {"dim": [{"size": "4"}]}}}, "dtype": {"type": "DT_INT64"}}}, {"name": "2467", "op": "Const", "attr": {"value": {"tensor": {"dtype": "DT_INT64", "tensorShape": {"dim": [{"size": "4"}]}}}, "dtype": {"type": "DT_INT64"}}}, {"name": "PartitionedCall/model_23/tf.strided_slice_17/ones_like", "op": "Const", "attr": {"value": {"tensor": {"dtype": "DT_INT64", "tensorShape": {"dim": [{"size": "4"}]}}}, "dtype": {"type": "DT_INT64"}}}, {"name": "PartitionedCall/model_23/tf.concat_591/concat/axis", "op": "Const", "attr": {"value": {"tensor": {"dtype": "DT_INT32", "tensorShape": {}}}, "dtype": {"type": "DT_INT32"}}}, {"name": "2469", "op": "Const", "attr": {"dtype": {"type": "DT_FLOAT"}, "value": {"tensor": {"dtype": "DT_FLOAT", "tensorShape": {"dim": [{"size": "1"}, {"size": "1"}, {"size": "640"}, {"size": "640"}]}}}}}, {"name": "2471", "op": "Const", "attr": {"value": {"tensor": {"dtype": "DT_FLOAT", "tensorShape": {"dim": [{"size": "640"}]}}}, "dtype": {"type": "DT_FLOAT"}}}, {"name": "2473", "op": "Const", "attr": {"dtype": {"type": "DT_INT32"}, "value": {"tensor": {"dtype": "DT_INT32", "tensorShape": {"dim": [{"size": "4"}, {"size": "2"}]}}}}}, {"name": "2475", "op": "Const", "attr": {"dtype": {"type": "DT_FLOAT"}, "value": {"tensor": {"dtype": "DT_FLOAT", "tensorShape": {"dim": [{"size": "3"}, {"size": "3"}, {"size": "640"}, {"size": "640"}]}}}}}, {"name": "2477", "op": "Const", "attr": {"value": {"tensor": {"dtype": "DT_FLOAT", "tensorShape": {"dim": [{"size": "640"}]}}}, "dtype": {"type": "DT_FLOAT"}}}, {"name": "2311", "op": "Const", "attr": {"dtype": {"type": "DT_INT64"}, "value": {"tensor": {"dtype": "DT_INT64", "tensorShape": {"dim": [{"size": "4"}]}}}}}, {"name": "2313", "op": "Const", "attr": {"dtype": {"type": "DT_INT64"}, "value": {"tensor": {"dtype": "DT_INT64", "tensorShape": {"dim": [{"size": "4"}]}}}}}, {"name": "PartitionedCall/model_23/tf.strided_slice_10/ones_like", "op": "Const", "attr": {"value": {"tensor": {"dtype": "DT_INT64", "tensorShape": {"dim": [{"size": "4"}]}}}, "dtype": {"type": "DT_INT64"}}}, {"name": "2315", "op": "Const", "attr": {"dtype": {"type": "DT_FLOAT"}, "value": {"tensor": {"dtype": "DT_FLOAT", "tensorShape": {"dim": [{"size": "3"}, {"size": "3"}, {"size": "320"}, {"size": "320"}]}}}}}, {"name": "2317", "op": "Const", "attr": {"dtype": {"type": "DT_FLOAT"}, "value": {"tensor": {"dtype": "DT_FLOAT", "tensorShape": {"dim": [{"size": "320"}]}}}}}, {"name": "2319", "op": "Const", "attr": {"value": {"tensor": {"dtype": "DT_FLOAT", "tensorShape": {"dim": [{"size": "3"}, {"size": "3"}, {"size": "320"}, {"size": "320"}]}}}, "dtype": {"type": "DT_FLOAT"}}}, {"name": "2321", "op": "Const", "attr": {"dtype": {"type": "DT_FLOAT"}, "value": {"tensor": {"dtype": "DT_FLOAT", "tensorShape": {"dim": [{"size": "320"}]}}}}}, {"name": "2323", "op": "Const", "attr": {"value": {"tensor": {"dtype": "DT_FLOAT", "tensorShape": {"dim": [{"size": "3"}, {"size": "3"}, {"size": "320"}, {"size": "320"}]}}}, "dtype": {"type": "DT_FLOAT"}}}, {"name": "2325", "op": "Const", "attr": {"value": {"tensor": {"dtype": "DT_FLOAT", "tensorShape": {"dim": [{"size": "320"}]}}}, "dtype": {"type": "DT_FLOAT"}}}, {"name": "2327", "op": "Const", "attr": {"value": {"tensor": {"dtype": "DT_FLOAT", "tensorShape": {"dim": [{"size": "3"}, {"size": "3"}, {"size": "320"}, {"size": "320"}]}}}, "dtype": {"type": "DT_FLOAT"}}}, {"name": "2329", "op": "Const", "attr": {"value": {"tensor": {"dtype": "DT_FLOAT", "tensorShape": {"dim": [{"size": "320"}]}}}, "dtype": {"type": "DT_FLOAT"}}}, {"name": "2331", "op": "Const", "attr": {"value": {"tensor": {"dtype": "DT_FLOAT", "tensorShape": {"dim": [{"size": "3"}, {"size": "3"}, {"size": "320"}, {"size": "320"}]}}}, "dtype": {"type": "DT_FLOAT"}}}, {"name": "2333", "op": "Const", "attr": {"value": {"tensor": {"dtype": "DT_FLOAT", "tensorShape": {"dim": [{"size": "320"}]}}}, "dtype": {"type": "DT_FLOAT"}}}, {"name": "2335", "op": "Const", "attr": {"value": {"tensor": {"dtype": "DT_FLOAT", "tensorShape": {"dim": [{"size": "3"}, {"size": "3"}, {"size": "320"}, {"size": "320"}]}}}, "dtype": {"type": "DT_FLOAT"}}}, {"name": "2337", "op": "Const", "attr": {"dtype": {"type": "DT_FLOAT"}, "value": {"tensor": {"dtype": "DT_FLOAT", "tensorShape": {"dim": [{"size": "320"}]}}}}}, {"name": "PartitionedCall/model_23/lambda//model.12/Resize/size", "op": "Const", "attr": {"value": {"tensor": {"dtype": "DT_INT32", "tensorShape": {"dim": [{"size": "2"}]}}}, "dtype": {"type": "DT_INT32"}}}, {"name": "PartitionedCall/model_23/tf.concat_6/concat/axis", "op": "Const", "attr": {"value": {"tensor": {"dtype": "DT_INT32", "tensorShape": {}}}, "dtype": {"type": "DT_INT32"}}}, {"name": "2307", "op": "Const", "attr": {"value": {"tensor": {"dtype": "DT_FLOAT", "tensorShape": {"dim": [{"size": "1"}, {"size": "1"}, {"size": "1280"}, {"size": "640"}]}}}, "dtype": {"type": "DT_FLOAT"}}}, {"name": "2309", "op": "Const", "attr": {"value": {"tensor": {"dtype": "DT_FLOAT", "tensorShape": {"dim": [{"size": "640"}]}}}, "dtype": {"type": "DT_FLOAT"}}}, {"name": "2339", "op": "Const", "attr": {"dtype": {"type": "DT_INT64"}, "value": {"tensor": {"dtype": "DT_INT64", "tensorShape": {"dim": [{"size": "4"}]}}}}}, {"name": "2341", "op": "Const", "attr": {"dtype": {"type": "DT_INT64"}, "value": {"tensor": {"dtype": "DT_INT64", "tensorShape": {"dim": [{"size": "4"}]}}}}}, {"name": "PartitionedCall/model_23/tf.strided_slice_11/ones_like", "op": "Const", "attr": {"value": {"tensor": {"dtype": "DT_INT64", "tensorShape": {"dim": [{"size": "4"}]}}}, "dtype": {"type": "DT_INT64"}}}, {"name": "PartitionedCall/model_23/tf.concat_7/concat/axis", "op": "Const", "attr": {"value": {"tensor": {"dtype": "DT_INT32", "tensorShape": {}}}, "dtype": {"type": "DT_INT32"}}}, {"name": "2343", "op": "Const", "attr": {"value": {"tensor": {"dtype": "DT_FLOAT", "tensorShape": {"dim": [{"size": "1"}, {"size": "1"}, {"size": "640"}, {"size": "640"}]}}}, "dtype": {"type": "DT_FLOAT"}}}, {"name": "2345", "op": "Const", "attr": {"dtype": {"type": "DT_FLOAT"}, "value": {"tensor": {"dtype": "DT_FLOAT", "tensorShape": {"dim": [{"size": "640"}]}}}}}, {"name": "PartitionedCall/model_23/tf.concat_592/concat/axis", "op": "Const", "attr": {"dtype": {"type": "DT_INT32"}, "value": {"tensor": {"dtype": "DT_INT32", "tensorShape": {}}}}}, {"name": "2479", "op": "Const", "attr": {"value": {"tensor": {"dtype": "DT_FLOAT", "tensorShape": {"dim": [{"size": "1"}, {"size": "1"}, {"size": "1280"}, {"size": "640"}]}}}, "dtype": {"type": "DT_FLOAT"}}}, {"name": "2481", "op": "Const", "attr": {"value": {"tensor": {"dtype": "DT_FLOAT", "tensorShape": {"dim": [{"size": "640"}]}}}, "dtype": {"type": "DT_FLOAT"}}}, {"name": "2511", "op": "Const", "attr": {"value": {"tensor": {"dtype": "DT_INT64", "tensorShape": {"dim": [{"size": "4"}]}}}, "dtype": {"type": "DT_INT64"}}}, {"name": "2513", "op": "Const", "attr": {"value": {"tensor": {"dtype": "DT_INT64", "tensorShape": {"dim": [{"size": "4"}]}}}, "dtype": {"type": "DT_INT64"}}}, {"name": "PartitionedCall/model_23/tf.strided_slice_19/ones_like", "op": "Const", "attr": {"value": {"tensor": {"dtype": "DT_INT64", "tensorShape": {"dim": [{"size": "4"}]}}}, "dtype": {"type": "DT_INT64"}}}, {"name": "PartitionedCall/model_23/tf.concat_594/concat/axis", "op": "Const", "attr": {"dtype": {"type": "DT_INT32"}, "value": {"tensor": {"dtype": "DT_INT32", "tensorShape": {}}}}}, {"name": "2515", "op": "Const", "attr": {"dtype": {"type": "DT_FLOAT"}, "value": {"tensor": {"dtype": "DT_FLOAT", "tensorShape": {"dim": [{"size": "1"}, {"size": "1"}, {"size": "640"}, {"size": "640"}]}}}}}, {"name": "2517", "op": "Const", "attr": {"dtype": {"type": "DT_FLOAT"}, "value": {"tensor": {"dtype": "DT_FLOAT", "tensorShape": {"dim": [{"size": "640"}]}}}}}, {"name": "2519", "op": "Const", "attr": {"dtype": {"type": "DT_INT32"}, "value": {"tensor": {"dtype": "DT_INT32", "tensorShape": {"dim": [{"size": "4"}, {"size": "2"}]}}}}}, {"name": "2521", "op": "Const", "attr": {"dtype": {"type": "DT_FLOAT"}, "value": {"tensor": {"dtype": "DT_FLOAT", "tensorShape": {"dim": [{"size": "3"}, {"size": "3"}, {"size": "640"}, {"size": "640"}]}}}}}, {"name": "2523", "op": "Const", "attr": {"dtype": {"type": "DT_FLOAT"}, "value": {"tensor": {"dtype": "DT_FLOAT", "tensorShape": {"dim": [{"size": "640"}]}}}}}, {"name": "2291", "op": "Const", "attr": {"value": {"tensor": {"dtype": "DT_INT64", "tensorShape": {"dim": [{"size": "4"}]}}}, "dtype": {"type": "DT_INT64"}}}, {"name": "2293", "op": "Const", "attr": {"dtype": {"type": "DT_INT64"}, "value": {"tensor": {"dtype": "DT_INT64", "tensorShape": {"dim": [{"size": "4"}]}}}}}, {"name": "PartitionedCall/model_23/tf.strided_slice_8/ones_like", "op": "Const", "attr": {"dtype": {"type": "DT_INT64"}, "value": {"tensor": {"dtype": "DT_INT64", "tensorShape": {"dim": [{"size": "4"}]}}}}}, {"name": "2245", "op": "Const", "attr": {"dtype": {"type": "DT_INT64"}, "value": {"tensor": {"dtype": "DT_INT64", "tensorShape": {"dim": [{"size": "4"}]}}}}}, {"name": "2247", "op": "Const", "attr": {"value": {"tensor": {"dtype": "DT_INT64", "tensorShape": {"dim": [{"size": "4"}]}}}, "dtype": {"type": "DT_INT64"}}}, {"name": "PartitionedCall/model_23/tf.strided_slice_6/ones_like", "op": "Const", "attr": {"dtype": {"type": "DT_INT64"}, "value": {"tensor": {"dtype": "DT_INT64", "tensorShape": {"dim": [{"size": "4"}]}}}}}, {"name": "2199", "op": "Const", "attr": {"value": {"tensor": {"dtype": "DT_INT64", "tensorShape": {"dim": [{"size": "4"}]}}}, "dtype": {"type": "DT_INT64"}}}, {"name": "2201", "op": "Const", "attr": {"dtype": {"type": "DT_INT64"}, "value": {"tensor": {"dtype": "DT_INT64", "tensorShape": {"dim": [{"size": "4"}]}}}}}, {"name": "PartitionedCall/model_23/tf.strided_slice_4/ones_like", "op": "Const", "attr": {"value": {"tensor": {"dtype": "DT_INT64", "tensorShape": {"dim": [{"size": "4"}]}}}, "dtype": {"type": "DT_INT64"}}}, {"name": "2129", "op": "Const", "attr": {"dtype": {"type": "DT_INT64"}, "value": {"tensor": {"dtype": "DT_INT64", "tensorShape": {"dim": [{"size": "4"}]}}}}}, {"name": "2131", "op": "Const", "attr": {"value": {"tensor": {"dtype": "DT_INT64", "tensorShape": {"dim": [{"size": "4"}]}}}, "dtype": {"type": "DT_INT64"}}}, {"name": "PartitionedCall/model_23/tf.strided_slice_2/ones_like", "op": "Const", "attr": {"value": {"tensor": {"dtype": "DT_INT64", "tensorShape": {"dim": [{"size": "4"}]}}}, "dtype": {"type": "DT_INT64"}}}, {"name": "2059", "op": "Const", "attr": {"value": {"tensor": {"dtype": "DT_INT64", "tensorShape": {"dim": [{"size": "4"}]}}}, "dtype": {"type": "DT_INT64"}}}, {"name": "2061", "op": "Const", "attr": {"value": {"tensor": {"dtype": "DT_INT64", "tensorShape": {"dim": [{"size": "4"}]}}}, "dtype": {"type": "DT_INT64"}}}, {"name": "PartitionedCall/model_23/tf.strided_slice/ones_like", "op": "Const", "attr": {"value": {"tensor": {"dtype": "DT_INT64", "tensorShape": {"dim": [{"size": "4"}]}}}, "dtype": {"type": "DT_INT64"}}}, {"name": "2015", "op": "Const", "attr": {"dtype": {"type": "DT_INT32"}, "value": {"tensor": {"dtype": "DT_INT32", "tensorShape": {"dim": [{"size": "4"}, {"size": "2"}]}}}}}, {"name": "2017", "op": "Const", "attr": {"value": {"tensor": {"dtype": "DT_FLOAT", "tensorShape": {"dim": [{"size": "3"}, {"size": "3"}, {"size": "3"}, {"size": "80"}]}}}, "dtype": {"type": "DT_FLOAT"}}}, {"name": "2019", "op": "Const", "attr": {"value": {"tensor": {"dtype": "DT_FLOAT", "tensorShape": {"dim": [{"size": "80"}]}}}, "dtype": {"type": "DT_FLOAT"}}}, {"name": "2021", "op": "Const", "attr": {"value": {"tensor": {"dtype": "DT_INT32", "tensorShape": {"dim": [{"size": "4"}, {"size": "2"}]}}}, "dtype": {"type": "DT_INT32"}}}, {"name": "2023", "op": "Const", "attr": {"dtype": {"type": "DT_FLOAT"}, "value": {"tensor": {"dtype": "DT_FLOAT", "tensorShape": {"dim": [{"size": "3"}, {"size": "3"}, {"size": "80"}, {"size": "160"}]}}}}}, {"name": "2025", "op": "Const", "attr": {"dtype": {"type": "DT_FLOAT"}, "value": {"tensor": {"dtype": "DT_FLOAT", "tensorShape": {"dim": [{"size": "160"}]}}}}}, {"name": "2027", "op": "Const", "attr": {"dtype": {"type": "DT_FLOAT"}, "value": {"tensor": {"dtype": "DT_FLOAT", "tensorShape": {"dim": [{"size": "1"}, {"size": "1"}, {"size": "160"}, {"size": "160"}]}}}}}, {"name": "2029", "op": "Const", "attr": {"value": {"tensor": {"dtype": "DT_FLOAT", "tensorShape": {"dim": [{"size": "160"}]}}}, "dtype": {"type": "DT_FLOAT"}}}, {"name": "2031", "op": "Const", "attr": {"dtype": {"type": "DT_INT64"}, "value": {"tensor": {"dtype": "DT_INT64", "tensorShape": {"dim": [{"size": "4"}]}}}}}, {"name": "2033", "op": "Const", "attr": {"dtype": {"type": "DT_INT64"}, "value": {"tensor": {"dtype": "DT_INT64", "tensorShape": {"dim": [{"size": "4"}]}}}}}, {"name": "PartitionedCall/model_23/tf.strided_slice_1/ones_like", "op": "Const", "attr": {"dtype": {"type": "DT_INT64"}, "value": {"tensor": {"dtype": "DT_INT64", "tensorShape": {"dim": [{"size": "4"}]}}}}}, {"name": "2035", "op": "Const", "attr": {"value": {"tensor": {"dtype": "DT_FLOAT", "tensorShape": {"dim": [{"size": "3"}, {"size": "3"}, {"size": "80"}, {"size": "80"}]}}}, "dtype": {"type": "DT_FLOAT"}}}, {"name": "2037", "op": "Const", "attr": {"dtype": {"type": "DT_FLOAT"}, "value": {"tensor": {"dtype": "DT_FLOAT", "tensorShape": {"dim": [{"size": "80"}]}}}}}, {"name": "2039", "op": "Const", "attr": {"dtype": {"type": "DT_FLOAT"}, "value": {"tensor": {"dtype": "DT_FLOAT", "tensorShape": {"dim": [{"size": "3"}, {"size": "3"}, {"size": "80"}, {"size": "80"}]}}}}}, {"name": "2041", "op": "Const", "attr": {"value": {"tensor": {"dtype": "DT_FLOAT", "tensorShape": {"dim": [{"size": "80"}]}}}, "dtype": {"type": "DT_FLOAT"}}}, {"name": "2043", "op": "Const", "attr": {"value": {"tensor": {"dtype": "DT_FLOAT", "tensorShape": {"dim": [{"size": "3"}, {"size": "3"}, {"size": "80"}, {"size": "80"}]}}}, "dtype": {"type": "DT_FLOAT"}}}, {"name": "2045", "op": "Const", "attr": {"dtype": {"type": "DT_FLOAT"}, "value": {"tensor": {"dtype": "DT_FLOAT", "tensorShape": {"dim": [{"size": "80"}]}}}}}, {"name": "2047", "op": "Const", "attr": {"dtype": {"type": "DT_FLOAT"}, "value": {"tensor": {"dtype": "DT_FLOAT", "tensorShape": {"dim": [{"size": "3"}, {"size": "3"}, {"size": "80"}, {"size": "80"}]}}}}}, {"name": "2049", "op": "Const", "attr": {"dtype": {"type": "DT_FLOAT"}, "value": {"tensor": {"dtype": "DT_FLOAT", "tensorShape": {"dim": [{"size": "80"}]}}}}}, {"name": "2051", "op": "Const", "attr": {"value": {"tensor": {"dtype": "DT_FLOAT", "tensorShape": {"dim": [{"size": "3"}, {"size": "3"}, {"size": "80"}, {"size": "80"}]}}}, "dtype": {"type": "DT_FLOAT"}}}, {"name": "2053", "op": "Const", "attr": {"dtype": {"type": "DT_FLOAT"}, "value": {"tensor": {"dtype": "DT_FLOAT", "tensorShape": {"dim": [{"size": "80"}]}}}}}, {"name": "2055", "op": "Const", "attr": {"value": {"tensor": {"dtype": "DT_FLOAT", "tensorShape": {"dim": [{"size": "3"}, {"size": "3"}, {"size": "80"}, {"size": "80"}]}}}, "dtype": {"type": "DT_FLOAT"}}}, {"name": "2057", "op": "Const", "attr": {"dtype": {"type": "DT_FLOAT"}, "value": {"tensor": {"dtype": "DT_FLOAT", "tensorShape": {"dim": [{"size": "80"}]}}}}}, {"name": "PartitionedCall/model_23/tf.concat/concat/axis", "op": "Const", "attr": {"dtype": {"type": "DT_INT32"}, "value": {"tensor": {"dtype": "DT_INT32", "tensorShape": {}}}}}, {"name": "2063", "op": "Const", "attr": {"value": {"tensor": {"dtype": "DT_FLOAT", "tensorShape": {"dim": [{"size": "1"}, {"size": "1"}, {"size": "400"}, {"size": "160"}]}}}, "dtype": {"type": "DT_FLOAT"}}}, {"name": "2065", "op": "Const", "attr": {"value": {"tensor": {"dtype": "DT_FLOAT", "tensorShape": {"dim": [{"size": "160"}]}}}, "dtype": {"type": "DT_FLOAT"}}}, {"name": "2067", "op": "Const", "attr": {"value": {"tensor": {"dtype": "DT_INT32", "tensorShape": {"dim": [{"size": "4"}, {"size": "2"}]}}}, "dtype": {"type": "DT_INT32"}}}, {"name": "2069", "op": "Const", "attr": {"value": {"tensor": {"dtype": "DT_FLOAT", "tensorShape": {"dim": [{"size": "3"}, {"size": "3"}, {"size": "160"}, {"size": "320"}]}}}, "dtype": {"type": "DT_FLOAT"}}}, {"name": "2071", "op": "Const", "attr": {"dtype": {"type": "DT_FLOAT"}, "value": {"tensor": {"dtype": "DT_FLOAT", "tensorShape": {"dim": [{"size": "320"}]}}}}}, {"name": "2073", "op": "Const", "attr": {"dtype": {"type": "DT_FLOAT"}, "value": {"tensor": {"dtype": "DT_FLOAT", "tensorShape": {"dim": [{"size": "1"}, {"size": "1"}, {"size": "320"}, {"size": "320"}]}}}}}, {"name": "2075", "op": "Const", "attr": {"value": {"tensor": {"dtype": "DT_FLOAT", "tensorShape": {"dim": [{"size": "320"}]}}}, "dtype": {"type": "DT_FLOAT"}}}, {"name": "2077", "op": "Const", "attr": {"dtype": {"type": "DT_INT64"}, "value": {"tensor": {"dtype": "DT_INT64", "tensorShape": {"dim": [{"size": "4"}]}}}}}, {"name": "2079", "op": "Const", "attr": {"value": {"tensor": {"dtype": "DT_INT64", "tensorShape": {"dim": [{"size": "4"}]}}}, "dtype": {"type": "DT_INT64"}}}, {"name": "PartitionedCall/model_23/tf.strided_slice_3/ones_like", "op": "Const", "attr": {"dtype": {"type": "DT_INT64"}, "value": {"tensor": {"dtype": "DT_INT64", "tensorShape": {"dim": [{"size": "4"}]}}}}}, {"name": "2081", "op": "Const", "attr": {"value": {"tensor": {"dtype": "DT_FLOAT", "tensorShape": {"dim": [{"size": "3"}, {"size": "3"}, {"size": "160"}, {"size": "160"}]}}}, "dtype": {"type": "DT_FLOAT"}}}, {"name": "2083", "op": "Const", "attr": {"dtype": {"type": "DT_FLOAT"}, "value": {"tensor": {"dtype": "DT_FLOAT", "tensorShape": {"dim": [{"size": "160"}]}}}}}, {"name": "2085", "op": "Const", "attr": {"dtype": {"type": "DT_FLOAT"}, "value": {"tensor": {"dtype": "DT_FLOAT", "tensorShape": {"dim": [{"size": "3"}, {"size": "3"}, {"size": "160"}, {"size": "160"}]}}}}}, {"name": "2087", "op": "Const", "attr": {"value": {"tensor": {"dtype": "DT_FLOAT", "tensorShape": {"dim": [{"size": "160"}]}}}, "dtype": {"type": "DT_FLOAT"}}}, {"name": "2089", "op": "Const", "attr": {"value": {"tensor": {"dtype": "DT_FLOAT", "tensorShape": {"dim": [{"size": "3"}, {"size": "3"}, {"size": "160"}, {"size": "160"}]}}}, "dtype": {"type": "DT_FLOAT"}}}, {"name": "2091", "op": "Const", "attr": {"dtype": {"type": "DT_FLOAT"}, "value": {"tensor": {"dtype": "DT_FLOAT", "tensorShape": {"dim": [{"size": "160"}]}}}}}, {"name": "2093", "op": "Const", "attr": {"dtype": {"type": "DT_FLOAT"}, "value": {"tensor": {"dtype": "DT_FLOAT", "tensorShape": {"dim": [{"size": "3"}, {"size": "3"}, {"size": "160"}, {"size": "160"}]}}}}}, {"name": "2095", "op": "Const", "attr": {"dtype": {"type": "DT_FLOAT"}, "value": {"tensor": {"dtype": "DT_FLOAT", "tensorShape": {"dim": [{"size": "160"}]}}}}}, {"name": "2097", "op": "Const", "attr": {"dtype": {"type": "DT_FLOAT"}, "value": {"tensor": {"dtype": "DT_FLOAT", "tensorShape": {"dim": [{"size": "3"}, {"size": "3"}, {"size": "160"}, {"size": "160"}]}}}}}, {"name": "2099", "op": "Const", "attr": {"value": {"tensor": {"dtype": "DT_FLOAT", "tensorShape": {"dim": [{"size": "160"}]}}}, "dtype": {"type": "DT_FLOAT"}}}, {"name": "2101", "op": "Const", "attr": {"value": {"tensor": {"dtype": "DT_FLOAT", "tensorShape": {"dim": [{"size": "3"}, {"size": "3"}, {"size": "160"}, {"size": "160"}]}}}, "dtype": {"type": "DT_FLOAT"}}}, {"name": "2103", "op": "Const", "attr": {"value": {"tensor": {"dtype": "DT_FLOAT", "tensorShape": {"dim": [{"size": "160"}]}}}, "dtype": {"type": "DT_FLOAT"}}}, {"name": "2105", "op": "Const", "attr": {"value": {"tensor": {"dtype": "DT_FLOAT", "tensorShape": {"dim": [{"size": "3"}, {"size": "3"}, {"size": "160"}, {"size": "160"}]}}}, "dtype": {"type": "DT_FLOAT"}}}, {"name": "2107", "op": "Const", "attr": {"value": {"tensor": {"dtype": "DT_FLOAT", "tensorShape": {"dim": [{"size": "160"}]}}}, "dtype": {"type": "DT_FLOAT"}}}, {"name": "2109", "op": "Const", "attr": {"value": {"tensor": {"dtype": "DT_FLOAT", "tensorShape": {"dim": [{"size": "3"}, {"size": "3"}, {"size": "160"}, {"size": "160"}]}}}, "dtype": {"type": "DT_FLOAT"}}}, {"name": "2111", "op": "Const", "attr": {"value": {"tensor": {"dtype": "DT_FLOAT", "tensorShape": {"dim": [{"size": "160"}]}}}, "dtype": {"type": "DT_FLOAT"}}}, {"name": "2113", "op": "Const", "attr": {"value": {"tensor": {"dtype": "DT_FLOAT", "tensorShape": {"dim": [{"size": "3"}, {"size": "3"}, {"size": "160"}, {"size": "160"}]}}}, "dtype": {"type": "DT_FLOAT"}}}, {"name": "2115", "op": "Const", "attr": {"value": {"tensor": {"dtype": "DT_FLOAT", "tensorShape": {"dim": [{"size": "160"}]}}}, "dtype": {"type": "DT_FLOAT"}}}, {"name": "2117", "op": "Const", "attr": {"dtype": {"type": "DT_FLOAT"}, "value": {"tensor": {"dtype": "DT_FLOAT", "tensorShape": {"dim": [{"size": "3"}, {"size": "3"}, {"size": "160"}, {"size": "160"}]}}}}}, {"name": "2119", "op": "Const", "attr": {"value": {"tensor": {"dtype": "DT_FLOAT", "tensorShape": {"dim": [{"size": "160"}]}}}, "dtype": {"type": "DT_FLOAT"}}}, {"name": "2121", "op": "Const", "attr": {"value": {"tensor": {"dtype": "DT_FLOAT", "tensorShape": {"dim": [{"size": "3"}, {"size": "3"}, {"size": "160"}, {"size": "160"}]}}}, "dtype": {"type": "DT_FLOAT"}}}, {"name": "2123", "op": "Const", "attr": {"dtype": {"type": "DT_FLOAT"}, "value": {"tensor": {"dtype": "DT_FLOAT", "tensorShape": {"dim": [{"size": "160"}]}}}}}, {"name": "2125", "op": "Const", "attr": {"value": {"tensor": {"dtype": "DT_FLOAT", "tensorShape": {"dim": [{"size": "3"}, {"size": "3"}, {"size": "160"}, {"size": "160"}]}}}, "dtype": {"type": "DT_FLOAT"}}}, {"name": "2127", "op": "Const", "attr": {"value": {"tensor": {"dtype": "DT_FLOAT", "tensorShape": {"dim": [{"size": "160"}]}}}, "dtype": {"type": "DT_FLOAT"}}}, {"name": "PartitionedCall/model_23/tf.concat_1/concat/axis", "op": "Const", "attr": {"dtype": {"type": "DT_INT32"}, "value": {"tensor": {"dtype": "DT_INT32", "tensorShape": {}}}}}, {"name": "2133", "op": "Const", "attr": {"value": {"tensor": {"dtype": "DT_FLOAT", "tensorShape": {"dim": [{"size": "1"}, {"size": "1"}, {"size": "1280"}, {"size": "320"}]}}}, "dtype": {"type": "DT_FLOAT"}}}, {"name": "2135", "op": "Const", "attr": {"value": {"tensor": {"dtype": "DT_FLOAT", "tensorShape": {"dim": [{"size": "320"}]}}}, "dtype": {"type": "DT_FLOAT"}}}, {"name": "2137", "op": "Const", "attr": {"value": {"tensor": {"dtype": "DT_INT32", "tensorShape": {"dim": [{"size": "4"}, {"size": "2"}]}}}, "dtype": {"type": "DT_INT32"}}}, {"name": "2139", "op": "Const", "attr": {"value": {"tensor": {"dtype": "DT_FLOAT", "tensorShape": {"dim": [{"size": "3"}, {"size": "3"}, {"size": "320"}, {"size": "640"}]}}}, "dtype": {"type": "DT_FLOAT"}}}, {"name": "2141", "op": "Const", "attr": {"value": {"tensor": {"dtype": "DT_FLOAT", "tensorShape": {"dim": [{"size": "640"}]}}}, "dtype": {"type": "DT_FLOAT"}}}, {"name": "2143", "op": "Const", "attr": {"dtype": {"type": "DT_FLOAT"}, "value": {"tensor": {"dtype": "DT_FLOAT", "tensorShape": {"dim": [{"size": "1"}, {"size": "1"}, {"size": "640"}, {"size": "640"}]}}}}}, {"name": "2145", "op": "Const", "attr": {"value": {"tensor": {"dtype": "DT_FLOAT", "tensorShape": {"dim": [{"size": "640"}]}}}, "dtype": {"type": "DT_FLOAT"}}}, {"name": "2147", "op": "Const", "attr": {"value": {"tensor": {"dtype": "DT_INT64", "tensorShape": {"dim": [{"size": "4"}]}}}, "dtype": {"type": "DT_INT64"}}}, {"name": "2149", "op": "Const", "attr": {"dtype": {"type": "DT_INT64"}, "value": {"tensor": {"dtype": "DT_INT64", "tensorShape": {"dim": [{"size": "4"}]}}}}}, {"name": "PartitionedCall/model_23/tf.strided_slice_5/ones_like", "op": "Const", "attr": {"dtype": {"type": "DT_INT64"}, "value": {"tensor": {"dtype": "DT_INT64", "tensorShape": {"dim": [{"size": "4"}]}}}}}, {"name": "2151", "op": "Const", "attr": {"value": {"tensor": {"dtype": "DT_FLOAT", "tensorShape": {"dim": [{"size": "3"}, {"size": "3"}, {"size": "320"}, {"size": "320"}]}}}, "dtype": {"type": "DT_FLOAT"}}}, {"name": "2153", "op": "Const", "attr": {"value": {"tensor": {"dtype": "DT_FLOAT", "tensorShape": {"dim": [{"size": "320"}]}}}, "dtype": {"type": "DT_FLOAT"}}}, {"name": "2155", "op": "Const", "attr": {"value": {"tensor": {"dtype": "DT_FLOAT", "tensorShape": {"dim": [{"size": "3"}, {"size": "3"}, {"size": "320"}, {"size": "320"}]}}}, "dtype": {"type": "DT_FLOAT"}}}, {"name": "2157", "op": "Const", "attr": {"value": {"tensor": {"dtype": "DT_FLOAT", "tensorShape": {"dim": [{"size": "320"}]}}}, "dtype": {"type": "DT_FLOAT"}}}, {"name": "2159", "op": "Const", "attr": {"value": {"tensor": {"dtype": "DT_FLOAT", "tensorShape": {"dim": [{"size": "3"}, {"size": "3"}, {"size": "320"}, {"size": "320"}]}}}, "dtype": {"type": "DT_FLOAT"}}}, {"name": "2161", "op": "Const", "attr": {"value": {"tensor": {"dtype": "DT_FLOAT", "tensorShape": {"dim": [{"size": "320"}]}}}, "dtype": {"type": "DT_FLOAT"}}}, {"name": "2163", "op": "Const", "attr": {"value": {"tensor": {"dtype": "DT_FLOAT", "tensorShape": {"dim": [{"size": "3"}, {"size": "3"}, {"size": "320"}, {"size": "320"}]}}}, "dtype": {"type": "DT_FLOAT"}}}, {"name": "2165", "op": "Const", "attr": {"value": {"tensor": {"dtype": "DT_FLOAT", "tensorShape": {"dim": [{"size": "320"}]}}}, "dtype": {"type": "DT_FLOAT"}}}, {"name": "2167", "op": "Const", "attr": {"value": {"tensor": {"dtype": "DT_FLOAT", "tensorShape": {"dim": [{"size": "3"}, {"size": "3"}, {"size": "320"}, {"size": "320"}]}}}, "dtype": {"type": "DT_FLOAT"}}}, {"name": "2169", "op": "Const", "attr": {"dtype": {"type": "DT_FLOAT"}, "value": {"tensor": {"dtype": "DT_FLOAT", "tensorShape": {"dim": [{"size": "320"}]}}}}}, {"name": "2171", "op": "Const", "attr": {"value": {"tensor": {"dtype": "DT_FLOAT", "tensorShape": {"dim": [{"size": "3"}, {"size": "3"}, {"size": "320"}, {"size": "320"}]}}}, "dtype": {"type": "DT_FLOAT"}}}, {"name": "2173", "op": "Const", "attr": {"dtype": {"type": "DT_FLOAT"}, "value": {"tensor": {"dtype": "DT_FLOAT", "tensorShape": {"dim": [{"size": "320"}]}}}}}, {"name": "2175", "op": "Const", "attr": {"value": {"tensor": {"dtype": "DT_FLOAT", "tensorShape": {"dim": [{"size": "3"}, {"size": "3"}, {"size": "320"}, {"size": "320"}]}}}, "dtype": {"type": "DT_FLOAT"}}}, {"name": "2177", "op": "Const", "attr": {"dtype": {"type": "DT_FLOAT"}, "value": {"tensor": {"dtype": "DT_FLOAT", "tensorShape": {"dim": [{"size": "320"}]}}}}}, {"name": "2179", "op": "Const", "attr": {"dtype": {"type": "DT_FLOAT"}, "value": {"tensor": {"dtype": "DT_FLOAT", "tensorShape": {"dim": [{"size": "3"}, {"size": "3"}, {"size": "320"}, {"size": "320"}]}}}}}, {"name": "2181", "op": "Const", "attr": {"dtype": {"type": "DT_FLOAT"}, "value": {"tensor": {"dtype": "DT_FLOAT", "tensorShape": {"dim": [{"size": "320"}]}}}}}, {"name": "2183", "op": "Const", "attr": {"value": {"tensor": {"dtype": "DT_FLOAT", "tensorShape": {"dim": [{"size": "3"}, {"size": "3"}, {"size": "320"}, {"size": "320"}]}}}, "dtype": {"type": "DT_FLOAT"}}}, {"name": "2185", "op": "Const", "attr": {"dtype": {"type": "DT_FLOAT"}, "value": {"tensor": {"dtype": "DT_FLOAT", "tensorShape": {"dim": [{"size": "320"}]}}}}}, {"name": "2187", "op": "Const", "attr": {"dtype": {"type": "DT_FLOAT"}, "value": {"tensor": {"dtype": "DT_FLOAT", "tensorShape": {"dim": [{"size": "3"}, {"size": "3"}, {"size": "320"}, {"size": "320"}]}}}}}, {"name": "2189", "op": "Const", "attr": {"value": {"tensor": {"dtype": "DT_FLOAT", "tensorShape": {"dim": [{"size": "320"}]}}}, "dtype": {"type": "DT_FLOAT"}}}, {"name": "2191", "op": "Const", "attr": {"value": {"tensor": {"dtype": "DT_FLOAT", "tensorShape": {"dim": [{"size": "3"}, {"size": "3"}, {"size": "320"}, {"size": "320"}]}}}, "dtype": {"type": "DT_FLOAT"}}}, {"name": "2193", "op": "Const", "attr": {"value": {"tensor": {"dtype": "DT_FLOAT", "tensorShape": {"dim": [{"size": "320"}]}}}, "dtype": {"type": "DT_FLOAT"}}}, {"name": "2195", "op": "Const", "attr": {"value": {"tensor": {"dtype": "DT_FLOAT", "tensorShape": {"dim": [{"size": "3"}, {"size": "3"}, {"size": "320"}, {"size": "320"}]}}}, "dtype": {"type": "DT_FLOAT"}}}, {"name": "2197", "op": "Const", "attr": {"dtype": {"type": "DT_FLOAT"}, "value": {"tensor": {"dtype": "DT_FLOAT", "tensorShape": {"dim": [{"size": "320"}]}}}}}, {"name": "PartitionedCall/model_23/tf.concat_2/concat/axis", "op": "Const", "attr": {"value": {"tensor": {"dtype": "DT_INT32", "tensorShape": {}}}, "dtype": {"type": "DT_INT32"}}}, {"name": "2203", "op": "Const", "attr": {"dtype": {"type": "DT_FLOAT"}, "value": {"tensor": {"dtype": "DT_FLOAT", "tensorShape": {"dim": [{"size": "1"}, {"size": "1"}, {"size": "2560"}, {"size": "640"}]}}}}}, {"name": "2205", "op": "Const", "attr": {"dtype": {"type": "DT_FLOAT"}, "value": {"tensor": {"dtype": "DT_FLOAT", "tensorShape": {"dim": [{"size": "640"}]}}}}}, {"name": "2207", "op": "Const", "attr": {"value": {"tensor": {"dtype": "DT_INT32", "tensorShape": {"dim": [{"size": "4"}, {"size": "2"}]}}}, "dtype": {"type": "DT_INT32"}}}, {"name": "2209", "op": "Const", "attr": {"value": {"tensor": {"dtype": "DT_FLOAT", "tensorShape": {"dim": [{"size": "3"}, {"size": "3"}, {"size": "640"}, {"size": "640"}]}}}, "dtype": {"type": "DT_FLOAT"}}}, {"name": "2211", "op": "Const", "attr": {"dtype": {"type": "DT_FLOAT"}, "value": {"tensor": {"dtype": "DT_FLOAT", "tensorShape": {"dim": [{"size": "640"}]}}}}}, {"name": "2213", "op": "Const", "attr": {"value": {"tensor": {"dtype": "DT_FLOAT", "tensorShape": {"dim": [{"size": "1"}, {"size": "1"}, {"size": "640"}, {"size": "640"}]}}}, "dtype": {"type": "DT_FLOAT"}}}, {"name": "2215", "op": "Const", "attr": {"dtype": {"type": "DT_FLOAT"}, "value": {"tensor": {"dtype": "DT_FLOAT", "tensorShape": {"dim": [{"size": "640"}]}}}}}, {"name": "2217", "op": "Const", "attr": {"value": {"tensor": {"dtype": "DT_INT64", "tensorShape": {"dim": [{"size": "4"}]}}}, "dtype": {"type": "DT_INT64"}}}, {"name": "2219", "op": "Const", "attr": {"value": {"tensor": {"dtype": "DT_INT64", "tensorShape": {"dim": [{"size": "4"}]}}}, "dtype": {"type": "DT_INT64"}}}, {"name": "PartitionedCall/model_23/tf.strided_slice_7/ones_like", "op": "Const", "attr": {"value": {"tensor": {"dtype": "DT_INT64", "tensorShape": {"dim": [{"size": "4"}]}}}, "dtype": {"type": "DT_INT64"}}}, {"name": "2221", "op": "Const", "attr": {"dtype": {"type": "DT_FLOAT"}, "value": {"tensor": {"dtype": "DT_FLOAT", "tensorShape": {"dim": [{"size": "3"}, {"size": "3"}, {"size": "320"}, {"size": "320"}]}}}}}, {"name": "2223", "op": "Const", "attr": {"value": {"tensor": {"dtype": "DT_FLOAT", "tensorShape": {"dim": [{"size": "320"}]}}}, "dtype": {"type": "DT_FLOAT"}}}, {"name": "2225", "op": "Const", "attr": {"dtype": {"type": "DT_FLOAT"}, "value": {"tensor": {"dtype": "DT_FLOAT", "tensorShape": {"dim": [{"size": "3"}, {"size": "3"}, {"size": "320"}, {"size": "320"}]}}}}}, {"name": "2227", "op": "Const", "attr": {"value": {"tensor": {"dtype": "DT_FLOAT", "tensorShape": {"dim": [{"size": "320"}]}}}, "dtype": {"type": "DT_FLOAT"}}}, {"name": "2229", "op": "Const", "attr": {"value": {"tensor": {"dtype": "DT_FLOAT", "tensorShape": {"dim": [{"size": "3"}, {"size": "3"}, {"size": "320"}, {"size": "320"}]}}}, "dtype": {"type": "DT_FLOAT"}}}, {"name": "2231", "op": "Const", "attr": {"dtype": {"type": "DT_FLOAT"}, "value": {"tensor": {"dtype": "DT_FLOAT", "tensorShape": {"dim": [{"size": "320"}]}}}}}, {"name": "2233", "op": "Const", "attr": {"dtype": {"type": "DT_FLOAT"}, "value": {"tensor": {"dtype": "DT_FLOAT", "tensorShape": {"dim": [{"size": "3"}, {"size": "3"}, {"size": "320"}, {"size": "320"}]}}}}}, {"name": "2235", "op": "Const", "attr": {"value": {"tensor": {"dtype": "DT_FLOAT", "tensorShape": {"dim": [{"size": "320"}]}}}, "dtype": {"type": "DT_FLOAT"}}}, {"name": "2237", "op": "Const", "attr": {"value": {"tensor": {"dtype": "DT_FLOAT", "tensorShape": {"dim": [{"size": "3"}, {"size": "3"}, {"size": "320"}, {"size": "320"}]}}}, "dtype": {"type": "DT_FLOAT"}}}, {"name": "2239", "op": "Const", "attr": {"dtype": {"type": "DT_FLOAT"}, "value": {"tensor": {"dtype": "DT_FLOAT", "tensorShape": {"dim": [{"size": "320"}]}}}}}, {"name": "2241", "op": "Const", "attr": {"dtype": {"type": "DT_FLOAT"}, "value": {"tensor": {"dtype": "DT_FLOAT", "tensorShape": {"dim": [{"size": "3"}, {"size": "3"}, {"size": "320"}, {"size": "320"}]}}}}}, {"name": "2243", "op": "Const", "attr": {"value": {"tensor": {"dtype": "DT_FLOAT", "tensorShape": {"dim": [{"size": "320"}]}}}, "dtype": {"type": "DT_FLOAT"}}}, {"name": "PartitionedCall/model_23/tf.concat_3/concat/axis", "op": "Const", "attr": {"value": {"tensor": {"dtype": "DT_INT32", "tensorShape": {}}}, "dtype": {"type": "DT_INT32"}}}, {"name": "2249", "op": "Const", "attr": {"dtype": {"type": "DT_FLOAT"}, "value": {"tensor": {"dtype": "DT_FLOAT", "tensorShape": {"dim": [{"size": "1"}, {"size": "1"}, {"size": "1600"}, {"size": "640"}]}}}}}, {"name": "2251", "op": "Const", "attr": {"value": {"tensor": {"dtype": "DT_FLOAT", "tensorShape": {"dim": [{"size": "640"}]}}}, "dtype": {"type": "DT_FLOAT"}}}, {"name": "2253", "op": "Const", "attr": {"value": {"tensor": {"dtype": "DT_INT32", "tensorShape": {"dim": [{"size": "4"}, {"size": "2"}]}}}, "dtype": {"type": "DT_INT32"}}}, {"name": "2255", "op": "Const", "attr": {"value": {"tensor": {"dtype": "DT_FLOAT", "tensorShape": {"dim": [{"size": "3"}, {"size": "3"}, {"size": "640"}, {"size": "640"}]}}}, "dtype": {"type": "DT_FLOAT"}}}, {"name": "2257", "op": "Const", "attr": {"value": {"tensor": {"dtype": "DT_FLOAT", "tensorShape": {"dim": [{"size": "640"}]}}}, "dtype": {"type": "DT_FLOAT"}}}, {"name": "2259", "op": "Const", "attr": {"value": {"tensor": {"dtype": "DT_FLOAT", "tensorShape": {"dim": [{"size": "1"}, {"size": "1"}, {"size": "640"}, {"size": "640"}]}}}, "dtype": {"type": "DT_FLOAT"}}}, {"name": "2261", "op": "Const", "attr": {"value": {"tensor": {"dtype": "DT_FLOAT", "tensorShape": {"dim": [{"size": "640"}]}}}, "dtype": {"type": "DT_FLOAT"}}}, {"name": "2263", "op": "Const", "attr": {"dtype": {"type": "DT_INT64"}, "value": {"tensor": {"dtype": "DT_INT64", "tensorShape": {"dim": [{"size": "4"}]}}}}}, {"name": "2265", "op": "Const", "attr": {"value": {"tensor": {"dtype": "DT_INT64", "tensorShape": {"dim": [{"size": "4"}]}}}, "dtype": {"type": "DT_INT64"}}}, {"name": "PartitionedCall/model_23/tf.strided_slice_9/ones_like", "op": "Const", "attr": {"value": {"tensor": {"dtype": "DT_INT64", "tensorShape": {"dim": [{"size": "4"}]}}}, "dtype": {"type": "DT_INT64"}}}, {"name": "2267", "op": "Const", "attr": {"value": {"tensor": {"dtype": "DT_FLOAT", "tensorShape": {"dim": [{"size": "3"}, {"size": "3"}, {"size": "320"}, {"size": "320"}]}}}, "dtype": {"type": "DT_FLOAT"}}}, {"name": "2269", "op": "Const", "attr": {"dtype": {"type": "DT_FLOAT"}, "value": {"tensor": {"dtype": "DT_FLOAT", "tensorShape": {"dim": [{"size": "320"}]}}}}}, {"name": "2271", "op": "Const", "attr": {"dtype": {"type": "DT_FLOAT"}, "value": {"tensor": {"dtype": "DT_FLOAT", "tensorShape": {"dim": [{"size": "3"}, {"size": "3"}, {"size": "320"}, {"size": "320"}]}}}}}, {"name": "2273", "op": "Const", "attr": {"dtype": {"type": "DT_FLOAT"}, "value": {"tensor": {"dtype": "DT_FLOAT", "tensorShape": {"dim": [{"size": "320"}]}}}}}, {"name": "2275", "op": "Const", "attr": {"value": {"tensor": {"dtype": "DT_FLOAT", "tensorShape": {"dim": [{"size": "3"}, {"size": "3"}, {"size": "320"}, {"size": "320"}]}}}, "dtype": {"type": "DT_FLOAT"}}}, {"name": "2277", "op": "Const", "attr": {"dtype": {"type": "DT_FLOAT"}, "value": {"tensor": {"dtype": "DT_FLOAT", "tensorShape": {"dim": [{"size": "320"}]}}}}}, {"name": "2279", "op": "Const", "attr": {"value": {"tensor": {"dtype": "DT_FLOAT", "tensorShape": {"dim": [{"size": "3"}, {"size": "3"}, {"size": "320"}, {"size": "320"}]}}}, "dtype": {"type": "DT_FLOAT"}}}, {"name": "2281", "op": "Const", "attr": {"dtype": {"type": "DT_FLOAT"}, "value": {"tensor": {"dtype": "DT_FLOAT", "tensorShape": {"dim": [{"size": "320"}]}}}}}, {"name": "2283", "op": "Const", "attr": {"dtype": {"type": "DT_FLOAT"}, "value": {"tensor": {"dtype": "DT_FLOAT", "tensorShape": {"dim": [{"size": "3"}, {"size": "3"}, {"size": "320"}, {"size": "320"}]}}}}}, {"name": "2285", "op": "Const", "attr": {"dtype": {"type": "DT_FLOAT"}, "value": {"tensor": {"dtype": "DT_FLOAT", "tensorShape": {"dim": [{"size": "320"}]}}}}}, {"name": "2287", "op": "Const", "attr": {"value": {"tensor": {"dtype": "DT_FLOAT", "tensorShape": {"dim": [{"size": "3"}, {"size": "3"}, {"size": "320"}, {"size": "320"}]}}}, "dtype": {"type": "DT_FLOAT"}}}, {"name": "2289", "op": "Const", "attr": {"value": {"tensor": {"dtype": "DT_FLOAT", "tensorShape": {"dim": [{"size": "320"}]}}}, "dtype": {"type": "DT_FLOAT"}}}, {"name": "PartitionedCall/model_23/tf.concat_4/concat/axis", "op": "Const", "attr": {"value": {"tensor": {"dtype": "DT_INT32", "tensorShape": {}}}, "dtype": {"type": "DT_INT32"}}}, {"name": "2295", "op": "Const", "attr": {"dtype": {"type": "DT_FLOAT"}, "value": {"tensor": {"dtype": "DT_FLOAT", "tensorShape": {"dim": [{"size": "1"}, {"size": "1"}, {"size": "1600"}, {"size": "640"}]}}}}}, {"name": "2297", "op": "Const", "attr": {"dtype": {"type": "DT_FLOAT"}, "value": {"tensor": {"dtype": "DT_FLOAT", "tensorShape": {"dim": [{"size": "640"}]}}}}}, {"name": "2299", "op": "Const", "attr": {"value": {"tensor": {"dtype": "DT_FLOAT", "tensorShape": {"dim": [{"size": "1"}, {"size": "1"}, {"size": "640"}, {"size": "320"}]}}}, "dtype": {"type": "DT_FLOAT"}}}, {"name": "2301", "op": "Const", "attr": {"value": {"tensor": {"dtype": "DT_FLOAT", "tensorShape": {"dim": [{"size": "320"}]}}}, "dtype": {"type": "DT_FLOAT"}}}, {"name": "PartitionedCall/model_23/tf.concat_5/concat/axis", "op": "Const", "attr": {"dtype": {"type": "DT_INT32"}, "value": {"tensor": {"dtype": "DT_INT32", "tensorShape": {}}}}}, {"name": "2303", "op": "Const", "attr": {"dtype": {"type": "DT_FLOAT"}, "value": {"tensor": {"dtype": "DT_FLOAT", "tensorShape": {"dim": [{"size": "1"}, {"size": "1"}, {"size": "1280"}, {"size": "640"}]}}}}}, {"name": "2305", "op": "Const", "attr": {"dtype": {"type": "DT_FLOAT"}, "value": {"tensor": {"dtype": "DT_FLOAT", "tensorShape": {"dim": [{"size": "640"}]}}}}}, {"name": "PartitionedCall/model_23/tf.concat_595/concat/axis", "op": "Const", "attr": {"dtype": {"type": "DT_INT32"}, "value": {"tensor": {"dtype": "DT_INT32", "tensorShape": {}}}}}, {"name": "2525", "op": "Const", "attr": {"dtype": {"type": "DT_FLOAT"}, "value": {"tensor": {"dtype": "DT_FLOAT", "tensorShape": {"dim": [{"size": "1"}, {"size": "1"}, {"size": "1280"}, {"size": "640"}]}}}}}, {"name": "2527", "op": "Const", "attr": {"value": {"tensor": {"dtype": "DT_FLOAT", "tensorShape": {"dim": [{"size": "640"}]}}}, "dtype": {"type": "DT_FLOAT"}}}, {"name": "2557", "op": "Const", "attr": {"value": {"tensor": {"dtype": "DT_INT64", "tensorShape": {"dim": [{"size": "4"}]}}}, "dtype": {"type": "DT_INT64"}}}, {"name": "2559", "op": "Const", "attr": {"dtype": {"type": "DT_INT64"}, "value": {"tensor": {"dtype": "DT_INT64", "tensorShape": {"dim": [{"size": "4"}]}}}}}, {"name": "PartitionedCall/model_23/tf.strided_slice_21/ones_like", "op": "Const", "attr": {"dtype": {"type": "DT_INT64"}, "value": {"tensor": {"dtype": "DT_INT64", "tensorShape": {"dim": [{"size": "4"}]}}}}}, {"name": "PartitionedCall/model_23/tf.concat_597/concat/axis", "op": "Const", "attr": {"value": {"tensor": {"dtype": "DT_INT32", "tensorShape": {}}}, "dtype": {"type": "DT_INT32"}}}, {"name": "2561", "op": "Const", "attr": {"value": {"tensor": {"dtype": "DT_FLOAT", "tensorShape": {"dim": [{"size": "1"}, {"size": "1"}, {"size": "640"}, {"size": "640"}]}}}, "dtype": {"type": "DT_FLOAT"}}}, {"name": "2563", "op": "Const", "attr": {"value": {"tensor": {"dtype": "DT_FLOAT", "tensorShape": {"dim": [{"size": "640"}]}}}, "dtype": {"type": "DT_FLOAT"}}}, {"name": "2649", "op": "Const", "attr": {"value": {"tensor": {"dtype": "DT_FLOAT", "tensorShape": {"dim": [{"size": "3"}, {"size": "3"}, {"size": "640"}, {"size": "80"}]}}}, "dtype": {"type": "DT_FLOAT"}}}, {"name": "2671", "op": "Const", "attr": {"dtype": {"type": "DT_FLOAT"}, "value": {"tensor": {"dtype": "DT_FLOAT", "tensorShape": {"dim": [{"size": "80"}]}}}}}, {"name": "2679", "op": "Const", "attr": {"dtype": {"type": "DT_FLOAT"}, "value": {"tensor": {"dtype": "DT_FLOAT", "tensorShape": {"dim": [{"size": "3"}, {"size": "3"}, {"size": "80"}, {"size": "80"}]}}}}}, {"name": "2687", "op": "Const", "attr": {"value": {"tensor": {"dtype": "DT_FLOAT", "tensorShape": {"dim": [{"size": "80"}]}}}, "dtype": {"type": "DT_FLOAT"}}}, {"name": "2697", "op": "Const", "attr": {"value": {"tensor": {"dtype": "DT_FLOAT", "tensorShape": {"dim": [{"size": "1"}, {"size": "1"}, {"size": "80"}, {"size": "51"}]}}}, "dtype": {"type": "DT_FLOAT"}}}, {"name": "2705", "op": "Const", "attr": {"value": {"tensor": {"dtype": "DT_FLOAT", "tensorShape": {"dim": [{"size": "51"}]}}}, "dtype": {"type": "DT_FLOAT"}}}, {"name": "PartitionedCall/model_23/tf.compat.v1.transpose_1182/transpose/perm", "op": "Const", "attr": {"value": {"tensor": {"dtype": "DT_INT32", "tensorShape": {"dim": [{"size": "4"}]}}}, "dtype": {"type": "DT_INT32"}}}, {"name": "PartitionedCall/model_23/tf.reshape_6/Reshape/shape", "op": "Const", "attr": {"value": {"tensor": {"dtype": "DT_INT32", "tensorShape": {"dim": [{"size": "3"}]}}}, "dtype": {"type": "DT_INT32"}}}, {"name": "PartitionedCall/model_23/tf.concat_599/concat/axis", "op": "Const", "attr": {"dtype": {"type": "DT_INT32"}, "value": {"tensor": {"dtype": "DT_INT32", "tensorShape": {}}}}}, {"name": "PartitionedCall/model_23/tf.reshape_8/Reshape/shape", "op": "Const", "attr": {"value": {"tensor": {"dtype": "DT_INT32", "tensorShape": {"dim": [{"size": "4"}]}}}, "dtype": {"type": "DT_INT32"}}}, {"name": "2729", "op": "Const", "attr": {"dtype": {"type": "DT_INT64"}, "value": {"tensor": {"dtype": "DT_INT64", "tensorShape": {"dim": [{"size": "4"}]}}}}}, {"name": "2731", "op": "Const", "attr": {"dtype": {"type": "DT_INT64"}, "value": {"tensor": {"dtype": "DT_INT64", "tensorShape": {"dim": [{"size": "4"}]}}}}}, {"name": "PartitionedCall/model_23/tf.strided_slice_25/StridedSlice/strides", "op": "Const", "attr": {"value": {"tensor": {"dtype": "DT_INT64", "tensorShape": {"dim": [{"size": "4"}]}}}, "dtype": {"type": "DT_INT64"}}}, {"name": "PartitionedCall/model_23/tf.concat_601/concat/axis", "op": "Const", "attr": {"value": {"tensor": {"dtype": "DT_INT32", "tensorShape": {}}}, "dtype": {"type": "DT_INT32"}}}, {"name": "PartitionedCall/model_23/tf.reshape_11/Reshape/shape", "op": "Const", "attr": {"value": {"tensor": {"dtype": "DT_INT32", "tensorShape": {"dim": [{"size": "3"}]}}}, "dtype": {"type": "DT_INT32"}}}, {"name": "PartitionedCall/model_23/output0/concat/axis", "op": "Const", "attr": {"value": {"tensor": {"dtype": "DT_INT32", "tensorShape": {}}}, "dtype": {"type": "DT_INT32"}}}, {"name": "x", "op": "Placeholder", "attr": {"shape": {"shape": {"dim": [{"size": "1"}, {"size": "1280"}, {"size": "1280"}, {"size": "3"}]}}, "dtype": {"type": "DT_FLOAT"}}}, {"name": "PartitionedCall/model_23/tf.compat.v1.pad/Pad", "op": "Pad", "input": ["x", "2015"], "attr": {"Tpaddings": {"type": "DT_INT32"}, "T": {"type": "DT_FLOAT"}}}, {"name": "PartitionedCall/model_23/tf.math.add/Add", "op": "_FusedConv2D", "input": ["PartitionedCall/model_23/tf.compat.v1.pad/Pad", "2017", "2019"], "device": "/device:CPU:0", "attr": {"dilations": {"list": {"i": ["1", "1", "1", "1"]}}, "filter_format": {"s": "SFdJTw=="}, "TArgs": {"list": {"type": ["DT_FLOAT"]}}, "T": {"type": "DT_FLOAT"}, "strides": {"list": {"i": ["1", "2", "2", "1"]}}, "num_args": {"i": "1"}, "num_host_args": {"i": "0"}, "padding": {"s": "VkFMSUQ="}, "fused_ops": {"list": {"s": ["Qmlhc0FkZA=="]}}, "leakyrelu_alpha": {"f": 0.2}, "data_format": {"s": "TkhXQw=="}, "explicit_paddings": {"list": {}}, "use_cudnn_on_gpu": {"b": true}, "epsilon": {"f": 0.0}}}, {"name": "PartitionedCall/model_23/tf.math.sigmoid/Sigmoid", "op": "Sigmoid", "input": ["PartitionedCall/model_23/tf.math.add/Add"], "attr": {"T": {"type": "DT_FLOAT"}}}, {"name": "PartitionedCall/model_23/tf.math.multiply_2/Mul", "op": "Mul", "input": ["PartitionedCall/model_23/tf.math.add/Add", "PartitionedCall/model_23/tf.math.sigmoid/Sigmoid"], "attr": {"T": {"type": "DT_FLOAT"}}}, {"name": "PartitionedCall/model_23/tf.compat.v1.pad_1/Pad", "op": "Pad", "input": ["PartitionedCall/model_23/tf.math.multiply_2/Mul", "2021"], "attr": {"T": {"type": "DT_FLOAT"}, "Tpaddings": {"type": "DT_INT32"}}}, {"name": "PartitionedCall/model_23/tf.math.add_1/Add", "op": "_FusedConv2D", "input": ["PartitionedCall/model_23/tf.compat.v1.pad_1/Pad", "2023", "2025"], "device": "/device:CPU:0", "attr": {"data_format": {"s": "TkhXQw=="}, "num_args": {"i": "1"}, "strides": {"list": {"i": ["1", "2", "2", "1"]}}, "filter_format": {"s": "SFdJTw=="}, "leakyrelu_alpha": {"f": 0.2}, "epsilon": {"f": 0.0}, "dilations": {"list": {"i": ["1", "1", "1", "1"]}}, "use_cudnn_on_gpu": {"b": true}, "TArgs": {"list": {"type": ["DT_FLOAT"]}}, "num_host_args": {"i": "0"}, "fused_ops": {"list": {"s": ["Qmlhc0FkZA=="]}}, "T": {"type": "DT_FLOAT"}, "padding": {"s": "VkFMSUQ="}, "explicit_paddings": {"list": {}}}}, {"name": "PartitionedCall/model_23/tf.math.sigmoid_1/Sigmoid", "op": "Sigmoid", "input": ["PartitionedCall/model_23/tf.math.add_1/Add"], "attr": {"T": {"type": "DT_FLOAT"}}}, {"name": "PartitionedCall/model_23/tf.math.multiply_5/Mul", "op": "Mul", "input": ["PartitionedCall/model_23/tf.math.add_1/Add", "PartitionedCall/model_23/tf.math.sigmoid_1/Sigmoid"], "attr": {"T": {"type": "DT_FLOAT"}}}, {"name": "PartitionedCall/model_23/tf.math.add_2/Add", "op": "_FusedConv2D", "input": ["PartitionedCall/model_23/tf.math.multiply_5/Mul", "2027", "2029"], "device": "/device:CPU:0", "attr": {"explicit_paddings": {"list": {}}, "filter_format": {"s": "SFdJTw=="}, "strides": {"list": {"i": ["1", "1", "1", "1"]}}, "T": {"type": "DT_FLOAT"}, "padding": {"s": "U0FNRQ=="}, "num_host_args": {"i": "0"}, "TArgs": {"list": {"type": ["DT_FLOAT"]}}, "dilations": {"list": {"i": ["1", "1", "1", "1"]}}, "data_format": {"s": "TkhXQw=="}, "use_cudnn_on_gpu": {"b": true}, "epsilon": {"f": 0.0}, "num_args": {"i": "1"}, "leakyrelu_alpha": {"f": 0.2}, "fused_ops": {"list": {"s": ["Qmlhc0FkZA=="]}}}}, {"name": "PartitionedCall/model_23/tf.math.sigmoid_2/Sigmoid", "op": "Sigmoid", "input": ["PartitionedCall/model_23/tf.math.add_2/Add"], "attr": {"T": {"type": "DT_FLOAT"}}}, {"name": "PartitionedCall/model_23/tf.math.multiply_8/Mul", "op": "Mul", "input": ["PartitionedCall/model_23/tf.math.add_2/Add", "PartitionedCall/model_23/tf.math.sigmoid_2/Sigmoid"], "attr": {"T": {"type": "DT_FLOAT"}}}, {"name": "PartitionedCall/model_23/tf.strided_slice/StridedSlice", "op": "StridedSlice", "input": ["PartitionedCall/model_23/tf.math.multiply_8/Mul", "2059", "2061", "PartitionedCall/model_23/tf.strided_slice/ones_like"], "attr": {"begin_mask": {"i": "15"}, "shrink_axis_mask": {"i": "0"}, "new_axis_mask": {"i": "0"}, "Index": {"type": "DT_INT64"}, "T": {"type": "DT_FLOAT"}, "ellipsis_mask": {"i": "0"}, "end_mask": {"i": "7"}}}, {"name": "PartitionedCall/model_23/tf.strided_slice_1/StridedSlice", "op": "StridedSlice", "input": ["PartitionedCall/model_23/tf.math.multiply_8/Mul", "2031", "2033", "PartitionedCall/model_23/tf.strided_slice_1/ones_like"], "attr": {"T": {"type": "DT_FLOAT"}, "begin_mask": {"i": "7"}, "ellipsis_mask": {"i": "0"}, "end_mask": {"i": "7"}, "shrink_axis_mask": {"i": "0"}, "Index": {"type": "DT_INT64"}, "new_axis_mask": {"i": "0"}}}, {"name": "PartitionedCall/model_23/tf.math.add_3/Add", "op": "_FusedConv2D", "input": ["PartitionedCall/model_23/tf.strided_slice_1/StridedSlice", "2035", "2037"], "device": "/device:CPU:0", "attr": {"epsilon": {"f": 0.0}, "dilations": {"list": {"i": ["1", "1", "1", "1"]}}, "strides": {"list": {"i": ["1", "1", "1", "1"]}}, "data_format": {"s": "TkhXQw=="}, "num_args": {"i": "1"}, "explicit_paddings": {"list": {}}, "leakyrelu_alpha": {"f": 0.2}, "filter_format": {"s": "SFdJTw=="}, "fused_ops": {"list": {"s": ["Qmlhc0FkZA=="]}}, "padding": {"s": "U0FNRQ=="}, "T": {"type": "DT_FLOAT"}, "use_cudnn_on_gpu": {"b": true}, "TArgs": {"list": {"type": ["DT_FLOAT"]}}, "num_host_args": {"i": "0"}}}, {"name": "PartitionedCall/model_23/tf.math.sigmoid_3/Sigmoid", "op": "Sigmoid", "input": ["PartitionedCall/model_23/tf.math.add_3/Add"], "attr": {"T": {"type": "DT_FLOAT"}}}, {"name": "PartitionedCall/model_23/tf.math.multiply_11/Mul", "op": "Mul", "input": ["PartitionedCall/model_23/tf.math.add_3/Add", "PartitionedCall/model_23/tf.math.sigmoid_3/Sigmoid"], "attr": {"T": {"type": "DT_FLOAT"}}}, {"name": "PartitionedCall/model_23/tf.math.add_4/Add", "op": "_FusedConv2D", "input": ["PartitionedCall/model_23/tf.math.multiply_11/Mul", "2039", "2041"], "device": "/device:CPU:0", "attr": {"num_args": {"i": "1"}, "num_host_args": {"i": "0"}, "filter_format": {"s": "SFdJTw=="}, "leakyrelu_alpha": {"f": 0.2}, "explicit_paddings": {"list": {}}, "data_format": {"s": "TkhXQw=="}, "TArgs": {"list": {"type": ["DT_FLOAT"]}}, "fused_ops": {"list": {"s": ["Qmlhc0FkZA=="]}}, "epsilon": {"f": 0.0}, "dilations": {"list": {"i": ["1", "1", "1", "1"]}}, "use_cudnn_on_gpu": {"b": true}, "T": {"type": "DT_FLOAT"}, "strides": {"list": {"i": ["1", "1", "1", "1"]}}, "padding": {"s": "U0FNRQ=="}}}, {"name": "PartitionedCall/model_23/tf.math.sigmoid_4/Sigmoid", "op": "Sigmoid", "input": ["PartitionedCall/model_23/tf.math.add_4/Add"], "attr": {"T": {"type": "DT_FLOAT"}}}, {"name": "PartitionedCall/model_23/tf.math.multiply_14/Mul", "op": "Mul", "input": ["PartitionedCall/model_23/tf.math.add_4/Add", "PartitionedCall/model_23/tf.math.sigmoid_4/Sigmoid"], "attr": {"T": {"type": "DT_FLOAT"}}}, {"name": "PartitionedCall/model_23/tf.math.add_5/Add", "op": "AddV2", "input": ["PartitionedCall/model_23/tf.strided_slice_1/StridedSlice", "PartitionedCall/model_23/tf.math.multiply_14/Mul"], "attr": {"T": {"type": "DT_FLOAT"}}}, {"name": "PartitionedCall/model_23/tf.math.add_6/Add", "op": "_FusedConv2D", "input": ["PartitionedCall/model_23/tf.math.add_5/Add", "2043", "2045"], "device": "/device:CPU:0", "attr": {"T": {"type": "DT_FLOAT"}, "dilations": {"list": {"i": ["1", "1", "1", "1"]}}, "epsilon": {"f": 0.0}, "use_cudnn_on_gpu": {"b": true}, "leakyrelu_alpha": {"f": 0.2}, "data_format": {"s": "TkhXQw=="}, "strides": {"list": {"i": ["1", "1", "1", "1"]}}, "explicit_paddings": {"list": {}}, "fused_ops": {"list": {"s": ["Qmlhc0FkZA=="]}}, "num_host_args": {"i": "0"}, "num_args": {"i": "1"}, "padding": {"s": "U0FNRQ=="}, "TArgs": {"list": {"type": ["DT_FLOAT"]}}, "filter_format": {"s": "SFdJTw=="}}}, {"name": "PartitionedCall/model_23/tf.math.sigmoid_5/Sigmoid", "op": "Sigmoid", "input": ["PartitionedCall/model_23/tf.math.add_6/Add"], "attr": {"T": {"type": "DT_FLOAT"}}}, {"name": "PartitionedCall/model_23/tf.math.multiply_19/Mul", "op": "Mul", "input": ["PartitionedCall/model_23/tf.math.add_6/Add", "PartitionedCall/model_23/tf.math.sigmoid_5/Sigmoid"], "attr": {"T": {"type": "DT_FLOAT"}}}, {"name": "PartitionedCall/model_23/tf.math.add_7/Add", "op": "_FusedConv2D", "input": ["PartitionedCall/model_23/tf.math.multiply_19/Mul", "2047", "2049"], "device": "/device:CPU:0", "attr": {"epsilon": {"f": 0.0}, "strides": {"list": {"i": ["1", "1", "1", "1"]}}, "explicit_paddings": {"list": {}}, "leakyrelu_alpha": {"f": 0.2}, "TArgs": {"list": {"type": ["DT_FLOAT"]}}, "dilations": {"list": {"i": ["1", "1", "1", "1"]}}, "fused_ops": {"list": {"s": ["Qmlhc0FkZA=="]}}, "data_format": {"s": "TkhXQw=="}, "num_args": {"i": "1"}, "use_cudnn_on_gpu": {"b": true}, "num_host_args": {"i": "0"}, "T": {"type": "DT_FLOAT"}, "filter_format": {"s": "SFdJTw=="}, "padding": {"s": "U0FNRQ=="}}}, {"name": "PartitionedCall/model_23/tf.math.sigmoid_6/Sigmoid", "op": "Sigmoid", "input": ["PartitionedCall/model_23/tf.math.add_7/Add"], "attr": {"T": {"type": "DT_FLOAT"}}}, {"name": "PartitionedCall/model_23/tf.math.multiply_22/Mul", "op": "Mul", "input": ["PartitionedCall/model_23/tf.math.add_7/Add", "PartitionedCall/model_23/tf.math.sigmoid_6/Sigmoid"], "attr": {"T": {"type": "DT_FLOAT"}}}, {"name": "PartitionedCall/model_23/tf.math.add_8/Add", "op": "AddV2", "input": ["PartitionedCall/model_23/tf.math.add_5/Add", "PartitionedCall/model_23/tf.math.multiply_22/Mul"], "attr": {"T": {"type": "DT_FLOAT"}}}, {"name": "PartitionedCall/model_23/tf.math.add_9/Add", "op": "_FusedConv2D", "input": ["PartitionedCall/model_23/tf.math.add_8/Add", "2051", "2053"], "device": "/device:CPU:0", "attr": {"filter_format": {"s": "SFdJTw=="}, "padding": {"s": "U0FNRQ=="}, "use_cudnn_on_gpu": {"b": true}, "leakyrelu_alpha": {"f": 0.2}, "dilations": {"list": {"i": ["1", "1", "1", "1"]}}, "num_args": {"i": "1"}, "T": {"type": "DT_FLOAT"}, "num_host_args": {"i": "0"}, "explicit_paddings": {"list": {}}, "data_format": {"s": "TkhXQw=="}, "strides": {"list": {"i": ["1", "1", "1", "1"]}}, "TArgs": {"list": {"type": ["DT_FLOAT"]}}, "epsilon": {"f": 0.0}, "fused_ops": {"list": {"s": ["Qmlhc0FkZA=="]}}}}, {"name": "PartitionedCall/model_23/tf.math.sigmoid_7/Sigmoid", "op": "Sigmoid", "input": ["PartitionedCall/model_23/tf.math.add_9/Add"], "attr": {"T": {"type": "DT_FLOAT"}}}, {"name": "PartitionedCall/model_23/tf.math.multiply_27/Mul", "op": "Mul", "input": ["PartitionedCall/model_23/tf.math.add_9/Add", "PartitionedCall/model_23/tf.math.sigmoid_7/Sigmoid"], "attr": {"T": {"type": "DT_FLOAT"}}}, {"name": "PartitionedCall/model_23/tf.math.add_10/Add", "op": "_FusedConv2D", "input": ["PartitionedCall/model_23/tf.math.multiply_27/Mul", "2055", "2057"], "device": "/device:CPU:0", "attr": {"padding": {"s": "U0FNRQ=="}, "explicit_paddings": {"list": {}}, "filter_format": {"s": "SFdJTw=="}, "fused_ops": {"list": {"s": ["Qmlhc0FkZA=="]}}, "epsilon": {"f": 0.0}, "num_args": {"i": "1"}, "dilations": {"list": {"i": ["1", "1", "1", "1"]}}, "use_cudnn_on_gpu": {"b": true}, "TArgs": {"list": {"type": ["DT_FLOAT"]}}, "leakyrelu_alpha": {"f": 0.2}, "strides": {"list": {"i": ["1", "1", "1", "1"]}}, "data_format": {"s": "TkhXQw=="}, "T": {"type": "DT_FLOAT"}, "num_host_args": {"i": "0"}}}, {"name": "PartitionedCall/model_23/tf.math.sigmoid_8/Sigmoid", "op": "Sigmoid", "input": ["PartitionedCall/model_23/tf.math.add_10/Add"], "attr": {"T": {"type": "DT_FLOAT"}}}, {"name": "PartitionedCall/model_23/tf.math.multiply_30/Mul", "op": "Mul", "input": ["PartitionedCall/model_23/tf.math.add_10/Add", "PartitionedCall/model_23/tf.math.sigmoid_8/Sigmoid"], "attr": {"T": {"type": "DT_FLOAT"}}}, {"name": "PartitionedCall/model_23/tf.math.add_11/Add", "op": "AddV2", "input": ["PartitionedCall/model_23/tf.math.add_8/Add", "PartitionedCall/model_23/tf.math.multiply_30/Mul"], "attr": {"T": {"type": "DT_FLOAT"}}}, {"name": "PartitionedCall/model_23/tf.concat/concat", "op": "ConcatV2", "input": ["PartitionedCall/model_23/tf.strided_slice/StridedSlice", "PartitionedCall/model_23/tf.strided_slice_1/StridedSlice", "PartitionedCall/model_23/tf.math.add_5/Add", "PartitionedCall/model_23/tf.math.add_8/Add", "PartitionedCall/model_23/tf.math.add_11/Add", "PartitionedCall/model_23/tf.concat/concat/axis"], "attr": {"Tidx": {"type": "DT_INT32"}, "N": {"i": "5"}, "T": {"type": "DT_FLOAT"}}}, {"name": "PartitionedCall/model_23/tf.math.add_12/Add", "op": "_FusedConv2D", "input": ["PartitionedCall/model_23/tf.concat/concat", "2063", "2065"], "device": "/device:CPU:0", "attr": {"num_args": {"i": "1"}, "use_cudnn_on_gpu": {"b": true}, "padding": {"s": "U0FNRQ=="}, "TArgs": {"list": {"type": ["DT_FLOAT"]}}, "filter_format": {"s": "SFdJTw=="}, "leakyrelu_alpha": {"f": 0.2}, "epsilon": {"f": 0.0}, "fused_ops": {"list": {"s": ["Qmlhc0FkZA=="]}}, "num_host_args": {"i": "0"}, "data_format": {"s": "TkhXQw=="}, "dilations": {"list": {"i": ["1", "1", "1", "1"]}}, "strides": {"list": {"i": ["1", "1", "1", "1"]}}, "T": {"type": "DT_FLOAT"}, "explicit_paddings": {"list": {}}}}, {"name": "PartitionedCall/model_23/tf.math.sigmoid_9/Sigmoid", "op": "Sigmoid", "input": ["PartitionedCall/model_23/tf.math.add_12/Add"], "attr": {"T": {"type": "DT_FLOAT"}}}, {"name": "PartitionedCall/model_23/tf.math.multiply_35/Mul", "op": "Mul", "input": ["PartitionedCall/model_23/tf.math.add_12/Add", "PartitionedCall/model_23/tf.math.sigmoid_9/Sigmoid"], "attr": {"T": {"type": "DT_FLOAT"}}}, {"name": "PartitionedCall/model_23/tf.compat.v1.pad_2/Pad", "op": "Pad", "input": ["PartitionedCall/model_23/tf.math.multiply_35/Mul", "2067"], "attr": {"T": {"type": "DT_FLOAT"}, "Tpaddings": {"type": "DT_INT32"}}}, {"name": "PartitionedCall/model_23/tf.math.add_13/Add", "op": "_FusedConv2D", "input": ["PartitionedCall/model_23/tf.compat.v1.pad_2/Pad", "2069", "2071"], "device": "/device:CPU:0", "attr": {"strides": {"list": {"i": ["1", "2", "2", "1"]}}, "num_args": {"i": "1"}, "leakyrelu_alpha": {"f": 0.2}, "dilations": {"list": {"i": ["1", "1", "1", "1"]}}, "fused_ops": {"list": {"s": ["Qmlhc0FkZA=="]}}, "TArgs": {"list": {"type": ["DT_FLOAT"]}}, "padding": {"s": "VkFMSUQ="}, "num_host_args": {"i": "0"}, "use_cudnn_on_gpu": {"b": true}, "filter_format": {"s": "SFdJTw=="}, "explicit_paddings": {"list": {}}, "T": {"type": "DT_FLOAT"}, "epsilon": {"f": 0.0}, "data_format": {"s": "TkhXQw=="}}}, {"name": "PartitionedCall/model_23/tf.math.sigmoid_10/Sigmoid", "op": "Sigmoid", "input": ["PartitionedCall/model_23/tf.math.add_13/Add"], "attr": {"T": {"type": "DT_FLOAT"}}}, {"name": "PartitionedCall/model_23/tf.math.multiply_38/Mul", "op": "Mul", "input": ["PartitionedCall/model_23/tf.math.add_13/Add", "PartitionedCall/model_23/tf.math.sigmoid_10/Sigmoid"], "attr": {"T": {"type": "DT_FLOAT"}}}, {"name": "PartitionedCall/model_23/tf.math.add_14/Add", "op": "_FusedConv2D", "input": ["PartitionedCall/model_23/tf.math.multiply_38/Mul", "2073", "2075"], "device": "/device:CPU:0", "attr": {"num_args": {"i": "1"}, "TArgs": {"list": {"type": ["DT_FLOAT"]}}, "leakyrelu_alpha": {"f": 0.2}, "dilations": {"list": {"i": ["1", "1", "1", "1"]}}, "data_format": {"s": "TkhXQw=="}, "epsilon": {"f": 0.0}, "fused_ops": {"list": {"s": ["Qmlhc0FkZA=="]}}, "filter_format": {"s": "SFdJTw=="}, "explicit_paddings": {"list": {}}, "strides": {"list": {"i": ["1", "1", "1", "1"]}}, "padding": {"s": "U0FNRQ=="}, "T": {"type": "DT_FLOAT"}, "num_host_args": {"i": "0"}, "use_cudnn_on_gpu": {"b": true}}}, {"name": "PartitionedCall/model_23/tf.math.sigmoid_11/Sigmoid", "op": "Sigmoid", "input": ["PartitionedCall/model_23/tf.math.add_14/Add"], "attr": {"T": {"type": "DT_FLOAT"}}}, {"name": "PartitionedCall/model_23/tf.math.multiply_41/Mul", "op": "Mul", "input": ["PartitionedCall/model_23/tf.math.add_14/Add", "PartitionedCall/model_23/tf.math.sigmoid_11/Sigmoid"], "attr": {"T": {"type": "DT_FLOAT"}}}, {"name": "PartitionedCall/model_23/tf.strided_slice_2/StridedSlice", "op": "StridedSlice", "input": ["PartitionedCall/model_23/tf.math.multiply_41/Mul", "2129", "2131", "PartitionedCall/model_23/tf.strided_slice_2/ones_like"], "attr": {"shrink_axis_mask": {"i": "0"}, "new_axis_mask": {"i": "0"}, "ellipsis_mask": {"i": "0"}, "Index": {"type": "DT_INT64"}, "begin_mask": {"i": "15"}, "end_mask": {"i": "7"}, "T": {"type": "DT_FLOAT"}}}, {"name": "PartitionedCall/model_23/tf.strided_slice_3/StridedSlice", "op": "StridedSlice", "input": ["PartitionedCall/model_23/tf.math.multiply_41/Mul", "2077", "2079", "PartitionedCall/model_23/tf.strided_slice_3/ones_like"], "attr": {"new_axis_mask": {"i": "0"}, "begin_mask": {"i": "7"}, "shrink_axis_mask": {"i": "0"}, "T": {"type": "DT_FLOAT"}, "end_mask": {"i": "7"}, "ellipsis_mask": {"i": "0"}, "Index": {"type": "DT_INT64"}}}, {"name": "PartitionedCall/model_23/tf.math.add_16/Add", "op": "_FusedConv2D", "input": ["PartitionedCall/model_23/tf.strided_slice_3/StridedSlice", "2081", "2083"], "device": "/device:CPU:0", "attr": {"data_format": {"s": "TkhXQw=="}, "T": {"type": "DT_FLOAT"}, "fused_ops": {"list": {"s": ["Qmlhc0FkZA=="]}}, "TArgs": {"list": {"type": ["DT_FLOAT"]}}, "num_args": {"i": "1"}, "leakyrelu_alpha": {"f": 0.2}, "dilations": {"list": {"i": ["1", "1", "1", "1"]}}, "strides": {"list": {"i": ["1", "1", "1", "1"]}}, "epsilon": {"f": 0.0}, "filter_format": {"s": "SFdJTw=="}, "use_cudnn_on_gpu": {"b": true}, "padding": {"s": "U0FNRQ=="}, "num_host_args": {"i": "0"}, "explicit_paddings": {"list": {}}}}, {"name": "PartitionedCall/model_23/tf.math.sigmoid_12/Sigmoid", "op": "Sigmoid", "input": ["PartitionedCall/model_23/tf.math.add_16/Add"], "attr": {"T": {"type": "DT_FLOAT"}}}, {"name": "PartitionedCall/model_23/tf.math.multiply_44/Mul", "op": "Mul", "input": ["PartitionedCall/model_23/tf.math.add_16/Add", "PartitionedCall/model_23/tf.math.sigmoid_12/Sigmoid"], "attr": {"T": {"type": "DT_FLOAT"}}}, {"name": "PartitionedCall/model_23/tf.math.add_18/Add", "op": "_FusedConv2D", "input": ["PartitionedCall/model_23/tf.math.multiply_44/Mul", "2085", "2087"], "device": "/device:CPU:0", "attr": {"leakyrelu_alpha": {"f": 0.2}, "num_args": {"i": "1"}, "data_format": {"s": "TkhXQw=="}, "use_cudnn_on_gpu": {"b": true}, "T": {"type": "DT_FLOAT"}, "num_host_args": {"i": "0"}, "padding": {"s": "U0FNRQ=="}, "fused_ops": {"list": {"s": ["Qmlhc0FkZA=="]}}, "strides": {"list": {"i": ["1", "1", "1", "1"]}}, "dilations": {"list": {"i": ["1", "1", "1", "1"]}}, "TArgs": {"list": {"type": ["DT_FLOAT"]}}, "explicit_paddings": {"list": {}}, "epsilon": {"f": 0.0}, "filter_format": {"s": "SFdJTw=="}}}, {"name": "PartitionedCall/model_23/tf.math.sigmoid_13/Sigmoid", "op": "Sigmoid", "input": ["PartitionedCall/model_23/tf.math.add_18/Add"], "attr": {"T": {"type": "DT_FLOAT"}}}, {"name": "PartitionedCall/model_23/tf.math.multiply_47/Mul", "op": "Mul", "input": ["PartitionedCall/model_23/tf.math.add_18/Add", "PartitionedCall/model_23/tf.math.sigmoid_13/Sigmoid"], "attr": {"T": {"type": "DT_FLOAT"}}}, {"name": "PartitionedCall/model_23/tf.math.add_19/Add", "op": "AddV2", "input": ["PartitionedCall/model_23/tf.strided_slice_3/StridedSlice", "PartitionedCall/model_23/tf.math.multiply_47/Mul"], "attr": {"T": {"type": "DT_FLOAT"}}}, {"name": "PartitionedCall/model_23/tf.math.add_21/Add", "op": "_FusedConv2D", "input": ["PartitionedCall/model_23/tf.math.add_19/Add", "2089", "2091"], "device": "/device:CPU:0", "attr": {"dilations": {"list": {"i": ["1", "1", "1", "1"]}}, "filter_format": {"s": "SFdJTw=="}, "T": {"type": "DT_FLOAT"}, "num_args": {"i": "1"}, "use_cudnn_on_gpu": {"b": true}, "num_host_args": {"i": "0"}, "TArgs": {"list": {"type": ["DT_FLOAT"]}}, "leakyrelu_alpha": {"f": 0.2}, "strides": {"list": {"i": ["1", "1", "1", "1"]}}, "data_format": {"s": "TkhXQw=="}, "fused_ops": {"list": {"s": ["Qmlhc0FkZA=="]}}, "epsilon": {"f": 0.0}, "explicit_paddings": {"list": {}}, "padding": {"s": "U0FNRQ=="}}}, {"name": "PartitionedCall/model_23/tf.math.sigmoid_14/Sigmoid", "op": "Sigmoid", "input": ["PartitionedCall/model_23/tf.math.add_21/Add"], "attr": {"T": {"type": "DT_FLOAT"}}}, {"name": "PartitionedCall/model_23/tf.math.multiply_52/Mul", "op": "Mul", "input": ["PartitionedCall/model_23/tf.math.add_21/Add", "PartitionedCall/model_23/tf.math.sigmoid_14/Sigmoid"], "attr": {"T": {"type": "DT_FLOAT"}}}, {"name": "PartitionedCall/model_23/tf.math.add_23/Add", "op": "_FusedConv2D", "input": ["PartitionedCall/model_23/tf.math.multiply_52/Mul", "2093", "2095"], "device": "/device:CPU:0", "attr": {"num_args": {"i": "1"}, "data_format": {"s": "TkhXQw=="}, "explicit_paddings": {"list": {}}, "strides": {"list": {"i": ["1", "1", "1", "1"]}}, "num_host_args": {"i": "0"}, "TArgs": {"list": {"type": ["DT_FLOAT"]}}, "dilations": {"list": {"i": ["1", "1", "1", "1"]}}, "fused_ops": {"list": {"s": ["Qmlhc0FkZA=="]}}, "padding": {"s": "U0FNRQ=="}, "use_cudnn_on_gpu": {"b": true}, "epsilon": {"f": 0.0}, "T": {"type": "DT_FLOAT"}, "leakyrelu_alpha": {"f": 0.2}, "filter_format": {"s": "SFdJTw=="}}}, {"name": "PartitionedCall/model_23/tf.math.sigmoid_15/Sigmoid", "op": "Sigmoid", "input": ["PartitionedCall/model_23/tf.math.add_23/Add"], "attr": {"T": {"type": "DT_FLOAT"}}}, {"name": "PartitionedCall/model_23/tf.math.multiply_55/Mul", "op": "Mul", "input": ["PartitionedCall/model_23/tf.math.add_23/Add", "PartitionedCall/model_23/tf.math.sigmoid_15/Sigmoid"], "attr": {"T": {"type": "DT_FLOAT"}}}, {"name": "PartitionedCall/model_23/tf.math.add_24/Add", "op": "AddV2", "input": ["PartitionedCall/model_23/tf.math.add_19/Add", "PartitionedCall/model_23/tf.math.multiply_55/Mul"], "attr": {"T": {"type": "DT_FLOAT"}}}, {"name": "PartitionedCall/model_23/tf.math.add_26/Add", "op": "_FusedConv2D", "input": ["PartitionedCall/model_23/tf.math.add_24/Add", "2097", "2099"], "device": "/device:CPU:0", "attr": {"explicit_paddings": {"list": {}}, "use_cudnn_on_gpu": {"b": true}, "num_args": {"i": "1"}, "padding": {"s": "U0FNRQ=="}, "dilations": {"list": {"i": ["1", "1", "1", "1"]}}, "TArgs": {"list": {"type": ["DT_FLOAT"]}}, "num_host_args": {"i": "0"}, "epsilon": {"f": 0.0}, "strides": {"list": {"i": ["1", "1", "1", "1"]}}, "T": {"type": "DT_FLOAT"}, "filter_format": {"s": "SFdJTw=="}, "leakyrelu_alpha": {"f": 0.2}, "data_format": {"s": "TkhXQw=="}, "fused_ops": {"list": {"s": ["Qmlhc0FkZA=="]}}}}, {"name": "PartitionedCall/model_23/tf.math.sigmoid_16/Sigmoid", "op": "Sigmoid", "input": ["PartitionedCall/model_23/tf.math.add_26/Add"], "attr": {"T": {"type": "DT_FLOAT"}}}, {"name": "PartitionedCall/model_23/tf.math.multiply_60/Mul", "op": "Mul", "input": ["PartitionedCall/model_23/tf.math.add_26/Add", "PartitionedCall/model_23/tf.math.sigmoid_16/Sigmoid"], "attr": {"T": {"type": "DT_FLOAT"}}}, {"name": "PartitionedCall/model_23/tf.math.add_28/Add", "op": "_FusedConv2D", "input": ["PartitionedCall/model_23/tf.math.multiply_60/Mul", "2101", "2103"], "device": "/device:CPU:0", "attr": {"dilations": {"list": {"i": ["1", "1", "1", "1"]}}, "TArgs": {"list": {"type": ["DT_FLOAT"]}}, "epsilon": {"f": 0.0}, "strides": {"list": {"i": ["1", "1", "1", "1"]}}, "explicit_paddings": {"list": {}}, "filter_format": {"s": "SFdJTw=="}, "data_format": {"s": "TkhXQw=="}, "num_host_args": {"i": "0"}, "T": {"type": "DT_FLOAT"}, "padding": {"s": "U0FNRQ=="}, "leakyrelu_alpha": {"f": 0.2}, "num_args": {"i": "1"}, "fused_ops": {"list": {"s": ["Qmlhc0FkZA=="]}}, "use_cudnn_on_gpu": {"b": true}}}, {"name": "PartitionedCall/model_23/tf.math.sigmoid_17/Sigmoid", "op": "Sigmoid", "input": ["PartitionedCall/model_23/tf.math.add_28/Add"], "attr": {"T": {"type": "DT_FLOAT"}}}, {"name": "PartitionedCall/model_23/tf.math.multiply_63/Mul", "op": "Mul", "input": ["PartitionedCall/model_23/tf.math.add_28/Add", "PartitionedCall/model_23/tf.math.sigmoid_17/Sigmoid"], "attr": {"T": {"type": "DT_FLOAT"}}}, {"name": "PartitionedCall/model_23/tf.math.add_29/Add", "op": "AddV2", "input": ["PartitionedCall/model_23/tf.math.add_24/Add", "PartitionedCall/model_23/tf.math.multiply_63/Mul"], "attr": {"T": {"type": "DT_FLOAT"}}}, {"name": "PartitionedCall/model_23/tf.math.add_31/Add", "op": "_FusedConv2D", "input": ["PartitionedCall/model_23/tf.math.add_29/Add", "2105", "2107"], "device": "/device:CPU:0", "attr": {"data_format": {"s": "TkhXQw=="}, "filter_format": {"s": "SFdJTw=="}, "epsilon": {"f": 0.0}, "strides": {"list": {"i": ["1", "1", "1", "1"]}}, "T": {"type": "DT_FLOAT"}, "padding": {"s": "U0FNRQ=="}, "fused_ops": {"list": {"s": ["Qmlhc0FkZA=="]}}, "num_host_args": {"i": "0"}, "dilations": {"list": {"i": ["1", "1", "1", "1"]}}, "leakyrelu_alpha": {"f": 0.2}, "explicit_paddings": {"list": {}}, "use_cudnn_on_gpu": {"b": true}, "num_args": {"i": "1"}, "TArgs": {"list": {"type": ["DT_FLOAT"]}}}}, {"name": "PartitionedCall/model_23/tf.math.sigmoid_18/Sigmoid", "op": "Sigmoid", "input": ["PartitionedCall/model_23/tf.math.add_31/Add"], "attr": {"T": {"type": "DT_FLOAT"}}}, {"name": "PartitionedCall/model_23/tf.math.multiply_68/Mul", "op": "Mul", "input": ["PartitionedCall/model_23/tf.math.add_31/Add", "PartitionedCall/model_23/tf.math.sigmoid_18/Sigmoid"], "attr": {"T": {"type": "DT_FLOAT"}}}, {"name": "PartitionedCall/model_23/tf.math.add_33/Add", "op": "_FusedConv2D", "input": ["PartitionedCall/model_23/tf.math.multiply_68/Mul", "2109", "2111"], "device": "/device:CPU:0", "attr": {"explicit_paddings": {"list": {}}, "T": {"type": "DT_FLOAT"}, "strides": {"list": {"i": ["1", "1", "1", "1"]}}, "leakyrelu_alpha": {"f": 0.2}, "num_args": {"i": "1"}, "epsilon": {"f": 0.0}, "use_cudnn_on_gpu": {"b": true}, "TArgs": {"list": {"type": ["DT_FLOAT"]}}, "data_format": {"s": "TkhXQw=="}, "fused_ops": {"list": {"s": ["Qmlhc0FkZA=="]}}, "filter_format": {"s": "SFdJTw=="}, "num_host_args": {"i": "0"}, "dilations": {"list": {"i": ["1", "1", "1", "1"]}}, "padding": {"s": "U0FNRQ=="}}}, {"name": "PartitionedCall/model_23/tf.math.sigmoid_19/Sigmoid", "op": "Sigmoid", "input": ["PartitionedCall/model_23/tf.math.add_33/Add"], "attr": {"T": {"type": "DT_FLOAT"}}}, {"name": "PartitionedCall/model_23/tf.math.multiply_71/Mul", "op": "Mul", "input": ["PartitionedCall/model_23/tf.math.add_33/Add", "PartitionedCall/model_23/tf.math.sigmoid_19/Sigmoid"], "attr": {"T": {"type": "DT_FLOAT"}}}, {"name": "PartitionedCall/model_23/tf.math.add_34/Add", "op": "AddV2", "input": ["PartitionedCall/model_23/tf.math.add_29/Add", "PartitionedCall/model_23/tf.math.multiply_71/Mul"], "attr": {"T": {"type": "DT_FLOAT"}}}, {"name": "PartitionedCall/model_23/tf.math.add_36/Add", "op": "_FusedConv2D", "input": ["PartitionedCall/model_23/tf.math.add_34/Add", "2113", "2115"], "device": "/device:CPU:0", "attr": {"leakyrelu_alpha": {"f": 0.2}, "filter_format": {"s": "SFdJTw=="}, "num_args": {"i": "1"}, "num_host_args": {"i": "0"}, "padding": {"s": "U0FNRQ=="}, "T": {"type": "DT_FLOAT"}, "fused_ops": {"list": {"s": ["Qmlhc0FkZA=="]}}, "explicit_paddings": {"list": {}}, "use_cudnn_on_gpu": {"b": true}, "data_format": {"s": "TkhXQw=="}, "strides": {"list": {"i": ["1", "1", "1", "1"]}}, "dilations": {"list": {"i": ["1", "1", "1", "1"]}}, "epsilon": {"f": 0.0}, "TArgs": {"list": {"type": ["DT_FLOAT"]}}}}, {"name": "PartitionedCall/model_23/tf.math.sigmoid_20/Sigmoid", "op": "Sigmoid", "input": ["PartitionedCall/model_23/tf.math.add_36/Add"], "attr": {"T": {"type": "DT_FLOAT"}}}, {"name": "PartitionedCall/model_23/tf.math.multiply_76/Mul", "op": "Mul", "input": ["PartitionedCall/model_23/tf.math.add_36/Add", "PartitionedCall/model_23/tf.math.sigmoid_20/Sigmoid"], "attr": {"T": {"type": "DT_FLOAT"}}}, {"name": "PartitionedCall/model_23/tf.math.add_38/Add", "op": "_FusedConv2D", "input": ["PartitionedCall/model_23/tf.math.multiply_76/Mul", "2117", "2119"], "device": "/device:CPU:0", "attr": {"use_cudnn_on_gpu": {"b": true}, "T": {"type": "DT_FLOAT"}, "dilations": {"list": {"i": ["1", "1", "1", "1"]}}, "fused_ops": {"list": {"s": ["Qmlhc0FkZA=="]}}, "epsilon": {"f": 0.0}, "strides": {"list": {"i": ["1", "1", "1", "1"]}}, "data_format": {"s": "TkhXQw=="}, "num_host_args": {"i": "0"}, "explicit_paddings": {"list": {}}, "filter_format": {"s": "SFdJTw=="}, "padding": {"s": "U0FNRQ=="}, "num_args": {"i": "1"}, "TArgs": {"list": {"type": ["DT_FLOAT"]}}, "leakyrelu_alpha": {"f": 0.2}}}, {"name": "PartitionedCall/model_23/tf.math.sigmoid_21/Sigmoid", "op": "Sigmoid", "input": ["PartitionedCall/model_23/tf.math.add_38/Add"], "attr": {"T": {"type": "DT_FLOAT"}}}, {"name": "PartitionedCall/model_23/tf.math.multiply_79/Mul", "op": "Mul", "input": ["PartitionedCall/model_23/tf.math.add_38/Add", "PartitionedCall/model_23/tf.math.sigmoid_21/Sigmoid"], "attr": {"T": {"type": "DT_FLOAT"}}}, {"name": "PartitionedCall/model_23/tf.math.add_39/Add", "op": "AddV2", "input": ["PartitionedCall/model_23/tf.math.add_34/Add", "PartitionedCall/model_23/tf.math.multiply_79/Mul"], "attr": {"T": {"type": "DT_FLOAT"}}}, {"name": "PartitionedCall/model_23/tf.math.add_41/Add", "op": "_FusedConv2D", "input": ["PartitionedCall/model_23/tf.math.add_39/Add", "2121", "2123"], "device": "/device:CPU:0", "attr": {"data_format": {"s": "TkhXQw=="}, "strides": {"list": {"i": ["1", "1", "1", "1"]}}, "epsilon": {"f": 0.0}, "explicit_paddings": {"list": {}}, "leakyrelu_alpha": {"f": 0.2}, "T": {"type": "DT_FLOAT"}, "fused_ops": {"list": {"s": ["Qmlhc0FkZA=="]}}, "dilations": {"list": {"i": ["1", "1", "1", "1"]}}, "TArgs": {"list": {"type": ["DT_FLOAT"]}}, "use_cudnn_on_gpu": {"b": true}, "num_args": {"i": "1"}, "padding": {"s": "U0FNRQ=="}, "num_host_args": {"i": "0"}, "filter_format": {"s": "SFdJTw=="}}}, {"name": "PartitionedCall/model_23/tf.math.sigmoid_22/Sigmoid", "op": "Sigmoid", "input": ["PartitionedCall/model_23/tf.math.add_41/Add"], "attr": {"T": {"type": "DT_FLOAT"}}}, {"name": "PartitionedCall/model_23/tf.math.multiply_84/Mul", "op": "Mul", "input": ["PartitionedCall/model_23/tf.math.add_41/Add", "PartitionedCall/model_23/tf.math.sigmoid_22/Sigmoid"], "attr": {"T": {"type": "DT_FLOAT"}}}, {"name": "PartitionedCall/model_23/tf.math.add_43/Add", "op": "_FusedConv2D", "input": ["PartitionedCall/model_23/tf.math.multiply_84/Mul", "2125", "2127"], "device": "/device:CPU:0", "attr": {"num_host_args": {"i": "0"}, "padding": {"s": "U0FNRQ=="}, "strides": {"list": {"i": ["1", "1", "1", "1"]}}, "fused_ops": {"list": {"s": ["Qmlhc0FkZA=="]}}, "data_format": {"s": "TkhXQw=="}, "filter_format": {"s": "SFdJTw=="}, "num_args": {"i": "1"}, "explicit_paddings": {"list": {}}, "dilations": {"list": {"i": ["1", "1", "1", "1"]}}, "epsilon": {"f": 0.0}, "use_cudnn_on_gpu": {"b": true}, "TArgs": {"list": {"type": ["DT_FLOAT"]}}, "leakyrelu_alpha": {"f": 0.2}, "T": {"type": "DT_FLOAT"}}}, {"name": "PartitionedCall/model_23/tf.math.sigmoid_23/Sigmoid", "op": "Sigmoid", "input": ["PartitionedCall/model_23/tf.math.add_43/Add"], "attr": {"T": {"type": "DT_FLOAT"}}}, {"name": "PartitionedCall/model_23/tf.math.multiply_87/Mul", "op": "Mul", "input": ["PartitionedCall/model_23/tf.math.add_43/Add", "PartitionedCall/model_23/tf.math.sigmoid_23/Sigmoid"], "attr": {"T": {"type": "DT_FLOAT"}}}, {"name": "PartitionedCall/model_23/tf.math.add_44/Add", "op": "AddV2", "input": ["PartitionedCall/model_23/tf.math.add_39/Add", "PartitionedCall/model_23/tf.math.multiply_87/Mul"], "attr": {"T": {"type": "DT_FLOAT"}}}, {"name": "PartitionedCall/model_23/tf.concat_1/concat", "op": "ConcatV2", "input": ["PartitionedCall/model_23/tf.strided_slice_2/StridedSlice", "PartitionedCall/model_23/tf.strided_slice_3/StridedSlice", "PartitionedCall/model_23/tf.math.add_19/Add", "PartitionedCall/model_23/tf.math.add_24/Add", "PartitionedCall/model_23/tf.math.add_29/Add", "PartitionedCall/model_23/tf.math.add_34/Add", "PartitionedCall/model_23/tf.math.add_39/Add", "PartitionedCall/model_23/tf.math.add_44/Add", "PartitionedCall/model_23/tf.concat_1/concat/axis"], "attr": {"Tidx": {"type": "DT_INT32"}, "N": {"i": "8"}, "T": {"type": "DT_FLOAT"}}}, {"name": "PartitionedCall/model_23/tf.math.add_45/Add", "op": "_FusedConv2D", "input": ["PartitionedCall/model_23/tf.concat_1/concat", "2133", "2135"], "device": "/device:CPU:0", "attr": {"explicit_paddings": {"list": {}}, "data_format": {"s": "TkhXQw=="}, "use_cudnn_on_gpu": {"b": true}, "num_args": {"i": "1"}, "leakyrelu_alpha": {"f": 0.2}, "T": {"type": "DT_FLOAT"}, "filter_format": {"s": "SFdJTw=="}, "num_host_args": {"i": "0"}, "strides": {"list": {"i": ["1", "1", "1", "1"]}}, "dilations": {"list": {"i": ["1", "1", "1", "1"]}}, "fused_ops": {"list": {"s": ["Qmlhc0FkZA=="]}}, "TArgs": {"list": {"type": ["DT_FLOAT"]}}, "epsilon": {"f": 0.0}, "padding": {"s": "U0FNRQ=="}}}, {"name": "PartitionedCall/model_23/tf.math.sigmoid_24/Sigmoid", "op": "Sigmoid", "input": ["PartitionedCall/model_23/tf.math.add_45/Add"], "attr": {"T": {"type": "DT_FLOAT"}}}, {"name": "PartitionedCall/model_23/tf.math.multiply_92/Mul", "op": "Mul", "input": ["PartitionedCall/model_23/tf.math.add_45/Add", "PartitionedCall/model_23/tf.math.sigmoid_24/Sigmoid"], "attr": {"T": {"type": "DT_FLOAT"}}}, {"name": "PartitionedCall/model_23/tf.compat.v1.pad_3/Pad", "op": "Pad", "input": ["PartitionedCall/model_23/tf.math.multiply_92/Mul", "2137"], "attr": {"Tpaddings": {"type": "DT_INT32"}, "T": {"type": "DT_FLOAT"}}}, {"name": "PartitionedCall/model_23/tf.math.add_46/Add", "op": "_FusedConv2D", "input": ["PartitionedCall/model_23/tf.compat.v1.pad_3/Pad", "2139", "2141"], "device": "/device:CPU:0", "attr": {"strides": {"list": {"i": ["1", "2", "2", "1"]}}, "dilations": {"list": {"i": ["1", "1", "1", "1"]}}, "T": {"type": "DT_FLOAT"}, "data_format": {"s": "TkhXQw=="}, "TArgs": {"list": {"type": ["DT_FLOAT"]}}, "leakyrelu_alpha": {"f": 0.2}, "padding": {"s": "VkFMSUQ="}, "explicit_paddings": {"list": {}}, "use_cudnn_on_gpu": {"b": true}, "filter_format": {"s": "SFdJTw=="}, "epsilon": {"f": 0.0}, "fused_ops": {"list": {"s": ["Qmlhc0FkZA=="]}}, "num_args": {"i": "1"}, "num_host_args": {"i": "0"}}}, {"name": "PartitionedCall/model_23/tf.math.sigmoid_25/Sigmoid", "op": "Sigmoid", "input": ["PartitionedCall/model_23/tf.math.add_46/Add"], "attr": {"T": {"type": "DT_FLOAT"}}}, {"name": "PartitionedCall/model_23/tf.math.multiply_95/Mul", "op": "Mul", "input": ["PartitionedCall/model_23/tf.math.add_46/Add", "PartitionedCall/model_23/tf.math.sigmoid_25/Sigmoid"], "attr": {"T": {"type": "DT_FLOAT"}}}, {"name": "PartitionedCall/model_23/tf.math.add_47/Add", "op": "_FusedConv2D", "input": ["PartitionedCall/model_23/tf.math.multiply_95/Mul", "2143", "2145"], "device": "/device:CPU:0", "attr": {"fused_ops": {"list": {"s": ["Qmlhc0FkZA=="]}}, "leakyrelu_alpha": {"f": 0.2}, "padding": {"s": "U0FNRQ=="}, "filter_format": {"s": "SFdJTw=="}, "T": {"type": "DT_FLOAT"}, "explicit_paddings": {"list": {}}, "num_args": {"i": "1"}, "dilations": {"list": {"i": ["1", "1", "1", "1"]}}, "use_cudnn_on_gpu": {"b": true}, "strides": {"list": {"i": ["1", "1", "1", "1"]}}, "num_host_args": {"i": "0"}, "epsilon": {"f": 0.0}, "TArgs": {"list": {"type": ["DT_FLOAT"]}}, "data_format": {"s": "TkhXQw=="}}}, {"name": "PartitionedCall/model_23/tf.math.sigmoid_26/Sigmoid", "op": "Sigmoid", "input": ["PartitionedCall/model_23/tf.math.add_47/Add"], "attr": {"T": {"type": "DT_FLOAT"}}}, {"name": "PartitionedCall/model_23/tf.math.multiply_98/Mul", "op": "Mul", "input": ["PartitionedCall/model_23/tf.math.add_47/Add", "PartitionedCall/model_23/tf.math.sigmoid_26/Sigmoid"], "attr": {"T": {"type": "DT_FLOAT"}}}, {"name": "PartitionedCall/model_23/tf.strided_slice_4/StridedSlice", "op": "StridedSlice", "input": ["PartitionedCall/model_23/tf.math.multiply_98/Mul", "2199", "2201", "PartitionedCall/model_23/tf.strided_slice_4/ones_like"], "attr": {"new_axis_mask": {"i": "0"}, "shrink_axis_mask": {"i": "0"}, "ellipsis_mask": {"i": "0"}, "Index": {"type": "DT_INT64"}, "T": {"type": "DT_FLOAT"}, "begin_mask": {"i": "15"}, "end_mask": {"i": "7"}}}, {"name": "PartitionedCall/model_23/tf.strided_slice_5/StridedSlice", "op": "StridedSlice", "input": ["PartitionedCall/model_23/tf.math.multiply_98/Mul", "2147", "2149", "PartitionedCall/model_23/tf.strided_slice_5/ones_like"], "attr": {"end_mask": {"i": "7"}, "Index": {"type": "DT_INT64"}, "shrink_axis_mask": {"i": "0"}, "begin_mask": {"i": "7"}, "new_axis_mask": {"i": "0"}, "ellipsis_mask": {"i": "0"}, "T": {"type": "DT_FLOAT"}}}, {"name": "PartitionedCall/model_23/tf.math.add_48/Add", "op": "_FusedConv2D", "input": ["PartitionedCall/model_23/tf.strided_slice_5/StridedSlice", "2151", "2153"], "device": "/device:CPU:0", "attr": {"fused_ops": {"list": {"s": ["Qmlhc0FkZA=="]}}, "TArgs": {"list": {"type": ["DT_FLOAT"]}}, "leakyrelu_alpha": {"f": 0.2}, "num_host_args": {"i": "0"}, "filter_format": {"s": "SFdJTw=="}, "padding": {"s": "U0FNRQ=="}, "T": {"type": "DT_FLOAT"}, "data_format": {"s": "TkhXQw=="}, "num_args": {"i": "1"}, "epsilon": {"f": 0.0}, "strides": {"list": {"i": ["1", "1", "1", "1"]}}, "use_cudnn_on_gpu": {"b": true}, "explicit_paddings": {"list": {}}, "dilations": {"list": {"i": ["1", "1", "1", "1"]}}}}, {"name": "PartitionedCall/model_23/tf.math.sigmoid_27/Sigmoid", "op": "Sigmoid", "input": ["PartitionedCall/model_23/tf.math.add_48/Add"], "attr": {"T": {"type": "DT_FLOAT"}}}, {"name": "PartitionedCall/model_23/tf.math.multiply_101/Mul", "op": "Mul", "input": ["PartitionedCall/model_23/tf.math.add_48/Add", "PartitionedCall/model_23/tf.math.sigmoid_27/Sigmoid"], "attr": {"T": {"type": "DT_FLOAT"}}}, {"name": "PartitionedCall/model_23/tf.math.add_49/Add", "op": "_FusedConv2D", "input": ["PartitionedCall/model_23/tf.math.multiply_101/Mul", "2155", "2157"], "device": "/device:CPU:0", "attr": {"fused_ops": {"list": {"s": ["Qmlhc0FkZA=="]}}, "leakyrelu_alpha": {"f": 0.2}, "num_host_args": {"i": "0"}, "T": {"type": "DT_FLOAT"}, "TArgs": {"list": {"type": ["DT_FLOAT"]}}, "data_format": {"s": "TkhXQw=="}, "strides": {"list": {"i": ["1", "1", "1", "1"]}}, "filter_format": {"s": "SFdJTw=="}, "padding": {"s": "U0FNRQ=="}, "epsilon": {"f": 0.0}, "num_args": {"i": "1"}, "explicit_paddings": {"list": {}}, "dilations": {"list": {"i": ["1", "1", "1", "1"]}}, "use_cudnn_on_gpu": {"b": true}}}, {"name": "PartitionedCall/model_23/tf.math.sigmoid_28/Sigmoid", "op": "Sigmoid", "input": ["PartitionedCall/model_23/tf.math.add_49/Add"], "attr": {"T": {"type": "DT_FLOAT"}}}, {"name": "PartitionedCall/model_23/tf.math.multiply_104/Mul", "op": "Mul", "input": ["PartitionedCall/model_23/tf.math.add_49/Add", "PartitionedCall/model_23/tf.math.sigmoid_28/Sigmoid"], "attr": {"T": {"type": "DT_FLOAT"}}}, {"name": "PartitionedCall/model_23/tf.math.add_50/Add", "op": "AddV2", "input": ["PartitionedCall/model_23/tf.strided_slice_5/StridedSlice", "PartitionedCall/model_23/tf.math.multiply_104/Mul"], "attr": {"T": {"type": "DT_FLOAT"}}}, {"name": "PartitionedCall/model_23/tf.math.add_51/Add", "op": "_FusedConv2D", "input": ["PartitionedCall/model_23/tf.math.add_50/Add", "2159", "2161"], "device": "/device:CPU:0", "attr": {"fused_ops": {"list": {"s": ["Qmlhc0FkZA=="]}}, "use_cudnn_on_gpu": {"b": true}, "num_host_args": {"i": "0"}, "padding": {"s": "U0FNRQ=="}, "filter_format": {"s": "SFdJTw=="}, "epsilon": {"f": 0.0}, "num_args": {"i": "1"}, "TArgs": {"list": {"type": ["DT_FLOAT"]}}, "explicit_paddings": {"list": {}}, "strides": {"list": {"i": ["1", "1", "1", "1"]}}, "dilations": {"list": {"i": ["1", "1", "1", "1"]}}, "data_format": {"s": "TkhXQw=="}, "T": {"type": "DT_FLOAT"}, "leakyrelu_alpha": {"f": 0.2}}}, {"name": "PartitionedCall/model_23/tf.math.sigmoid_29/Sigmoid", "op": "Sigmoid", "input": ["PartitionedCall/model_23/tf.math.add_51/Add"], "attr": {"T": {"type": "DT_FLOAT"}}}, {"name": "PartitionedCall/model_23/tf.math.multiply_109/Mul", "op": "Mul", "input": ["PartitionedCall/model_23/tf.math.add_51/Add", "PartitionedCall/model_23/tf.math.sigmoid_29/Sigmoid"], "attr": {"T": {"type": "DT_FLOAT"}}}, {"name": "PartitionedCall/model_23/tf.math.add_52/Add", "op": "_FusedConv2D", "input": ["PartitionedCall/model_23/tf.math.multiply_109/Mul", "2163", "2165"], "device": "/device:CPU:0", "attr": {"explicit_paddings": {"list": {}}, "filter_format": {"s": "SFdJTw=="}, "fused_ops": {"list": {"s": ["Qmlhc0FkZA=="]}}, "epsilon": {"f": 0.0}, "data_format": {"s": "TkhXQw=="}, "num_args": {"i": "1"}, "num_host_args": {"i": "0"}, "leakyrelu_alpha": {"f": 0.2}, "use_cudnn_on_gpu": {"b": true}, "padding": {"s": "U0FNRQ=="}, "T": {"type": "DT_FLOAT"}, "dilations": {"list": {"i": ["1", "1", "1", "1"]}}, "TArgs": {"list": {"type": ["DT_FLOAT"]}}, "strides": {"list": {"i": ["1", "1", "1", "1"]}}}}, {"name": "PartitionedCall/model_23/tf.math.sigmoid_30/Sigmoid", "op": "Sigmoid", "input": ["PartitionedCall/model_23/tf.math.add_52/Add"], "attr": {"T": {"type": "DT_FLOAT"}}}, {"name": "PartitionedCall/model_23/tf.math.multiply_112/Mul", "op": "Mul", "input": ["PartitionedCall/model_23/tf.math.add_52/Add", "PartitionedCall/model_23/tf.math.sigmoid_30/Sigmoid"], "attr": {"T": {"type": "DT_FLOAT"}}}, {"name": "PartitionedCall/model_23/tf.math.add_53/Add", "op": "AddV2", "input": ["PartitionedCall/model_23/tf.math.add_50/Add", "PartitionedCall/model_23/tf.math.multiply_112/Mul"], "attr": {"T": {"type": "DT_FLOAT"}}}, {"name": "PartitionedCall/model_23/tf.math.add_54/Add", "op": "_FusedConv2D", "input": ["PartitionedCall/model_23/tf.math.add_53/Add", "2167", "2169"], "device": "/device:CPU:0", "attr": {"explicit_paddings": {"list": {}}, "num_args": {"i": "1"}, "T": {"type": "DT_FLOAT"}, "strides": {"list": {"i": ["1", "1", "1", "1"]}}, "TArgs": {"list": {"type": ["DT_FLOAT"]}}, "filter_format": {"s": "SFdJTw=="}, "dilations": {"list": {"i": ["1", "1", "1", "1"]}}, "leakyrelu_alpha": {"f": 0.2}, "num_host_args": {"i": "0"}, "data_format": {"s": "TkhXQw=="}, "padding": {"s": "U0FNRQ=="}, "use_cudnn_on_gpu": {"b": true}, "epsilon": {"f": 0.0}, "fused_ops": {"list": {"s": ["Qmlhc0FkZA=="]}}}}, {"name": "PartitionedCall/model_23/tf.math.sigmoid_31/Sigmoid", "op": "Sigmoid", "input": ["PartitionedCall/model_23/tf.math.add_54/Add"], "attr": {"T": {"type": "DT_FLOAT"}}}, {"name": "PartitionedCall/model_23/tf.math.multiply_117/Mul", "op": "Mul", "input": ["PartitionedCall/model_23/tf.math.add_54/Add", "PartitionedCall/model_23/tf.math.sigmoid_31/Sigmoid"], "attr": {"T": {"type": "DT_FLOAT"}}}, {"name": "PartitionedCall/model_23/tf.math.add_55/Add", "op": "_FusedConv2D", "input": ["PartitionedCall/model_23/tf.math.multiply_117/Mul", "2171", "2173"], "device": "/device:CPU:0", "attr": {"TArgs": {"list": {"type": ["DT_FLOAT"]}}, "padding": {"s": "U0FNRQ=="}, "use_cudnn_on_gpu": {"b": true}, "T": {"type": "DT_FLOAT"}, "num_host_args": {"i": "0"}, "epsilon": {"f": 0.0}, "filter_format": {"s": "SFdJTw=="}, "leakyrelu_alpha": {"f": 0.2}, "fused_ops": {"list": {"s": ["Qmlhc0FkZA=="]}}, "strides": {"list": {"i": ["1", "1", "1", "1"]}}, "dilations": {"list": {"i": ["1", "1", "1", "1"]}}, "explicit_paddings": {"list": {}}, "num_args": {"i": "1"}, "data_format": {"s": "TkhXQw=="}}}, {"name": "PartitionedCall/model_23/tf.math.sigmoid_32/Sigmoid", "op": "Sigmoid", "input": ["PartitionedCall/model_23/tf.math.add_55/Add"], "attr": {"T": {"type": "DT_FLOAT"}}}, {"name": "PartitionedCall/model_23/tf.math.multiply_120/Mul", "op": "Mul", "input": ["PartitionedCall/model_23/tf.math.add_55/Add", "PartitionedCall/model_23/tf.math.sigmoid_32/Sigmoid"], "attr": {"T": {"type": "DT_FLOAT"}}}, {"name": "PartitionedCall/model_23/tf.math.add_56/Add", "op": "AddV2", "input": ["PartitionedCall/model_23/tf.math.add_53/Add", "PartitionedCall/model_23/tf.math.multiply_120/Mul"], "attr": {"T": {"type": "DT_FLOAT"}}}, {"name": "PartitionedCall/model_23/tf.math.add_57/Add", "op": "_FusedConv2D", "input": ["PartitionedCall/model_23/tf.math.add_56/Add", "2175", "2177"], "device": "/device:CPU:0", "attr": {"padding": {"s": "U0FNRQ=="}, "TArgs": {"list": {"type": ["DT_FLOAT"]}}, "leakyrelu_alpha": {"f": 0.2}, "explicit_paddings": {"list": {}}, "num_host_args": {"i": "0"}, "data_format": {"s": "TkhXQw=="}, "filter_format": {"s": "SFdJTw=="}, "fused_ops": {"list": {"s": ["Qmlhc0FkZA=="]}}, "epsilon": {"f": 0.0}, "T": {"type": "DT_FLOAT"}, "strides": {"list": {"i": ["1", "1", "1", "1"]}}, "num_args": {"i": "1"}, "use_cudnn_on_gpu": {"b": true}, "dilations": {"list": {"i": ["1", "1", "1", "1"]}}}}, {"name": "PartitionedCall/model_23/tf.math.sigmoid_33/Sigmoid", "op": "Sigmoid", "input": ["PartitionedCall/model_23/tf.math.add_57/Add"], "attr": {"T": {"type": "DT_FLOAT"}}}, {"name": "PartitionedCall/model_23/tf.math.multiply_125/Mul", "op": "Mul", "input": ["PartitionedCall/model_23/tf.math.add_57/Add", "PartitionedCall/model_23/tf.math.sigmoid_33/Sigmoid"], "attr": {"T": {"type": "DT_FLOAT"}}}, {"name": "PartitionedCall/model_23/tf.math.add_58/Add", "op": "_FusedConv2D", "input": ["PartitionedCall/model_23/tf.math.multiply_125/Mul", "2179", "2181"], "device": "/device:CPU:0", "attr": {"epsilon": {"f": 0.0}, "filter_format": {"s": "SFdJTw=="}, "num_host_args": {"i": "0"}, "T": {"type": "DT_FLOAT"}, "strides": {"list": {"i": ["1", "1", "1", "1"]}}, "leakyrelu_alpha": {"f": 0.2}, "num_args": {"i": "1"}, "fused_ops": {"list": {"s": ["Qmlhc0FkZA=="]}}, "dilations": {"list": {"i": ["1", "1", "1", "1"]}}, "use_cudnn_on_gpu": {"b": true}, "TArgs": {"list": {"type": ["DT_FLOAT"]}}, "explicit_paddings": {"list": {}}, "padding": {"s": "U0FNRQ=="}, "data_format": {"s": "TkhXQw=="}}}, {"name": "PartitionedCall/model_23/tf.math.sigmoid_34/Sigmoid", "op": "Sigmoid", "input": ["PartitionedCall/model_23/tf.math.add_58/Add"], "attr": {"T": {"type": "DT_FLOAT"}}}, {"name": "PartitionedCall/model_23/tf.math.multiply_128/Mul", "op": "Mul", "input": ["PartitionedCall/model_23/tf.math.add_58/Add", "PartitionedCall/model_23/tf.math.sigmoid_34/Sigmoid"], "attr": {"T": {"type": "DT_FLOAT"}}}, {"name": "PartitionedCall/model_23/tf.math.add_59/Add", "op": "AddV2", "input": ["PartitionedCall/model_23/tf.math.add_56/Add", "PartitionedCall/model_23/tf.math.multiply_128/Mul"], "attr": {"T": {"type": "DT_FLOAT"}}}, {"name": "PartitionedCall/model_23/tf.math.add_60/Add", "op": "_FusedConv2D", "input": ["PartitionedCall/model_23/tf.math.add_59/Add", "2183", "2185"], "device": "/device:CPU:0", "attr": {"explicit_paddings": {"list": {}}, "T": {"type": "DT_FLOAT"}, "TArgs": {"list": {"type": ["DT_FLOAT"]}}, "filter_format": {"s": "SFdJTw=="}, "leakyrelu_alpha": {"f": 0.2}, "padding": {"s": "U0FNRQ=="}, "data_format": {"s": "TkhXQw=="}, "use_cudnn_on_gpu": {"b": true}, "num_args": {"i": "1"}, "dilations": {"list": {"i": ["1", "1", "1", "1"]}}, "strides": {"list": {"i": ["1", "1", "1", "1"]}}, "num_host_args": {"i": "0"}, "epsilon": {"f": 0.0}, "fused_ops": {"list": {"s": ["Qmlhc0FkZA=="]}}}}, {"name": "PartitionedCall/model_23/tf.math.sigmoid_35/Sigmoid", "op": "Sigmoid", "input": ["PartitionedCall/model_23/tf.math.add_60/Add"], "attr": {"T": {"type": "DT_FLOAT"}}}, {"name": "PartitionedCall/model_23/tf.math.multiply_133/Mul", "op": "Mul", "input": ["PartitionedCall/model_23/tf.math.add_60/Add", "PartitionedCall/model_23/tf.math.sigmoid_35/Sigmoid"], "attr": {"T": {"type": "DT_FLOAT"}}}, {"name": "PartitionedCall/model_23/tf.math.add_61/Add", "op": "_FusedConv2D", "input": ["PartitionedCall/model_23/tf.math.multiply_133/Mul", "2187", "2189"], "device": "/device:CPU:0", "attr": {"epsilon": {"f": 0.0}, "data_format": {"s": "TkhXQw=="}, "use_cudnn_on_gpu": {"b": true}, "TArgs": {"list": {"type": ["DT_FLOAT"]}}, "leakyrelu_alpha": {"f": 0.2}, "dilations": {"list": {"i": ["1", "1", "1", "1"]}}, "padding": {"s": "U0FNRQ=="}, "explicit_paddings": {"list": {}}, "strides": {"list": {"i": ["1", "1", "1", "1"]}}, "num_args": {"i": "1"}, "T": {"type": "DT_FLOAT"}, "filter_format": {"s": "SFdJTw=="}, "fused_ops": {"list": {"s": ["Qmlhc0FkZA=="]}}, "num_host_args": {"i": "0"}}}, {"name": "PartitionedCall/model_23/tf.math.sigmoid_36/Sigmoid", "op": "Sigmoid", "input": ["PartitionedCall/model_23/tf.math.add_61/Add"], "attr": {"T": {"type": "DT_FLOAT"}}}, {"name": "PartitionedCall/model_23/tf.math.multiply_136/Mul", "op": "Mul", "input": ["PartitionedCall/model_23/tf.math.add_61/Add", "PartitionedCall/model_23/tf.math.sigmoid_36/Sigmoid"], "attr": {"T": {"type": "DT_FLOAT"}}}, {"name": "PartitionedCall/model_23/tf.math.add_62/Add", "op": "AddV2", "input": ["PartitionedCall/model_23/tf.math.add_59/Add", "PartitionedCall/model_23/tf.math.multiply_136/Mul"], "attr": {"T": {"type": "DT_FLOAT"}}}, {"name": "PartitionedCall/model_23/tf.math.add_63/Add", "op": "_FusedConv2D", "input": ["PartitionedCall/model_23/tf.math.add_62/Add", "2191", "2193"], "device": "/device:CPU:0", "attr": {"dilations": {"list": {"i": ["1", "1", "1", "1"]}}, "strides": {"list": {"i": ["1", "1", "1", "1"]}}, "padding": {"s": "U0FNRQ=="}, "leakyrelu_alpha": {"f": 0.2}, "num_args": {"i": "1"}, "fused_ops": {"list": {"s": ["Qmlhc0FkZA=="]}}, "epsilon": {"f": 0.0}, "filter_format": {"s": "SFdJTw=="}, "num_host_args": {"i": "0"}, "use_cudnn_on_gpu": {"b": true}, "data_format": {"s": "TkhXQw=="}, "explicit_paddings": {"list": {}}, "T": {"type": "DT_FLOAT"}, "TArgs": {"list": {"type": ["DT_FLOAT"]}}}}, {"name": "PartitionedCall/model_23/tf.math.sigmoid_37/Sigmoid", "op": "Sigmoid", "input": ["PartitionedCall/model_23/tf.math.add_63/Add"], "attr": {"T": {"type": "DT_FLOAT"}}}, {"name": "PartitionedCall/model_23/tf.math.multiply_141/Mul", "op": "Mul", "input": ["PartitionedCall/model_23/tf.math.add_63/Add", "PartitionedCall/model_23/tf.math.sigmoid_37/Sigmoid"], "attr": {"T": {"type": "DT_FLOAT"}}}, {"name": "PartitionedCall/model_23/tf.math.add_64/Add", "op": "_FusedConv2D", "input": ["PartitionedCall/model_23/tf.math.multiply_141/Mul", "2195", "2197"], "device": "/device:CPU:0", "attr": {"explicit_paddings": {"list": {}}, "strides": {"list": {"i": ["1", "1", "1", "1"]}}, "epsilon": {"f": 0.0}, "use_cudnn_on_gpu": {"b": true}, "padding": {"s": "U0FNRQ=="}, "num_args": {"i": "1"}, "TArgs": {"list": {"type": ["DT_FLOAT"]}}, "T": {"type": "DT_FLOAT"}, "leakyrelu_alpha": {"f": 0.2}, "fused_ops": {"list": {"s": ["Qmlhc0FkZA=="]}}, "num_host_args": {"i": "0"}, "dilations": {"list": {"i": ["1", "1", "1", "1"]}}, "filter_format": {"s": "SFdJTw=="}, "data_format": {"s": "TkhXQw=="}}}, {"name": "PartitionedCall/model_23/tf.math.sigmoid_38/Sigmoid", "op": "Sigmoid", "input": ["PartitionedCall/model_23/tf.math.add_64/Add"], "attr": {"T": {"type": "DT_FLOAT"}}}, {"name": "PartitionedCall/model_23/tf.math.multiply_144/Mul", "op": "Mul", "input": ["PartitionedCall/model_23/tf.math.add_64/Add", "PartitionedCall/model_23/tf.math.sigmoid_38/Sigmoid"], "attr": {"T": {"type": "DT_FLOAT"}}}, {"name": "PartitionedCall/model_23/tf.math.add_65/Add", "op": "AddV2", "input": ["PartitionedCall/model_23/tf.math.add_62/Add", "PartitionedCall/model_23/tf.math.multiply_144/Mul"], "attr": {"T": {"type": "DT_FLOAT"}}}, {"name": "PartitionedCall/model_23/tf.concat_2/concat", "op": "ConcatV2", "input": ["PartitionedCall/model_23/tf.strided_slice_4/StridedSlice", "PartitionedCall/model_23/tf.strided_slice_5/StridedSlice", "PartitionedCall/model_23/tf.math.add_50/Add", "PartitionedCall/model_23/tf.math.add_53/Add", "PartitionedCall/model_23/tf.math.add_56/Add", "PartitionedCall/model_23/tf.math.add_59/Add", "PartitionedCall/model_23/tf.math.add_62/Add", "PartitionedCall/model_23/tf.math.add_65/Add", "PartitionedCall/model_23/tf.concat_2/concat/axis"], "attr": {"T": {"type": "DT_FLOAT"}, "N": {"i": "8"}, "Tidx": {"type": "DT_INT32"}}}, {"name": "PartitionedCall/model_23/tf.math.add_66/Add", "op": "_FusedConv2D", "input": ["PartitionedCall/model_23/tf.concat_2/concat", "2203", "2205"], "device": "/device:CPU:0", "attr": {"use_cudnn_on_gpu": {"b": true}, "filter_format": {"s": "SFdJTw=="}, "leakyrelu_alpha": {"f": 0.2}, "num_args": {"i": "1"}, "TArgs": {"list": {"type": ["DT_FLOAT"]}}, "dilations": {"list": {"i": ["1", "1", "1", "1"]}}, "explicit_paddings": {"list": {}}, "padding": {"s": "U0FNRQ=="}, "strides": {"list": {"i": ["1", "1", "1", "1"]}}, "T": {"type": "DT_FLOAT"}, "fused_ops": {"list": {"s": ["Qmlhc0FkZA=="]}}, "data_format": {"s": "TkhXQw=="}, "num_host_args": {"i": "0"}, "epsilon": {"f": 0.0}}}, {"name": "PartitionedCall/model_23/tf.math.sigmoid_39/Sigmoid", "op": "Sigmoid", "input": ["PartitionedCall/model_23/tf.math.add_66/Add"], "attr": {"T": {"type": "DT_FLOAT"}}}, {"name": "PartitionedCall/model_23/tf.math.multiply_149/Mul", "op": "Mul", "input": ["PartitionedCall/model_23/tf.math.add_66/Add", "PartitionedCall/model_23/tf.math.sigmoid_39/Sigmoid"], "attr": {"T": {"type": "DT_FLOAT"}}}, {"name": "PartitionedCall/model_23/tf.compat.v1.pad_4/Pad", "op": "Pad", "input": ["PartitionedCall/model_23/tf.math.multiply_149/Mul", "2207"], "attr": {"T": {"type": "DT_FLOAT"}, "Tpaddings": {"type": "DT_INT32"}}}, {"name": "PartitionedCall/model_23/tf.math.add_67/Add", "op": "_FusedConv2D", "input": ["PartitionedCall/model_23/tf.compat.v1.pad_4/Pad", "2209", "2211"], "device": "/device:CPU:0", "attr": {"fused_ops": {"list": {"s": ["Qmlhc0FkZA=="]}}, "data_format": {"s": "TkhXQw=="}, "num_args": {"i": "1"}, "use_cudnn_on_gpu": {"b": true}, "strides": {"list": {"i": ["1", "2", "2", "1"]}}, "filter_format": {"s": "SFdJTw=="}, "epsilon": {"f": 0.0}, "T": {"type": "DT_FLOAT"}, "padding": {"s": "VkFMSUQ="}, "num_host_args": {"i": "0"}, "dilations": {"list": {"i": ["1", "1", "1", "1"]}}, "leakyrelu_alpha": {"f": 0.2}, "TArgs": {"list": {"type": ["DT_FLOAT"]}}, "explicit_paddings": {"list": {}}}}, {"name": "PartitionedCall/model_23/tf.math.sigmoid_40/Sigmoid", "op": "Sigmoid", "input": ["PartitionedCall/model_23/tf.math.add_67/Add"], "attr": {"T": {"type": "DT_FLOAT"}}}, {"name": "PartitionedCall/model_23/tf.math.multiply_152/Mul", "op": "Mul", "input": ["PartitionedCall/model_23/tf.math.add_67/Add", "PartitionedCall/model_23/tf.math.sigmoid_40/Sigmoid"], "attr": {"T": {"type": "DT_FLOAT"}}}, {"name": "PartitionedCall/model_23/tf.math.add_68/Add", "op": "_FusedConv2D", "input": ["PartitionedCall/model_23/tf.math.multiply_152/Mul", "2213", "2215"], "device": "/device:CPU:0", "attr": {"filter_format": {"s": "SFdJTw=="}, "strides": {"list": {"i": ["1", "1", "1", "1"]}}, "epsilon": {"f": 0.0}, "data_format": {"s": "TkhXQw=="}, "use_cudnn_on_gpu": {"b": true}, "leakyrelu_alpha": {"f": 0.2}, "TArgs": {"list": {"type": ["DT_FLOAT"]}}, "explicit_paddings": {"list": {}}, "num_host_args": {"i": "0"}, "padding": {"s": "U0FNRQ=="}, "num_args": {"i": "1"}, "fused_ops": {"list": {"s": ["Qmlhc0FkZA=="]}}, "dilations": {"list": {"i": ["1", "1", "1", "1"]}}, "T": {"type": "DT_FLOAT"}}}, {"name": "PartitionedCall/model_23/tf.math.sigmoid_41/Sigmoid", "op": "Sigmoid", "input": ["PartitionedCall/model_23/tf.math.add_68/Add"], "attr": {"T": {"type": "DT_FLOAT"}}}, {"name": "PartitionedCall/model_23/tf.math.multiply_155/Mul", "op": "Mul", "input": ["PartitionedCall/model_23/tf.math.add_68/Add", "PartitionedCall/model_23/tf.math.sigmoid_41/Sigmoid"], "attr": {"T": {"type": "DT_FLOAT"}}}, {"name": "PartitionedCall/model_23/tf.strided_slice_6/StridedSlice", "op": "StridedSlice", "input": ["PartitionedCall/model_23/tf.math.multiply_155/Mul", "2245", "2247", "PartitionedCall/model_23/tf.strided_slice_6/ones_like"], "attr": {"new_axis_mask": {"i": "0"}, "ellipsis_mask": {"i": "0"}, "T": {"type": "DT_FLOAT"}, "end_mask": {"i": "7"}, "begin_mask": {"i": "15"}, "shrink_axis_mask": {"i": "0"}, "Index": {"type": "DT_INT64"}}}, {"name": "PartitionedCall/model_23/tf.strided_slice_7/StridedSlice", "op": "StridedSlice", "input": ["PartitionedCall/model_23/tf.math.multiply_155/Mul", "2217", "2219", "PartitionedCall/model_23/tf.strided_slice_7/ones_like"], "attr": {"new_axis_mask": {"i": "0"}, "ellipsis_mask": {"i": "0"}, "Index": {"type": "DT_INT64"}, "T": {"type": "DT_FLOAT"}, "begin_mask": {"i": "7"}, "end_mask": {"i": "7"}, "shrink_axis_mask": {"i": "0"}}}, {"name": "PartitionedCall/model_23/tf.math.add_69/Add", "op": "_FusedConv2D", "input": ["PartitionedCall/model_23/tf.strided_slice_7/StridedSlice", "2221", "2223"], "device": "/device:CPU:0", "attr": {"explicit_paddings": {"list": {}}, "leakyrelu_alpha": {"f": 0.2}, "epsilon": {"f": 0.0}, "padding": {"s": "U0FNRQ=="}, "T": {"type": "DT_FLOAT"}, "fused_ops": {"list": {"s": ["Qmlhc0FkZA=="]}}, "strides": {"list": {"i": ["1", "1", "1", "1"]}}, "num_args": {"i": "1"}, "filter_format": {"s": "SFdJTw=="}, "dilations": {"list": {"i": ["1", "1", "1", "1"]}}, "data_format": {"s": "TkhXQw=="}, "TArgs": {"list": {"type": ["DT_FLOAT"]}}, "use_cudnn_on_gpu": {"b": true}, "num_host_args": {"i": "0"}}}, {"name": "PartitionedCall/model_23/tf.math.sigmoid_42/Sigmoid", "op": "Sigmoid", "input": ["PartitionedCall/model_23/tf.math.add_69/Add"], "attr": {"T": {"type": "DT_FLOAT"}}}, {"name": "PartitionedCall/model_23/tf.math.multiply_158/Mul", "op": "Mul", "input": ["PartitionedCall/model_23/tf.math.add_69/Add", "PartitionedCall/model_23/tf.math.sigmoid_42/Sigmoid"], "attr": {"T": {"type": "DT_FLOAT"}}}, {"name": "PartitionedCall/model_23/tf.math.add_70/Add", "op": "_FusedConv2D", "input": ["PartitionedCall/model_23/tf.math.multiply_158/Mul", "2225", "2227"], "device": "/device:CPU:0", "attr": {"explicit_paddings": {"list": {}}, "T": {"type": "DT_FLOAT"}, "use_cudnn_on_gpu": {"b": true}, "leakyrelu_alpha": {"f": 0.2}, "num_args": {"i": "1"}, "data_format": {"s": "TkhXQw=="}, "padding": {"s": "U0FNRQ=="}, "TArgs": {"list": {"type": ["DT_FLOAT"]}}, "dilations": {"list": {"i": ["1", "1", "1", "1"]}}, "fused_ops": {"list": {"s": ["Qmlhc0FkZA=="]}}, "epsilon": {"f": 0.0}, "strides": {"list": {"i": ["1", "1", "1", "1"]}}, "filter_format": {"s": "SFdJTw=="}, "num_host_args": {"i": "0"}}}, {"name": "PartitionedCall/model_23/tf.math.sigmoid_43/Sigmoid", "op": "Sigmoid", "input": ["PartitionedCall/model_23/tf.math.add_70/Add"], "attr": {"T": {"type": "DT_FLOAT"}}}, {"name": "PartitionedCall/model_23/tf.math.multiply_161/Mul", "op": "Mul", "input": ["PartitionedCall/model_23/tf.math.add_70/Add", "PartitionedCall/model_23/tf.math.sigmoid_43/Sigmoid"], "attr": {"T": {"type": "DT_FLOAT"}}}, {"name": "PartitionedCall/model_23/tf.math.add_71/Add", "op": "AddV2", "input": ["PartitionedCall/model_23/tf.strided_slice_7/StridedSlice", "PartitionedCall/model_23/tf.math.multiply_161/Mul"], "attr": {"T": {"type": "DT_FLOAT"}}}, {"name": "PartitionedCall/model_23/tf.math.add_72/Add", "op": "_FusedConv2D", "input": ["PartitionedCall/model_23/tf.math.add_71/Add", "2229", "2231"], "device": "/device:CPU:0", "attr": {"num_args": {"i": "1"}, "num_host_args": {"i": "0"}, "epsilon": {"f": 0.0}, "data_format": {"s": "TkhXQw=="}, "strides": {"list": {"i": ["1", "1", "1", "1"]}}, "fused_ops": {"list": {"s": ["Qmlhc0FkZA=="]}}, "leakyrelu_alpha": {"f": 0.2}, "T": {"type": "DT_FLOAT"}, "filter_format": {"s": "SFdJTw=="}, "use_cudnn_on_gpu": {"b": true}, "TArgs": {"list": {"type": ["DT_FLOAT"]}}, "explicit_paddings": {"list": {}}, "padding": {"s": "U0FNRQ=="}, "dilations": {"list": {"i": ["1", "1", "1", "1"]}}}}, {"name": "PartitionedCall/model_23/tf.math.sigmoid_44/Sigmoid", "op": "Sigmoid", "input": ["PartitionedCall/model_23/tf.math.add_72/Add"], "attr": {"T": {"type": "DT_FLOAT"}}}, {"name": "PartitionedCall/model_23/tf.math.multiply_166/Mul", "op": "Mul", "input": ["PartitionedCall/model_23/tf.math.add_72/Add", "PartitionedCall/model_23/tf.math.sigmoid_44/Sigmoid"], "attr": {"T": {"type": "DT_FLOAT"}}}, {"name": "PartitionedCall/model_23/tf.math.add_73/Add", "op": "_FusedConv2D", "input": ["PartitionedCall/model_23/tf.math.multiply_166/Mul", "2233", "2235"], "device": "/device:CPU:0", "attr": {"dilations": {"list": {"i": ["1", "1", "1", "1"]}}, "filter_format": {"s": "SFdJTw=="}, "use_cudnn_on_gpu": {"b": true}, "strides": {"list": {"i": ["1", "1", "1", "1"]}}, "T": {"type": "DT_FLOAT"}, "leakyrelu_alpha": {"f": 0.2}, "num_args": {"i": "1"}, "fused_ops": {"list": {"s": ["Qmlhc0FkZA=="]}}, "TArgs": {"list": {"type": ["DT_FLOAT"]}}, "explicit_paddings": {"list": {}}, "data_format": {"s": "TkhXQw=="}, "epsilon": {"f": 0.0}, "padding": {"s": "U0FNRQ=="}, "num_host_args": {"i": "0"}}}, {"name": "PartitionedCall/model_23/tf.math.sigmoid_45/Sigmoid", "op": "Sigmoid", "input": ["PartitionedCall/model_23/tf.math.add_73/Add"], "attr": {"T": {"type": "DT_FLOAT"}}}, {"name": "PartitionedCall/model_23/tf.math.multiply_169/Mul", "op": "Mul", "input": ["PartitionedCall/model_23/tf.math.add_73/Add", "PartitionedCall/model_23/tf.math.sigmoid_45/Sigmoid"], "attr": {"T": {"type": "DT_FLOAT"}}}, {"name": "PartitionedCall/model_23/tf.math.add_74/Add", "op": "AddV2", "input": ["PartitionedCall/model_23/tf.math.add_71/Add", "PartitionedCall/model_23/tf.math.multiply_169/Mul"], "attr": {"T": {"type": "DT_FLOAT"}}}, {"name": "PartitionedCall/model_23/tf.math.add_75/Add", "op": "_FusedConv2D", "input": ["PartitionedCall/model_23/tf.math.add_74/Add", "2237", "2239"], "device": "/device:CPU:0", "attr": {"data_format": {"s": "TkhXQw=="}, "filter_format": {"s": "SFdJTw=="}, "padding": {"s": "U0FNRQ=="}, "leakyrelu_alpha": {"f": 0.2}, "epsilon": {"f": 0.0}, "T": {"type": "DT_FLOAT"}, "strides": {"list": {"i": ["1", "1", "1", "1"]}}, "explicit_paddings": {"list": {}}, "use_cudnn_on_gpu": {"b": true}, "TArgs": {"list": {"type": ["DT_FLOAT"]}}, "fused_ops": {"list": {"s": ["Qmlhc0FkZA=="]}}, "num_args": {"i": "1"}, "dilations": {"list": {"i": ["1", "1", "1", "1"]}}, "num_host_args": {"i": "0"}}}, {"name": "PartitionedCall/model_23/tf.math.sigmoid_46/Sigmoid", "op": "Sigmoid", "input": ["PartitionedCall/model_23/tf.math.add_75/Add"], "attr": {"T": {"type": "DT_FLOAT"}}}, {"name": "PartitionedCall/model_23/tf.math.multiply_174/Mul", "op": "Mul", "input": ["PartitionedCall/model_23/tf.math.add_75/Add", "PartitionedCall/model_23/tf.math.sigmoid_46/Sigmoid"], "attr": {"T": {"type": "DT_FLOAT"}}}, {"name": "PartitionedCall/model_23/tf.math.add_76/Add", "op": "_FusedConv2D", "input": ["PartitionedCall/model_23/tf.math.multiply_174/Mul", "2241", "2243"], "device": "/device:CPU:0", "attr": {"epsilon": {"f": 0.0}, "data_format": {"s": "TkhXQw=="}, "num_args": {"i": "1"}, "filter_format": {"s": "SFdJTw=="}, "leakyrelu_alpha": {"f": 0.2}, "T": {"type": "DT_FLOAT"}, "strides": {"list": {"i": ["1", "1", "1", "1"]}}, "dilations": {"list": {"i": ["1", "1", "1", "1"]}}, "fused_ops": {"list": {"s": ["Qmlhc0FkZA=="]}}, "explicit_paddings": {"list": {}}, "use_cudnn_on_gpu": {"b": true}, "num_host_args": {"i": "0"}, "padding": {"s": "U0FNRQ=="}, "TArgs": {"list": {"type": ["DT_FLOAT"]}}}}, {"name": "PartitionedCall/model_23/tf.math.sigmoid_47/Sigmoid", "op": "Sigmoid", "input": ["PartitionedCall/model_23/tf.math.add_76/Add"], "attr": {"T": {"type": "DT_FLOAT"}}}, {"name": "PartitionedCall/model_23/tf.math.multiply_177/Mul", "op": "Mul", "input": ["PartitionedCall/model_23/tf.math.add_76/Add", "PartitionedCall/model_23/tf.math.sigmoid_47/Sigmoid"], "attr": {"T": {"type": "DT_FLOAT"}}}, {"name": "PartitionedCall/model_23/tf.math.add_77/Add", "op": "AddV2", "input": ["PartitionedCall/model_23/tf.math.add_74/Add", "PartitionedCall/model_23/tf.math.multiply_177/Mul"], "attr": {"T": {"type": "DT_FLOAT"}}}, {"name": "PartitionedCall/model_23/tf.concat_3/concat", "op": "ConcatV2", "input": ["PartitionedCall/model_23/tf.strided_slice_6/StridedSlice", "PartitionedCall/model_23/tf.strided_slice_7/StridedSlice", "PartitionedCall/model_23/tf.math.add_71/Add", "PartitionedCall/model_23/tf.math.add_74/Add", "PartitionedCall/model_23/tf.math.add_77/Add", "PartitionedCall/model_23/tf.concat_3/concat/axis"], "attr": {"Tidx": {"type": "DT_INT32"}, "T": {"type": "DT_FLOAT"}, "N": {"i": "5"}}}, {"name": "PartitionedCall/model_23/tf.math.add_78/Add", "op": "_FusedConv2D", "input": ["PartitionedCall/model_23/tf.concat_3/concat", "2249", "2251"], "device": "/device:CPU:0", "attr": {"strides": {"list": {"i": ["1", "1", "1", "1"]}}, "data_format": {"s": "TkhXQw=="}, "TArgs": {"list": {"type": ["DT_FLOAT"]}}, "use_cudnn_on_gpu": {"b": true}, "padding": {"s": "U0FNRQ=="}, "T": {"type": "DT_FLOAT"}, "explicit_paddings": {"list": {}}, "leakyrelu_alpha": {"f": 0.2}, "dilations": {"list": {"i": ["1", "1", "1", "1"]}}, "num_args": {"i": "1"}, "filter_format": {"s": "SFdJTw=="}, "epsilon": {"f": 0.0}, "fused_ops": {"list": {"s": ["Qmlhc0FkZA=="]}}, "num_host_args": {"i": "0"}}}, {"name": "PartitionedCall/model_23/tf.math.sigmoid_48/Sigmoid", "op": "Sigmoid", "input": ["PartitionedCall/model_23/tf.math.add_78/Add"], "attr": {"T": {"type": "DT_FLOAT"}}}, {"name": "PartitionedCall/model_23/tf.math.multiply_182/Mul", "op": "Mul", "input": ["PartitionedCall/model_23/tf.math.add_78/Add", "PartitionedCall/model_23/tf.math.sigmoid_48/Sigmoid"], "attr": {"T": {"type": "DT_FLOAT"}}}, {"name": "PartitionedCall/model_23/tf.compat.v1.pad_5/Pad", "op": "Pad", "input": ["PartitionedCall/model_23/tf.math.multiply_182/Mul", "2253"], "attr": {"Tpaddings": {"type": "DT_INT32"}, "T": {"type": "DT_FLOAT"}}}, {"name": "PartitionedCall/model_23/tf.math.add_79/Add", "op": "_FusedConv2D", "input": ["PartitionedCall/model_23/tf.compat.v1.pad_5/Pad", "2255", "2257"], "device": "/device:CPU:0", "attr": {"fused_ops": {"list": {"s": ["Qmlhc0FkZA=="]}}, "num_args": {"i": "1"}, "num_host_args": {"i": "0"}, "padding": {"s": "VkFMSUQ="}, "TArgs": {"list": {"type": ["DT_FLOAT"]}}, "T": {"type": "DT_FLOAT"}, "leakyrelu_alpha": {"f": 0.2}, "dilations": {"list": {"i": ["1", "1", "1", "1"]}}, "epsilon": {"f": 0.0}, "data_format": {"s": "TkhXQw=="}, "explicit_paddings": {"list": {}}, "use_cudnn_on_gpu": {"b": true}, "filter_format": {"s": "SFdJTw=="}, "strides": {"list": {"i": ["1", "2", "2", "1"]}}}}, {"name": "PartitionedCall/model_23/tf.math.sigmoid_49/Sigmoid", "op": "Sigmoid", "input": ["PartitionedCall/model_23/tf.math.add_79/Add"], "attr": {"T": {"type": "DT_FLOAT"}}}, {"name": "PartitionedCall/model_23/tf.math.multiply_185/Mul", "op": "Mul", "input": ["PartitionedCall/model_23/tf.math.add_79/Add", "PartitionedCall/model_23/tf.math.sigmoid_49/Sigmoid"], "attr": {"T": {"type": "DT_FLOAT"}}}, {"name": "PartitionedCall/model_23/tf.math.add_80/Add", "op": "_FusedConv2D", "input": ["PartitionedCall/model_23/tf.math.multiply_185/Mul", "2259", "2261"], "device": "/device:CPU:0", "attr": {"data_format": {"s": "TkhXQw=="}, "num_args": {"i": "1"}, "fused_ops": {"list": {"s": ["Qmlhc0FkZA=="]}}, "num_host_args": {"i": "0"}, "strides": {"list": {"i": ["1", "1", "1", "1"]}}, "leakyrelu_alpha": {"f": 0.2}, "padding": {"s": "U0FNRQ=="}, "use_cudnn_on_gpu": {"b": true}, "epsilon": {"f": 0.0}, "explicit_paddings": {"list": {}}, "T": {"type": "DT_FLOAT"}, "filter_format": {"s": "SFdJTw=="}, "dilations": {"list": {"i": ["1", "1", "1", "1"]}}, "TArgs": {"list": {"type": ["DT_FLOAT"]}}}}, {"name": "PartitionedCall/model_23/tf.math.sigmoid_50/Sigmoid", "op": "Sigmoid", "input": ["PartitionedCall/model_23/tf.math.add_80/Add"], "attr": {"T": {"type": "DT_FLOAT"}}}, {"name": "PartitionedCall/model_23/tf.math.multiply_188/Mul", "op": "Mul", "input": ["PartitionedCall/model_23/tf.math.add_80/Add", "PartitionedCall/model_23/tf.math.sigmoid_50/Sigmoid"], "attr": {"T": {"type": "DT_FLOAT"}}}, {"name": "PartitionedCall/model_23/tf.strided_slice_8/StridedSlice", "op": "StridedSlice", "input": ["PartitionedCall/model_23/tf.math.multiply_188/Mul", "2291", "2293", "PartitionedCall/model_23/tf.strided_slice_8/ones_like"], "attr": {"T": {"type": "DT_FLOAT"}, "ellipsis_mask": {"i": "0"}, "new_axis_mask": {"i": "0"}, "Index": {"type": "DT_INT64"}, "end_mask": {"i": "7"}, …
s": ["Qmlhc0FkZA=="]}}, "num_host_args": {"i": "0"}, "epsilon": {"f": 0.0}, "use_cudnn_on_gpu": {"b": true}, "num_args": {"i": "1"}, "strides": {"list": {"i": ["1", "1", "1", "1"]}}, "explicit_paddings": {"list": {}}, "data_format": {"s": "TkhXQw=="}, "T": {"type": "DT_FLOAT"}, "leakyrelu_alpha": {"f": 0.2}, "padding": {"s": "U0FNRQ=="}, "filter_format": {"s": "SFdJTw=="}}}, {"name": "PartitionedCall/model_23/tf.math.sigmoid_129/Sigmoid", "op": "Sigmoid", "input": ["PartitionedCall/model_23/tf.math.add_181/Add"], "attr": {"T": {"type": "DT_FLOAT"}}}, {"name": "PartitionedCall/model_23/tf.math.sigmoid_130/Sigmoid", "op": "Sigmoid", "input": ["PartitionedCall/model_23/tf.math.add_182/Add"], "attr": {"T": {"type": "DT_FLOAT"}}}, {"name": "PartitionedCall/model_23/tf.math.sigmoid_131/Sigmoid", "op": "Sigmoid", "input": ["PartitionedCall/model_23/tf.math.add_183/Add"], "attr": {"T": {"type": "DT_FLOAT"}}}, {"name": "PartitionedCall/model_23/tf.math.multiply_431/Mul", "op": "Mul", "input": ["PartitionedCall/model_23/tf.math.add_181/Add", "PartitionedCall/model_23/tf.math.sigmoid_129/Sigmoid"], "attr": {"T": {"type": "DT_FLOAT"}}}, {"name": "PartitionedCall/model_23/tf.math.multiply_434/Mul", "op": "Mul", "input": ["PartitionedCall/model_23/tf.math.add_182/Add", "PartitionedCall/model_23/tf.math.sigmoid_130/Sigmoid"], "attr": {"T": {"type": "DT_FLOAT"}}}, {"name": "PartitionedCall/model_23/tf.math.multiply_437/Mul", "op": "Mul", "input": ["PartitionedCall/model_23/tf.math.add_183/Add", "PartitionedCall/model_23/tf.math.sigmoid_131/Sigmoid"], "attr": {"T": {"type": "DT_FLOAT"}}}, {"name": "PartitionedCall/model_23/tf.math.add_184/Add", "op": "_FusedConv2D", "input": ["PartitionedCall/model_23/tf.math.multiply_431/Mul", "2679", "2687"], "device": "/device:CPU:0", "attr": {"padding": {"s": "U0FNRQ=="}, "T": {"type": "DT_FLOAT"}, "fused_ops": {"list": {"s": ["Qmlhc0FkZA=="]}}, "TArgs": {"list": {"type": ["DT_FLOAT"]}}, "num_args": {"i": "1"}, "strides": {"list": {"i": ["1", "1", "1", "1"]}}, "leakyrelu_alpha": {"f": 0.2}, "use_cudnn_on_gpu": {"b": true}, "epsilon": {"f": 0.0}, "data_format": {"s": "TkhXQw=="}, "filter_format": {"s": "SFdJTw=="}, "dilations": {"list": {"i": ["1", "1", "1", "1"]}}, "explicit_paddings": {"list": {}}, "num_host_args": {"i": "0"}}}, {"name": "PartitionedCall/model_23/tf.math.add_185/Add", "op": "_FusedConv2D", "input": ["PartitionedCall/model_23/tf.math.multiply_434/Mul", "2601", "2617"], "device": "/device:CPU:0", "attr": {"use_cudnn_on_gpu": {"b": true}, "data_format": {"s": "TkhXQw=="}, "num_args": {"i": "1"}, "epsilon": {"f": 0.0}, "explicit_paddings": {"list": {}}, "strides": {"list": {"i": ["1", "1", "1", "1"]}}, "T": {"type": "DT_FLOAT"}, "num_host_args": {"i": "0"}, "fused_ops": {"list": {"s": ["Qmlhc0FkZA=="]}}, "leakyrelu_alpha": {"f": 0.2}, "filter_format": {"s": "SFdJTw=="}, "dilations": {"list": {"i": ["1", "1", "1", "1"]}}, "padding": {"s": "U0FNRQ=="}, "TArgs": {"list": {"type": ["DT_FLOAT"]}}}}, {"name": "PartitionedCall/model_23/tf.math.add_186/Add", "op": "_FusedConv2D", "input": ["PartitionedCall/model_23/tf.math.multiply_437/Mul", "2599", "2615"], "device": "/device:CPU:0", "attr": {"strides": {"list": {"i": ["1", "1", "1", "1"]}}, "num_args": {"i": "1"}, "num_host_args": {"i": "0"}, "fused_ops": {"list": {"s": ["Qmlhc0FkZA=="]}}, "T": {"type": "DT_FLOAT"}, "data_format": {"s": "TkhXQw=="}, "explicit_paddings": {"list": {}}, "leakyrelu_alpha": {"f": 0.2}, "epsilon": {"f": 0.0}, "dilations": {"list": {"i": ["1", "1", "1", "1"]}}, "use_cudnn_on_gpu": {"b": true}, "padding": {"s": "U0FNRQ=="}, "filter_format": {"s": "SFdJTw=="}, "TArgs": {"list": {"type": ["DT_FLOAT"]}}}}, {"name": "PartitionedCall/model_23/tf.math.sigmoid_132/Sigmoid", "op": "Sigmoid", "input": ["PartitionedCall/model_23/tf.math.add_184/Add"], "attr": {"T": {"type": "DT_FLOAT"}}}, {"name": "PartitionedCall/model_23/tf.math.sigmoid_133/Sigmoid", "op": "Sigmoid", "input": ["PartitionedCall/model_23/tf.math.add_185/Add"], "attr": {"T": {"type": "DT_FLOAT"}}}, {"name": "PartitionedCall/model_23/tf.math.sigmoid_134/Sigmoid", "op": "Sigmoid", "input": ["PartitionedCall/model_23/tf.math.add_186/Add"], "attr": {"T": {"type": "DT_FLOAT"}}}, {"name": "PartitionedCall/model_23/tf.math.multiply_440/Mul", "op": "Mul", "input": ["PartitionedCall/model_23/tf.math.add_184/Add", "PartitionedCall/model_23/tf.math.sigmoid_132/Sigmoid"], "attr": {"T": {"type": "DT_FLOAT"}}}, {"name": "PartitionedCall/model_23/tf.math.multiply_443/Mul", "op": "Mul", "input": ["PartitionedCall/model_23/tf.math.add_185/Add", "PartitionedCall/model_23/tf.math.sigmoid_133/Sigmoid"], "attr": {"T": {"type": "DT_FLOAT"}}}, {"name": "PartitionedCall/model_23/tf.math.multiply_446/Mul", "op": "Mul", "input": ["PartitionedCall/model_23/tf.math.add_186/Add", "PartitionedCall/model_23/tf.math.sigmoid_134/Sigmoid"], "attr": {"T": {"type": "DT_FLOAT"}}}, {"name": "PartitionedCall/model_23/tf.math.add_187/Add", "op": "_FusedConv2D", "input": ["PartitionedCall/model_23/tf.math.multiply_440/Mul", "2697", "2705"], "device": "/device:CPU:0", "attr": {"T": {"type": "DT_FLOAT"}, "epsilon": {"f": 0.0}, "leakyrelu_alpha": {"f": 0.2}, "fused_ops": {"list": {"s": ["Qmlhc0FkZA=="]}}, "num_args": {"i": "1"}, "num_host_args": {"i": "0"}, "use_cudnn_on_gpu": {"b": true}, "dilations": {"list": {"i": ["1", "1", "1", "1"]}}, "filter_format": {"s": "SFdJTw=="}, "TArgs": {"list": {"type": ["DT_FLOAT"]}}, "strides": {"list": {"i": ["1", "1", "1", "1"]}}, "padding": {"s": "U0FNRQ=="}, "data_format": {"s": "TkhXQw=="}, "explicit_paddings": {"list": {}}}}, {"name": "PartitionedCall/model_23/tf.math.add_188/Add", "op": "_FusedConv2D", "input": ["PartitionedCall/model_23/tf.math.multiply_443/Mul", "2635", "2655"], "device": "/device:CPU:0", "attr": {"strides": {"list": {"i": ["1", "1", "1", "1"]}}, "data_format": {"s": "TkhXQw=="}, "T": {"type": "DT_FLOAT"}, "num_host_args": {"i": "0"}, "epsilon": {"f": 0.0}, "filter_format": {"s": "SFdJTw=="}, "padding": {"s": "U0FNRQ=="}, "fused_ops": {"list": {"s": ["Qmlhc0FkZA=="]}}, "dilations": {"list": {"i": ["1", "1", "1", "1"]}}, "TArgs": {"list": {"type": ["DT_FLOAT"]}}, "use_cudnn_on_gpu": {"b": true}, "explicit_paddings": {"list": {}}, "num_args": {"i": "1"}, "leakyrelu_alpha": {"f": 0.2}}}, {"name": "PartitionedCall/model_23/tf.math.add_189/Add", "op": "_FusedConv2D", "input": ["PartitionedCall/model_23/tf.math.multiply_446/Mul", "2633", "2657"], "device": "/device:CPU:0", "attr": {"padding": {"s": "U0FNRQ=="}, "filter_format": {"s": "SFdJTw=="}, "TArgs": {"list": {"type": ["DT_FLOAT"]}}, "dilations": {"list": {"i": ["1", "1", "1", "1"]}}, "fused_ops": {"list": {"s": ["Qmlhc0FkZA=="]}}, "leakyrelu_alpha": {"f": 0.2}, "strides": {"list": {"i": ["1", "1", "1", "1"]}}, "explicit_paddings": {"list": {}}, "num_args": {"i": "1"}, "T": {"type": "DT_FLOAT"}, "data_format": {"s": "TkhXQw=="}, "epsilon": {"f": 0.0}, "num_host_args": {"i": "0"}, "use_cudnn_on_gpu": {"b": true}}}, {"name": "PartitionedCall/model_23/tf.compat.v1.transpose_1182/transpose", "op": "Transpose", "input": ["PartitionedCall/model_23/tf.math.add_187/Add", "PartitionedCall/model_23/tf.compat.v1.transpose_1182/transpose/perm"], "attr": {"Tperm": {"type": "DT_INT32"}, "T": {"type": "DT_FLOAT"}}}, {"name": "PartitionedCall/model_23/tf.concat_598/concat", "op": "ConcatV2", "input": ["PartitionedCall/model_23/tf.math.add_188/Add", "PartitionedCall/model_23/tf.math.add_189/Add", "PartitionedCall/model_23/tf.concat_598/concat/axis"], "attr": {"T": {"type": "DT_FLOAT"}, "N": {"i": "2"}, "Tidx": {"type": "DT_INT32"}}}, {"name": "PartitionedCall/model_23/tf.reshape_6/Reshape", "op": "Reshape", "input": ["PartitionedCall/model_23/tf.compat.v1.transpose_1182/transpose", "PartitionedCall/model_23/tf.reshape_6/Reshape/shape"], "attr": {"Tshape": {"type": "DT_INT32"}, "T": {"type": "DT_FLOAT"}}}, {"name": "PartitionedCall/model_23/tf.compat.v1.transpose_1183/transpose", "op": "Transpose", "input": ["PartitionedCall/model_23/tf.concat_598/concat", "PartitionedCall/model_23/tf.compat.v1.transpose_1183/transpose/perm"], "attr": {"Tperm": {"type": "DT_INT32"}, "T": {"type": "DT_FLOAT"}}}, {"name": "PartitionedCall/model_23/tf.concat_599/concat", "op": "ConcatV2", "input": ["PartitionedCall/model_23/tf.reshape/Reshape", "PartitionedCall/model_23/tf.reshape_2/Reshape", "PartitionedCall/model_23/tf.reshape_4/Reshape", "PartitionedCall/model_23/tf.reshape_6/Reshape", "PartitionedCall/model_23/tf.concat_599/concat/axis"], "attr": {"Tidx": {"type": "DT_INT32"}, "T": {"type": "DT_FLOAT"}, "N": {"i": "4"}}}, {"name": "PartitionedCall/model_23/tf.reshape_7/Reshape", "op": "Reshape", "input": ["PartitionedCall/model_23/tf.compat.v1.transpose_1183/transpose", "PartitionedCall/model_23/tf.reshape_7/Reshape/shape"], "attr": {"Tshape": {"type": "DT_INT32"}, "T": {"type": "DT_FLOAT"}}}, {"name": "PartitionedCall/model_23/tf.reshape_8/Reshape", "op": "Reshape", "input": ["PartitionedCall/model_23/tf.concat_599/concat", "PartitionedCall/model_23/tf.reshape_8/Reshape/shape"], "attr": {"T": {"type": "DT_FLOAT"}, "Tshape": {"type": "DT_INT32"}}}, {"name": "PartitionedCall/model_23/tf.concat_600/concat", "op": "ConcatV2", "input": ["PartitionedCall/model_23/tf.reshape_1/Reshape", "PartitionedCall/model_23/tf.reshape_3/Reshape", "PartitionedCall/model_23/tf.reshape_5/Reshape", "PartitionedCall/model_23/tf.reshape_7/Reshape", "PartitionedCall/model_23/tf.concat_600/concat/axis"], "attr": {"Tidx": {"type": "DT_INT32"}, "T": {"type": "DT_FLOAT"}, "N": {"i": "4"}}}, {"name": "PartitionedCall/model_23/tf.strided_slice_24/StridedSlice", "op": "StridedSlice", "input": ["PartitionedCall/model_23/tf.reshape_8/Reshape", "2715", "2717", "PartitionedCall/model_23/tf.strided_slice_24/StridedSlice/strides"], "attr": {"new_axis_mask": {"i": "0"}, "begin_mask": {"i": "15"}, "end_mask": {"i": "11"}, "T": {"type": "DT_FLOAT"}, "ellipsis_mask": {"i": "0"}, "shrink_axis_mask": {"i": "0"}, "Index": {"type": "DT_INT64"}}}, {"name": "PartitionedCall/model_23/tf.strided_slice_25/StridedSlice", "op": "StridedSlice", "input": ["PartitionedCall/model_23/tf.reshape_8/Reshape", "2729", "2731", "PartitionedCall/model_23/tf.strided_slice_25/StridedSlice/strides"], "attr": {"T": {"type": "DT_FLOAT"}, "ellipsis_mask": {"i": "0"}, "begin_mask": {"i": "11"}, "Index": {"type": "DT_INT64"}, "new_axis_mask": {"i": "0"}, "end_mask": {"i": "11"}, "shrink_axis_mask": {"i": "0"}}}, {"name": "PartitionedCall/model_23/tf.strided_slice_23/StridedSlice", "op": "StridedSlice", "input": ["PartitionedCall/model_23/tf.concat_600/concat", "2741", "2743", "PartitionedCall/model_23/tf.strided_slice_23/StridedSlice/strides"], "attr": {"begin_mask": {"i": "5"}, "new_axis_mask": {"i": "0"}, "end_mask": {"i": "5"}, "shrink_axis_mask": {"i": "0"}, "ellipsis_mask": {"i": "0"}, "Index": {"type": "DT_INT64"}, "T": {"type": "DT_FLOAT"}}}, {"name": "PartitionedCall/model_23/tf.strided_slice_22/StridedSlice", "op": "StridedSlice", "input": ["PartitionedCall/model_23/tf.concat_600/concat", "2693", "2695", "PartitionedCall/model_23/tf.strided_slice_22/StridedSlice/strides"], "attr": {"Index": {"type": "DT_INT64"}, "end_mask": {"i": "5"}, "new_axis_mask": {"i": "0"}, "T": {"type": "DT_FLOAT"}, "begin_mask": {"i": "7"}, "shrink_axis_mask": {"i": "0"}, "ellipsis_mask": {"i": "0"}}}, {"name": "PartitionedCall/model_23/tf.math.multiply_447/Mul", "op": "Mul", "input": ["PartitionedCall/model_23/tf.strided_slice_24/StridedSlice", "2719"], "attr": {"T": {"type": "DT_FLOAT"}}}, {"name": "PartitionedCall/model_23/tf.math.sigmoid_136/Sigmoid", "op": "Sigmoid", "input": ["PartitionedCall/model_23/tf.strided_slice_25/StridedSlice"], "attr": {"T": {"type": "DT_FLOAT"}}}, {"name": "PartitionedCall/model_23/tf.math.sigmoid_135/Sigmoid", "op": "Sigmoid", "input": ["PartitionedCall/model_23/tf.strided_slice_23/StridedSlice"], "attr": {"T": {"type": "DT_FLOAT"}}}, {"name": "PartitionedCall/model_23/tf.reshape_9/Reshape", "op": "Reshape", "input": ["PartitionedCall/model_23/tf.strided_slice_22/StridedSlice", "PartitionedCall/model_23/tf.reshape_9/Reshape/shape"], "attr": {"Tshape": {"type": "DT_INT32"}, "T": {"type": "DT_FLOAT"}}}, {"name": "PartitionedCall/model_23/tf.math.add_190/Add", "op": "AddV2", "input": ["PartitionedCall/model_23/tf.math.multiply_447/Mul", "2733"], "attr": {"T": {"type": "DT_FLOAT"}}}, {"name": "PartitionedCall/model_23/tf.compat.v1.transpose_1186/transpose", "op": "Transpose", "input": ["PartitionedCall/model_23/tf.reshape_9/Reshape", "PartitionedCall/model_23/tf.compat.v1.transpose_1186/transpose/perm"], "attr": {"Tperm": {"type": "DT_INT32"}, "T": {"type": "DT_FLOAT"}}}, {"name": "PartitionedCall/model_23/tf.math.multiply_448/Mul", "op": "Mul", "input": ["PartitionedCall/model_23/tf.math.add_190/Add", "PartitionedCall/model_23/tf.math.multiply_448/Mul/y"], "attr": {"T": {"type": "DT_FLOAT"}}}, {"name": "PartitionedCall/model_23/tf.compat.v1.transpose_1187/transpose", "op": "Transpose", "input": ["PartitionedCall/model_23/tf.compat.v1.transpose_1186/transpose", "PartitionedCall/model_23/tf.compat.v1.transpose_1187/transpose/perm"], "attr": {"Tperm": {"type": "DT_INT32"}, "T": {"type": "DT_FLOAT"}}}, {"name": "PartitionedCall/model_23/tf.concat_601/concat", "op": "ConcatV2", "input": ["PartitionedCall/model_23/tf.math.multiply_448/Mul", "PartitionedCall/model_23/tf.math.sigmoid_136/Sigmoid", "PartitionedCall/model_23/tf.concat_601/concat/axis"], "attr": {"N": {"i": "2"}, "T": {"type": "DT_FLOAT"}, "Tidx": {"type": "DT_INT32"}}}, {"name": "PartitionedCall/model_23/tf.nn.softmax//model.30/dfl/Softmax", "op": "Softmax", "input": ["PartitionedCall/model_23/tf.compat.v1.transpose_1187/transpose"], "attr": {"T": {"type": "DT_FLOAT"}}}, {"name": "PartitionedCall/model_23/tf.reshape_11/Reshape", "op": "Reshape", "input": ["PartitionedCall/model_23/tf.concat_601/concat", "PartitionedCall/model_23/tf.reshape_11/Reshape/shape"], "attr": {"T": {"type": "DT_FLOAT"}, "Tshape": {"type": "DT_INT32"}}}, {"name": "PartitionedCall/model_23/tf.nn.convolution_169/convolution", "op": "Conv2D", "input": ["PartitionedCall/model_23/tf.nn.softmax//model.30/dfl/Softmax", "2713"], "device": "/device:CPU:0", "attr": {"use_cudnn_on_gpu": {"b": true}, "strides": {"list": {"i": ["1", "1", "1", "1"]}}, "dilations": {"list": {"i": ["1", "1", "1", "1"]}}, "data_format": {"s": "TkhXQw=="}, "T": {"type": "DT_FLOAT"}, "explicit_paddings": {"list": {}}, "padding": {"s": "U0FNRQ=="}}}, {"name": "PartitionedCall/model_23/tf.compat.v1.transpose_1190/transpose", "op": "Transpose", "input": ["PartitionedCall/model_23/tf.nn.convolution_169/convolution", "PartitionedCall/model_23/tf.compat.v1.transpose_1190/transpose/perm"], "attr": {"T": {"type": "DT_FLOAT"}, "Tperm": {"type": "DT_INT32"}}}, {"name": "PartitionedCall/model_23/tf.reshape_10/Reshape", "op": "Reshape", "input": ["PartitionedCall/model_23/tf.compat.v1.transpose_1190/transpose", "PartitionedCall/model_23/tf.reshape_10/Reshape/shape"], "attr": {"T": {"type": "DT_FLOAT"}, "Tshape": {"type": "DT_INT32"}}}, {"name": "PartitionedCall/model_23/tf.strided_slice_27/StridedSlice", "op": "StridedSlice", "input": ["PartitionedCall/model_23/tf.reshape_10/Reshape", "2721", "2723", "PartitionedCall/model_23/tf.strided_slice_27/ones_like"], "attr": {"begin_mask": {"i": "5"}, "new_axis_mask": {"i": "0"}, "ellipsis_mask": {"i": "0"}, "end_mask": {"i": "5"}, "T": {"type": "DT_FLOAT"}, "shrink_axis_mask": {"i": "0"}, "Index": {"type": "DT_INT64"}}}, {"name": "PartitionedCall/model_23/tf.strided_slice_26/StridedSlice", "op": "StridedSlice", "input": ["PartitionedCall/model_23/tf.reshape_10/Reshape", "2725", "2727", "PartitionedCall/model_23/tf.strided_slice_26/ones_like"], "attr": {"Index": {"type": "DT_INT64"}, "new_axis_mask": {"i": "0"}, "shrink_axis_mask": {"i": "0"}, "end_mask": {"i": "5"}, "begin_mask": {"i": "7"}, "ellipsis_mask": {"i": "0"}, "T": {"type": "DT_FLOAT"}}}, {"name": "PartitionedCall/model_23/tf.math.add_191/Add", "op": "AddV2", "input": ["2735", "PartitionedCall/model_23/tf.strided_slice_27/StridedSlice"], "attr": {"T": {"type": "DT_FLOAT"}}}, {"name": "PartitionedCall/model_23/tf.math.subtract/Sub", "op": "Sub", "input": ["2737", "PartitionedCall/model_23/tf.strided_slice_26/StridedSlice"], "attr": {"T": {"type": "DT_FLOAT"}}}, {"name": "PartitionedCall/model_23/tf.math.add_192/Add", "op": "AddV2", "input": ["PartitionedCall/model_23/tf.math.subtract/Sub", "PartitionedCall/model_23/tf.math.add_191/Add"], "attr": {"T": {"type": "DT_FLOAT"}}}, {"name": "PartitionedCall/model_23/tf.math.subtract_1/Sub", "op": "Sub", "input": ["PartitionedCall/model_23/tf.math.add_191/Add", "PartitionedCall/model_23/tf.math.subtract/Sub"], "attr": {"T": {"type": "DT_FLOAT"}}}, {"name": "PartitionedCall/model_23/tf.math.divide/truediv", "op": "Mul", "input": ["PartitionedCall/model_23/tf.math.add_192/Add", "ConstantFolding/PartitionedCall/model_23/tf.math.divide/truediv_recip"], "attr": {"T": {"type": "DT_FLOAT"}}}, {"name": "PartitionedCall/model_23/tf.concat_602/concat", "op": "ConcatV2", "input": ["PartitionedCall/model_23/tf.math.divide/truediv", "PartitionedCall/model_23/tf.math.subtract_1/Sub", "PartitionedCall/model_23/tf.concat_602/concat/axis"], "attr": {"Tidx": {"type": "DT_INT32"}, "T": {"type": "DT_FLOAT"}, "N": {"i": "2"}}}, {"name": "PartitionedCall/model_23/tf.math.multiply_461/Mul", "op": "Mul", "input": ["PartitionedCall/model_23/tf.concat_602/concat", "PartitionedCall/model_23/tf.math.multiply_461/Mul/y"], "attr": {"T": {"type": "DT_FLOAT"}}}, {"name": "PartitionedCall/model_23/output0/concat", "op": "ConcatV2", "input": ["PartitionedCall/model_23/tf.math.multiply_461/Mul", "PartitionedCall/model_23/tf.math.sigmoid_135/Sigmoid", "PartitionedCall/model_23/tf.reshape_11/Reshape", "PartitionedCall/model_23/output0/concat/axis"], "attr": {"N": {"i": "3"}, "Tidx": {"type": "DT_INT32"}, "T": {"type": "DT_FLOAT"}}}, {"name": "Identity", "op": "Identity", "input": ["PartitionedCall/model_23/output0/concat"], "attr": {"T": {"type": "DT_FLOAT"}}}], "library": {}, "versions": {"producer": 1482}}, "weightsManifest": [{"paths": ["group1-shard1of95.bin", "group1-shard2of95.bin", "group1-shard3of95.bin", "group1-shard4of95.bin", "group1-shard5of95.bin", "group1-shard6of95.bin", "group1-shard7of95.bin", "group1-shard8of95.bin", "group1-shard9of95.bin", "group1-shard10of95.bin", "group1-shard11of95.bin", "group1-shard12of95.bin", "group1-shard13of95.bin", "group1-shard14of95.bin", "group1-shard15of95.bin", "group1-shard16of95.bin", "group1-shard17of95.bin", "group1-shard18of95.bin", "group1-shard19of95.bin", "group1-shard20of95.bin", "group1-shard21of95.bin", "group1-shard22of95.bin", "group1-shard23of95.bin", "group1-shard24of95.bin", "group1-shard25of95.bin", "group1-shard26of95.bin", "group1-shard27of95.bin", "group1-shard28of95.bin", "group1-shard29of95.bin", "group1-shard30of95.bin", "group1-shard31of95.bin", "group1-shard32of95.bin", "group1-shard33of95.bin", "group1-shard34of95.bin", "group1-shard35of95.bin", "group1-shard36of95.bin", "group1-shard37of95.bin", "group1-shard38of95.bin", "group1-shard39of95.bin", "group1-shard40of95.bin", "group1-shard41of95.bin", "group1-shard42of95.bin", "group1-shard43of95.bin", "group1-shard44of95.bin", "group1-shard45of95.bin", "group1-shard46of95.bin", "group1-shard47of95.bin", "group1-shard48of95.bin", "group1-shard49of95.bin", "group1-shard50of95.bin", "group1-shard51of95.bin", "group1-shard52of95.bin", "group1-shard53of95.bin", "group1-shard54of95.bin", "group1-shard55of95.bin", "group1-shard56of95.bin", "group1-shard57of95.bin", "group1-shard58of95.bin", "group1-shard59of95.bin", "group1-shard60of95.bin", "group1-shard61of95.bin", "group1-shard62of95.bin", "group1-shard63of95.bin", "group1-shard64of95.bin", "group1-shard65of95.bin", "group1-shard66of95.bin", "group1-shard67of95.bin", "group1-shard68of95.bin", "group1-shard69of95.bin", "group1-shard70of95.bin", "group1-shard71of95.bin", "group1-shard72of95.bin", "group1-shard73of95.bin", "group1-shard74of95.bin", "group1-shard75of95.bin", "group1-shard76of95.bin", "group1-shard77of95.bin", "group1-shard78of95.bin", "group1-shard79of95.bin", "group1-shard80of95.bin", "group1-shard81of95.bin", "group1-shard82of95.bin", "group1-shard83of95.bin", "group1-shard84of95.bin", "group1-shard85of95.bin", "group1-shard86of95.bin", "group1-shard87of95.bin", "group1-shard88of95.bin", "group1-shard89of95.bin", "group1-shard90of95.bin", "group1-shard91of95.bin", "group1-shard92of95.bin", "group1-shard93of95.bin", "group1-shard94of95.bin", "group1-shard95of95.bin"], "weights": [{"name": "ConstantFolding/PartitionedCall/model_23/tf.math.divide/truediv_recip", "shape": [1, 1, 1], "dtype": "float32"}, {"name": "2735", "shape": [1, 2, 34000], "dtype": "float32"}, {"name": "2721", "shape": [3], "dtype": "int32"}, {"name": "2723", "shape": [3], "dtype": "int32"}, {"name": "PartitionedCall/model_23/tf.strided_slice_27/ones_like", "shape": [3], "dtype": "int32"}, {"name": "2737", "shape": [1, 2, 34000], "dtype": "float32"}, {"name": "2693", "shape": [3], "dtype": "int32"}, {"name": "2695", "shape": [3], "dtype": "int32"}, {"name": "PartitionedCall/model_23/tf.strided_slice_22/StridedSlice/strides", "shape": [3], "dtype": "int32"}, {"name": "PartitionedCall/model_23/tf.reshape_9/Reshape/shape", "shape": [4], "dtype": "int32"}, {"name": "PartitionedCall/model_23/tf.compat.v1.transpose_1186/transpose/perm", "shape": [4], "dtype": "int32"}, {"name": "PartitionedCall/model_23/tf.compat.v1.transpose_1187/transpose/perm", "shape": [4], "dtype": "int32"}, {"name": "2713", "shape": [1, 1, 16, 1], "dtype": "float32"}, {"name": "PartitionedCall/model_23/tf.compat.v1.transpose_1190/transpose/perm", "shape": [4], "dtype": "int32"}, {"name": "PartitionedCall/model_23/tf.reshape_10/Reshape/shape", "shape": [3], "dtype": "int32"}, {"name": "2725", "shape": [3], "dtype": "int32"}, {"name": "2727", "shape": [3], "dtype": "int32"}, {"name": "PartitionedCall/model_23/tf.strided_slice_26/ones_like", "shape": [3], "dtype": "int32"}, {"name": "PartitionedCall/model_23/tf.concat_602/concat/axis", "shape": [], "dtype": "int32"}, {"name": "PartitionedCall/model_23/tf.math.multiply_461/Mul/y", "shape": [1, 1, 34000], "dtype": "float32"}, {"name": "2581", "shape": [3, 3, 320, 80], "dtype": "float32"}, {"name": "2595", "shape": [80], "dtype": "float32"}, {"name": "2613", "shape": [3, 3, 80, 80], "dtype": "float32"}, {"name": "2627", "shape": [80], "dtype": "float32"}, {"name": "2647", "shape": [1, 1, 80, 64], "dtype": "float32"}, {"name": "2667", "shape": [64], "dtype": "float32"}, {"name": "2579", "shape": [3, 3, 320, 320], "dtype": "float32"}, {"name": "2593", "shape": [320], "dtype": "float32"}, {"name": "2611", "shape": [3, 3, 320, 320], "dtype": "float32"}, {"name": "2625", "shape": [320], "dtype": "float32"}, {"name": "2645", "shape": [1, 1, 320, 1], "dtype": "float32"}, {"name": "2669", "shape": [1], "dtype": "float32"}, {"name": "PartitionedCall/model_23/tf.concat_590/concat/axis", "shape": [], "dtype": "int32"}, {"name": "PartitionedCall/model_23/tf.compat.v1.transpose_1173/transpose/perm", "shape": [4], "dtype": "int32"}, {"name": "PartitionedCall/model_23/tf.reshape_1/Reshape/shape", "shape": [3], "dtype": "int32"}, {"name": "2565", "shape": [3, 3, 640, 80], "dtype": "float32"}, {"name": "2567", "shape": [80], "dtype": "float32"}, {"name": "2597", "shape": [3, 3, 80, 80], "dtype": "float32"}, {"name": "2609", "shape": [80], "dtype": "float32"}, {"name": "2643", "shape": [1, 1, 80, 64], "dtype": "float32"}, {"name": "2663", "shape": [64], "dtype": "float32"}, {"name": "2577", "shape": [3, 3, 640, 320], "dtype": "float32"}, {"name": "2591", "shape": [320], "dtype": "float32"}, {"name": "2607", "shape": [3, 3, 320, 320], "dtype": "float32"}, {"name": "2623", "shape": [320], "dtype": "float32"}, {"name": "2641", "shape": [1, 1, 320, 1], "dtype": "float32"}, {"name": "2665", "shape": [1], "dtype": "float32"}, {"name": "PartitionedCall/model_23/tf.concat_593/concat/axis", "shape": [], "dtype": "int32"}, {"name": "PartitionedCall/model_23/tf.compat.v1.transpose_1179/transpose/perm", "shape": [4], "dtype": "int32"}, {"name": "PartitionedCall/model_23/tf.reshape_3/Reshape/shape", "shape": [3], "dtype": "int32"}, {"name": "2575", "shape": [3, 3, 640, 80], "dtype": "float32"}, {"name": "2589", "shape": [80], "dtype": "float32"}, {"name": "2605", "shape": [3, 3, 80, 80], "dtype": "float32"}, {"name": "2621", "shape": [80], "dtype": "float32"}, {"name": "2639", "shape": [1, 1, 80, 64], "dtype": "float32"}, {"name": "2659", "shape": [64], "dtype": "float32"}, {"name": "2573", "shape": [3, 3, 640, 320], "dtype": "float32"}, {"name": "2587", "shape": [320], "dtype": "float32"}, {"name": "2603", "shape": [3, 3, 320, 320], "dtype": "float32"}, {"name": "2619", "shape": [320], "dtype": "float32"}, {"name": "2637", "shape": [1, 1, 320, 1], "dtype": "float32"}, {"name": "2661", "shape": [1], "dtype": "float32"}, {"name": "PartitionedCall/model_23/tf.concat_596/concat/axis", "shape": [], "dtype": "int32"}, {"name": "PartitionedCall/model_23/tf.compat.v1.transpose_1181/transpose/perm", "shape": [4], "dtype": "int32"}, {"name": "PartitionedCall/model_23/tf.reshape_5/Reshape/shape", "shape": [3], "dtype": "int32"}, {"name": "2571", "shape": [3, 3, 640, 80], "dtype": "float32"}, {"name": "2585", "shape": [80], "dtype": "float32"}, {"name": "2601", "shape": [3, 3, 80, 80], "dtype": "float32"}, {"name": "2617", "shape": [80], "dtype": "float32"}, {"name": "2635", "shape": [1, 1, 80, 64], "dtype": "float32"}, {"name": "2655", "shape": [64], "dtype": "float32"}, {"name": "2569", "shape": [3, 3, 640, 320], "dtype": "float32"}, {"name": "2583", "shape": [320], "dtype": "float32"}, {"name": "2599", "shape": [3, 3, 320, 320], "dtype": "float32"}, {"name": "2615", "shape": [320], "dtype": "float32"}, {"name": "2633", "shape": [1, 1, 320, 1], "dtype": "float32"}, {"name": "2657", "shape": [1], "dtype": "float32"}, {"name": "PartitionedCall/model_23/tf.concat_598/concat/axis", "shape": [], "dtype": "int32"}, {"name": "PartitionedCall/model_23/tf.compat.v1.transpose_1183/transpose/perm", "shape": [4], "dtype": "int32"}, {"name": "PartitionedCall/model_23/tf.reshape_7/Reshape/shape", "shape": [3], "dtype": "int32"}, {"name": "PartitionedCall/model_23/tf.concat_600/concat/axis", "shape": [], "dtype": "int32"}, {"name": "2741", "shape": [3], "dtype": "int32"}, {"name": "2743", "shape": [3], "dtype": "int32"}, {"name": "PartitionedCall/model_23/tf.strided_slice_23/StridedSlice/strides", "shape": [3], "dtype": "int32"}, {"name": "2715", "shape": [4], "dtype": "int32"}, {"name": "2717", "shape": [4], "dtype": "int32"}, {"name": "PartitionedCall/model_23/tf.strided_slice_24/StridedSlice/strides", "shape": [4], "dtype": "int32"}, {"name": "2719", "shape": [1, 1, 1, 1], "dtype": "float32"}, {"name": "2733", "shape": [1, 1, 2, 34000], "dtype": "float32"}, {"name": "PartitionedCall/model_23/tf.math.multiply_448/Mul/y", "shape": [1, 1, 1, 34000], "dtype": "float32"}, {"name": "2653", "shape": [3, 3, 320, 80], "dtype": "float32"}, {"name": "2675", "shape": [80], "dtype": "float32"}, {"name": "2685", "shape": [3, 3, 80, 80], "dtype": "float32"}, {"name": "2691", "shape": [80], "dtype": "float32"}, {"name": "2703", "shape": [1, 1, 80, 51], "dtype": "float32"}, {"name": "2711", "shape": [51], "dtype": "float32"}, {"name": "PartitionedCall/model_23/tf.compat.v1.transpose_1172/transpose/perm", "shape": [4], "dtype": "int32"}, {"name": "PartitionedCall/model_23/tf.reshape/Reshape/shape", "shape": [3], "dtype": "int32"}, {"name": "2629", "shape": [3, 3, 640, 80], "dtype": "float32"}, {"name": "2631", "shape": [80], "dtype": "float32"}, {"name": "2677", "shape": [3, 3, 80, 80], "dtype": "float32"}, {"name": "2683", "shape": [80], "dtype": "float32"}, {"name": "2701", "shape": [1, 1, 80, 51], "dtype": "float32"}, {"name": "2709", "shape": [51], "dtype": "float32"}, {"name": "PartitionedCall/model_23/tf.compat.v1.transpose_1178/transpose/perm", "shape": [4], "dtype": "int32"}, {"name": "PartitionedCall/model_23/tf.reshape_2/Reshape/shape", "shape": [3], "dtype": "int32"}, {"name": "2651", "shape": [3, 3, 640, 80], "dtype": "float32"}, {"name": "2673", "shape": [80], "dtype": "float32"}, {"name": "2681", "shape": [3, 3, 80, 80], "dtype": "float32"}, {"name": "2689", "shape": [80], "dtype": "float32"}, {"name": "2699", "shape": [1, 1, 80, 51], "dtype": "float32"}, {"name": "2707", "shape": [51], "dtype": "float32"}, {"name": "PartitionedCall/model_23/tf.compat.v1.transpose_1180/transpose/perm", "shape": [4], "dtype": "int32"}, {"name": "PartitionedCall/model_23/tf.reshape_4/Reshape/shape", "shape": [3], "dtype": "int32"}, {"name": "2529", "shape": [4], "dtype": "int32"}, {"name": "2531", "shape": [4], "dtype": "int32"}, {"name": "PartitionedCall/model_23/tf.strided_slice_20/ones_like", "shape": [4], "dtype": "int32"}, {"name": "2533", "shape": [3, 3, 320, 320], "dtype": "float32"}, {"name": "2535", "shape": [320], "dtype": "float32"}, {"name": "2537", "shape": [3, 3, 320, 320], "dtype": "float32"}, {"name": "2539", "shape": [320], "dtype": "float32"}, {"name": "2541", "shape": [3, 3, 320, 320], "dtype": "float32"}, {"name": "2543", "shape": [320], "dtype": "float32"}, {"name": "2545", "shape": [3, 3, 320, 320], "dtype": "float32"}, {"name": "2547", "shape": [320], "dtype": "float32"}, {"name": "2549", "shape": [3, 3, 320, 320], "dtype": "float32"}, {"name": "2551", "shape": [320], "dtype": "float32"}, {"name": "2553", "shape": [3, 3, 320, 320], "dtype": "float32"}, {"name": "2555", "shape": [320], "dtype": "float32"}, {"name": "2483", "shape": [4], "dtype": "int32"}, {"name": "2485", "shape": [4], "dtype": "int32"}, {"name": "PartitionedCall/model_23/tf.strided_slice_18/ones_like", "shape": [4], "dtype": "int32"}, {"name": "2487", "shape": [3, 3, 320, 320], "dtype": "float32"}, {"name": "2489", "shape": [320], "dtype": "float32"}, {"name": "2491", "shape": [3, 3, 320, 320], "dtype": "float32"}, {"name": "2493", "shape": [320], "dtype": "float32"}, {"name": "2495", "shape": [3, 3, 320, 320], "dtype": "float32"}, {"name": "2497", "shape": [320], "dtype": "float32"}, {"name": "2499", "shape": [3, 3, 320, 320], "dtype": "float32"}, {"name": "2501", "shape": [320], "dtype": "float32"}, {"name": "2503", "shape": [3, 3, 320, 320], "dtype": "float32"}, {"name": "2505", "shape": [320], "dtype": "float32"}, {"name": "2507", "shape": [3, 3, 320, 320], "dtype": "float32"}, {"name": "2509", "shape": [320], "dtype": "float32"}, {"name": "2437", "shape": [4], "dtype": "int32"}, {"name": "2439", "shape": [4], "dtype": "int32"}, {"name": "PartitionedCall/model_23/tf.strided_slice_16/ones_like", "shape": [4], "dtype": "int32"}, {"name": "2441", "shape": [3, 3, 320, 320], "dtype": "float32"}, {"name": "2443", "shape": [320], "dtype": "float32"}, {"name": "2445", "shape": [3, 3, 320, 320], "dtype": "float32"}, {"name": "2447", "shape": [320], "dtype": "float32"}, {"name": "2449", "shape": [3, 3, 320, 320], "dtype": "float32"}, {"name": "2451", "shape": [320], "dtype": "float32"}, {"name": "2453", "shape": [3, 3, 320, 320], "dtype": "float32"}, {"name": "2455", "shape": [320], "dtype": "float32"}, {"name": "2457", "shape": [3, 3, 320, 320], "dtype": "float32"}, {"name": "2459", "shape": [320], "dtype": "float32"}, {"name": "2461", "shape": [3, 3, 320, 320], "dtype": "float32"}, {"name": "2463", "shape": [320], "dtype": "float32"}, {"name": "2391", "shape": [4], "dtype": "int32"}, {"name": "2393", "shape": [4], "dtype": "int32"}, {"name": "PartitionedCall/model_23/tf.strided_slice_14/ones_like", "shape": [4], "dtype": "int32"}, {"name": "2395", "shape": [3, 3, 160, 160], "dtype": "float32"}, {"name": "2397", "shape": [160], "dtype": "float32"}, {"name": "2399", "shape": [3, 3, 160, 160], "dtype": "float32"}, {"name": "2401", "shape": [160], "dtype": "float32"}, {"name": "2403", "shape": [3, 3, 160, 160], "dtype": "float32"}, {"name": "2405", "shape": [160], "dtype": "float32"}, {"name": "2407", "shape": [3, 3, 160, 160], "dtype": "float32"}, {"name": "2409", "shape": [160], "dtype": "float32"}, {"name": "2411", "shape": [3, 3, 160, 160], "dtype": "float32"}, {"name": "2413", "shape": [160], "dtype": "float32"}, {"name": "2415", "shape": [3, 3, 160, 160], "dtype": "float32"}, {"name": "2417", "shape": [160], "dtype": "float32"}, {"name": "PartitionedCall/model_23/lambda_2//model.18/Resize/size", "shape": [2], "dtype": "int32"}, {"name": "PartitionedCall/model_23/tf.concat_10/concat/axis", "shape": [], "dtype": "int32"}, {"name": "2387", "shape": [1, 1, 960, 320], "dtype": "float32"}, {"name": "2389", "shape": [320], "dtype": "float32"}, {"name": "2419", "shape": [4], "dtype": "int32"}, {"name": "2421", "shape": [4], "dtype": "int32"}, {"name": "PartitionedCall/model_23/tf.strided_slice_15/ones_like", "shape": [4], "dtype": "int32"}, {"name": "PartitionedCall/model_23/tf.concat_588/concat/axis", "shape": [], "dtype": "int32"}, {"name": "2423", "shape": [1, 1, 320, 320], "dtype": "float32"}, {"name": "2425", "shape": [320], "dtype": "float32"}, {"name": "2427", "shape": [4, 2], "dtype": "int32"}, {"name": "2429", "shape": [3, 3, 320, 320], "dtype": "float32"}, {"name": "2431", "shape": [320], "dtype": "float32"}, {"name": "2351", "shape": [4], "dtype": "int32"}, {"name": "2353", "shape": [4], "dtype": "int32"}, {"name": "PartitionedCall/model_23/tf.strided_slice_12/ones_like", "shape": [4], "dtype": "int32"}, {"name": "2355", "shape": [3, 3, 320, 320], "dtype": "float32"}, {"name": "2357", "shape": [320], "dtype": "float32"}, {"name": "2359", "shape": [3, 3, 320, 320], "dtype": "float32"}, {"name": "2361", "shape": [320], "dtype": "float32"}, {"name": "2363", "shape": [3, 3, 320, 320], "dtype": "float32"}, {"name": "2365", "shape": [320], "dtype": "float32"}, {"name": "2367", "shape": [3, 3, 320, 320], "dtype": "float32"}, {"name": "2369", "shape": [320], "dtype": "float32"}, {"name": "2371", "shape": [3, 3, 320, 320], "dtype": "float32"}, {"name": "2373", "shape": [320], "dtype": "float32"}, {"name": "2375", "shape": [3, 3, 320, 320], "dtype": "float32"}, {"name": "2377", "shape": [320], "dtype": "float32"}, {"name": "PartitionedCall/model_23/lambda_1//model.15/Resize/size", "shape": [2], "dtype": "int32"}, {"name": "PartitionedCall/model_23/tf.concat_8/concat/axis", "shape": [], "dtype": "int32"}, {"name": "2347", "shape": [1, 1, 1280, 640], "dtype": "float32"}, {"name": "2349", "shape": [640], "dtype": "float32"}, {"name": "2379", "shape": [4], "dtype": "int32"}, {"name": "2381", "shape": [4], "dtype": "int32"}, {"name": "PartitionedCall/model_23/tf.strided_slice_13/ones_like", "shape": [4], "dtype": "int32"}, {"name": "PartitionedCall/model_23/tf.concat_9/concat/axis", "shape": [], "dtype": "int32"}, {"name": "2383", "shape": [1, 1, 640, 640], "dtype": "float32"}, {"name": "2385", "shape": [640], "dtype": "float32"}, {"name": "PartitionedCall/model_23/tf.concat_589/concat/axis", "shape": [], "dtype": "int32"}, {"name": "2433", "shape": [1, 1, 960, 640], "dtype": "float32"}, {"name": "2435", "shape": [640], "dtype": "float32"}, {"name": "2465", "shape": [4], "dtype": "int32"}, {"name": "2467", "shape": [4], "dtype": "int32"}, {"name": "PartitionedCall/model_23/tf.strided_slice_17/ones_like", "shape": [4], "dtype": "int32"}, {"name": "PartitionedCall/model_23/tf.concat_591/concat/axis", "shape": [], "dtype": "int32"}, {"name": "2469", "shape": [1, 1, 640, 640], "dtype": "float32"}, {"name": "2471", "shape": [640], "dtype": "float32"}, {"name": "2473", "shape": [4, 2], "dtype": "int32"}, {"name": "2475", "shape": [3, 3, 640, 640], "dtype": "float32"}, {"name": "2477", "shape": [640], "dtype": "float32"}, {"name": "2311", "shape": [4], "dtype": "int32"}, {"name": "2313", "shape": [4], "dtype": "int32"}, {"name": "PartitionedCall/model_23/tf.strided_slice_10/ones_like", "shape": [4], "dtype": "int32"}, {"name": "2315", "shape": [3, 3, 320, 320], "dtype": "float32"}, {"name": "2317", "shape": [320], "dtype": "float32"}, {"name": "2319", "shape": [3, 3, 320, 320], "dtype": "float32"}, {"name": "2321", "shape": [320], "dtype": "float32"}, {"name": "2323", "shape": [3, 3, 320, 320], "dtype": "float32"}, {"name": "2325", "shape": [320], "dtype": "float32"}, {"name": "2327", "shape": [3, 3, 320, 320], "dtype": "float32"}, {"name": "2329", "shape": [320], "dtype": "float32"}, {"name": "2331", "shape": [3, 3, 320, 320], "dtype": "float32"}, {"name": "2333", "shape": [320], "dtype": "float32"}, {"name": "2335", "shape": [3, 3, 320, 320], "dtype": "float32"}, {"name": "2337", "shape": [320], "dtype": "float32"}, {"name": "PartitionedCall/model_23/lambda//model.12/Resize/size", "shape": [2], "dtype": "int32"}, {"name": "PartitionedCall/model_23/tf.concat_6/concat/axis", "shape": [], "dtype": "int32"}, {"name": "2307", "shape": [1, 1, 1280, 640], "dtype": "float32"}, {"name": "2309", "shape": [640], "dtype": "float32"}, {"name": "2339", "shape": [4], "dtype": "int32"}, {"name": "2341", "shape": [4], "dtype": "int32"}, {"name": "PartitionedCall/model_23/tf.strided_slice_11/ones_like", "shape": [4], "dtype": "int32"}, {"name": "PartitionedCall/model_23/tf.concat_7/concat/axis", "shape": [], "dtype": "int32"}, {"name": "2343", "shape": [1, 1, 640, 640], "dtype": "float32"}, {"name": "2345", "shape": [640], "dtype": "float32"}, {"name": "PartitionedCall/model_23/tf.concat_592/concat/axis", "shape": [], "dtype": "int32"}, {"name": "2479", "shape": [1, 1, 1280, 640], "dtype": "float32"}, {"name": "2481", "shape": [640], "dtype": "float32"}, {"name": "2511", "shape": [4], "dtype": "int32"}, {"name": "2513", "shape": [4], "dtype": "int32"}, {"name": "PartitionedCall/model_23/tf.strided_slice_19/ones_like", "shape": [4], "dtype": "int32"}, {"name": "PartitionedCall/model_23/tf.concat_594/concat/axis", "shape": [], "dtype": "int32"}, {"name": "2515", "shape": [1, 1, 640, 640], "dtype": "float32"}, {"name": "2517", "shape": [640], "dtype": "float32"}, {"name": "2519", "shape": [4, 2], "dtype": "int32"}, {"name": "2521", "shape": [3, 3, 640, 640], "dtype": "float32"}, {"name": "2523", "shape": [640], "dtype": "float32"}, {"name": "2291", "shape": [4], "dtype": "int32"}, {"name": "2293", "shape": [4], "dtype": "int32"}, {"name": "PartitionedCall/model_23/tf.strided_slice_8/ones_like", "shape": [4], "dtype": "int32"}, {"name": "2245", "shape": [4], "dtype": "int32"}, {"name": "2247", "shape": [4], "dtype": "int32"}, {"name": "PartitionedCall/model_23/tf.strided_slice_6/ones_like", "shape": [4], "dtype": "int32"}, {"name": "2199", "shape": [4], "dtype": "int32"}, {"name": "2201", "shape": [4], "dtype": "int32"}, {"name": "PartitionedCall/model_23/tf.strided_slice_4/ones_like", "shape": [4], "dtype": "int32"}, {"name": "2129", "shape": [4], "dtype": "int32"}, {"name": "2131", "shape": [4], "dtype": "int32"}, {"name": "PartitionedCall/model_23/tf.strided_slice_2/ones_like", "shape": [4], "dtype": "int32"}, {"name": "2059", "shape": [4], "dtype": "int32"}, {"name": "2061", "shape": [4], "dtype": "int32"}, {"name": "PartitionedCall/model_23/tf.strided_slice/ones_like", "shape": [4], "dtype": "int32"}, {"name": "2015", "shape": [4, 2], "dtype": "int32"}, {"name": "2017", "shape": [3, 3, 3, 80], "dtype": "float32"}, {"name": "2019", "shape": [80], "dtype": "float32"}, {"name": "2021", "shape": [4, 2], "dtype": "int32"}, {"name": "2023", "shape": [3, 3, 80, 160], "dtype": "float32"}, {"name": "2025", "shape": [160], "dtype": "float32"}, {"name": "2027", "shape": [1, 1, 160, 160], "dtype": "float32"}, {"name": "2029", "shape": [160], "dtype": "float32"}, {"name": "2031", "shape": [4], "dtype": "int32"}, {"name": "2033", "shape": [4], "dtype": "int32"}, {"name": "PartitionedCall/model_23/tf.strided_slice_1/ones_like", "shape": [4], "dtype": "int32"}, {"name": "2035", "shape": [3, 3, 80, 80], "dtype": "float32"}, {"name": "2037", "shape": [80], "dtype": "float32"}, {"name": "2039", "shape": [3, 3, 80, 80], "dtype": "float32"}, {"name": "2041", "shape": [80], "dtype": "float32"}, {"name": "2043", "shape": [3, 3, 80, 80], "dtype": "float32"}, {"name": "2045", "shape": [80], "dtype": "float32"}, {"name": "2047", "shape": [3, 3, 80, 80], "dtype": "float32"}, {"name": "2049", "shape": [80], "dtype": "float32"}, {"name": "2051", "shape": [3, 3, 80, 80], "dtype": "float32"}, {"name": "2053", "shape": [80], "dtype": "float32"}, {"name": "2055", "shape": [3, 3, 80, 80], "dtype": "float32"}, {"name": "2057", "shape": [80], "dtype": "float32"}, {"name": "PartitionedCall/model_23/tf.concat/concat/axis", "shape": [], "dtype": "int32"}, {"name": "2063", "shape": [1, 1, 400, 160], "dtype": "float32"}, {"name": "2065", "shape": [160], "dtype": "float32"}, {"name": "2067", "shape": [4, 2], "dtype": "int32"}, {"name": "2069", "shape": [3, 3, 160, 320], "dtype": "float32"}, {"name": "2071", "shape": [320], "dtype": "float32"}, {"name": "2073", "shape": [1, 1, 320, 320], "dtype": "float32"}, {"name": "2075", "shape": [320], "dtype": "float32"}, {"name": "2077", "shape": [4], "dtype": "int32"}, {"name": "2079", "shape": [4], "dtype": "int32"}, {"name": "PartitionedCall/model_23/tf.strided_slice_3/ones_like", "shape": [4], "dtype": "int32"}, {"name": "2081", "shape": [3, 3, 160, 160], "dtype": "float32"}, {"name": "2083", "shape": [160], "dtype": "float32"}, {"name": "2085", "shape": [3, 3, 160, 160], "dtype": "float32"}, {"name": "2087", "shape": [160], "dtype": "float32"}, {"name": "2089", "shape": [3, 3, 160, 160], "dtype": "float32"}, {"name": "2091", "shape": [160], "dtype": "float32"}, {"name": "2093", "shape": [3, 3, 160, 160], "dtype": "float32"}, {"name": "2095", "shape": [160], "dtype": "float32"}, {"name": "2097", "shape": [3, 3, 160, 160], "dtype": "float32"}, {"name": "2099", "shape": [160], "dtype": "float32"}, {"name": "2101", "shape": [3, 3, 160, 160], "dtype": "float32"}, {"name": "2103", "shape": [160], "dtype": "float32"}, {"name": "2105", "shape": [3, 3, 160, 160], "dtype": "float32"}, {"name": "2107", "shape": [160], "dtype": "float32"}, {"name": "2109", "shape": [3, 3, 160, 160], "dtype": "float32"}, {"name": "2111", "shape": [160], "dtype": "float32"}, {"name": "2113", "shape": [3, 3, 160, 160], "dtype": "float32"}, {"name": "2115", "shape": [160], "dtype": "float32"}, {"name": "2117", "shape": [3, 3, 160, 160], "dtype": "float32"}, {"name": "2119", "shape": [160], "dtype": "float32"}, {"name": "2121", "shape": [3, 3, 160, 160], "dtype": "float32"}, {"name": "2123", "shape": [160], "dtype": "float32"}, {"name": "2125", "shape": [3, 3, 160, 160], "dtype": "float32"}, {"name": "2127", "shape": [160], "dtype": "float32"}, {"name": "PartitionedCall/model_23/tf.concat_1/concat/axis", "shape": [], "dtype": "int32"}, {"name": "2133", "shape": [1, 1, 1280, 320], "dtype": "float32"}, {"name": "2135", "shape": [320], "dtype": "float32"}, {"name": "2137", "shape": [4, 2], "dtype": "int32"}, {"name": "2139", "shape": [3, 3, 320, 640], "dtype": "float32"}, {"name": "2141", "shape": [640], "dtype": "float32"}, {"name": "2143", "shape": [1, 1, 640, 640], "dtype": "float32"}, {"name": "2145", "shape": [640], "dtype": "float32"}, {"name": "2147", "shape": [4], "dtype": "int32"}, {"name": "2149", "shape": [4], "dtype": "int32"}, {"name": "PartitionedCall/model_23/tf.strided_slice_5/ones_like", "shape": [4], "dtype": "int32"}, {"name": "2151", "shape": [3, 3, 320, 320], "dtype": "float32"}, {"name": "2153", "shape": [320], "dtype": "float32"}, {"name": "2155", "shape": [3, 3, 320, 320], "dtype": "float32"}, {"name": "2157", "shape": [320], "dtype": "float32"}, {"name": "2159", "shape": [3, 3, 320, 320], "dtype": "float32"}, {"name": "2161", "shape": [320], "dtype": "float32"}, {"name": "2163", "shape": [3, 3, 320, 320], "dtype": "float32"}, {"name": "2165", "shape": [320], "dtype": "float32"}, {"name": "2167", "shape": [3, 3, 320, 320], "dtype": "float32"}, {"name": "2169", "shape": [320], "dtype": "float32"}, {"name": "2171", "shape": [3, 3, 320, 320], "dtype": "float32"}, {"name": "2173", "shape": [320], "dtype": "float32"}, {"name": "2175", "shape": [3, 3, 320, 320], "dtype": "float32"}, {"name": "2177", "shape": [320], "dtype": "float32"}, {"name": "2179", "shape": [3, 3, 320, 320], "dtype": "float32"}, {"name": "2181", "shape": [320], "dtype": "float32"}, {"name": "2183", "shape": [3, 3, 320, 320], "dtype": "float32"}, {"name": "2185", "shape": [320], "dtype": "float32"}, {"name": "2187", "shape": [3, 3, 320, 320], "dtype": "float32"}, {"name": "2189", "shape": [320], "dtype": "float32"}, {"name": "2191", "shape": [3, 3, 320, 320], "dtype": "float32"}, {"name": "2193", "shape": [320], "dtype": "float32"}, {"name": "2195", "shape": [3, 3, 320, 320], "dtype": "float32"}, {"name": "2197", "shape": [320], "dtype": "float32"}, {"name": "PartitionedCall/model_23/tf.concat_2/concat/axis", "shape": [], "dtype": "int32"}, {"name": "2203", "shape": [1, 1, 2560, 640], "dtype": "float32"}, {"name": "2205", "shape": [640], "dtype": "float32"}, {"name": "2207", "shape": [4, 2], "dtype": "int32"}, {"name": "2209", "shape": [3, 3, 640, 640], "dtype": "float32"}, {"name": "2211", "shape": [640], "dtype": "float32"}, {"name": "2213", "shape": [1, 1, 640, 640], "dtype": "float32"}, {"name": "2215", "shape": [640], "dtype": "float32"}, {"name": "2217", "shape": [4], "dtype": "int32"}, {"name": "2219", "shape": [4], "dtype": "int32"}, {"name": "PartitionedCall/model_23/tf.strided_slice_7/ones_like", "shape": [4], "dtype": "int32"}, {"name": "2221", "shape": [3, 3, 320, 320], "dtype": "float32"}, {"name": "2223", "shape": [320], "dtype": "float32"}, {"name": "2225", "shape": [3, 3, 320, 320], "dtype": "float32"}, {"name": "2227", "shape": [320], "dtype": "float32"}, {"name": "2229", "shape": [3, 3, 320, 320], "dtype": "float32"}, {"name": "2231", "shape": [320], "dtype": "float32"}, {"name": "2233", "shape": [3, 3, 320, 320], "dtype": "float32"}, {"name": "2235", "shape": [320], "dtype": "float32"}, {"name": "2237", "shape": [3, 3, 320, 320], "dtype": "float32"}, {"name": "2239", "shape": [320], "dtype": "float32"}, {"name": "2241", "shape": [3, 3, 320, 320], "dtype": "float32"}, {"name": "2243", "shape": [320], "dtype": "float32"}, {"name": "PartitionedCall/model_23/tf.concat_3/concat/axis", "shape": [], "dtype": "int32"}, {"name": "2249", "shape": [1, 1, 1600, 640], "dtype": "float32"}, {"name": "2251", "shape": [640], "dtype": "float32"}, {"name": "2253", "shape": [4, 2], "dtype": "int32"}, {"name": "2255", "shape": [3, 3, 640, 640], "dtype": "float32"}, {"name": "2257", "shape": [640], "dtype": "float32"}, {"name": "2259", "shape": [1, 1, 640, 640], "dtype": "float32"}, {"name": "2261", "shape": [640], "dtype": "float32"}, {"name": "2263", "shape": [4], "dtype": "int32"}, {"name": "2265", "shape": [4], "dtype": "int32"}, {"name": "PartitionedCall/model_23/tf.strided_slice_9/ones_like", "shape": [4], "dtype": "int32"}, {"name": "2267", "shape": [3, 3, 320, 320], "dtype": "float32"}, {"name": "2269", "shape": [320], "dtype": "float32"}, {"name": "2271", "shape": [3, 3, 320, 320], "dtype": "float32"}, {"name": "2273", "shape": [320], "dtype": "float32"}, {"name": "2275", "shape": [3, 3, 320, 320], "dtype": "float32"}, {"name": "2277", "shape": [320], "dtype": "float32"}, {"name": "2279", "shape": [3, 3, 320, 320], "dtype": "float32"}, {"name": "2281", "shape": [320], "dtype": "float32"}, {"name": "2283", "shape": [3, 3, 320, 320], "dtype": "float32"}, {"name": "2285", "shape": [320], "dtype": "float32"}, {"name": "2287", "shape": [3, 3, 320, 320], "dtype": "float32"}, {"name": "2289", "shape": [320], "dtype": "float32"}, {"name": "PartitionedCall/model_23/tf.concat_4/concat/axis", "shape": [], "dtype": "int32"}, {"name": "2295", "shape": [1, 1, 1600, 640], "dtype": "float32"}, {"name": "2297", "shape": [640], "dtype": "float32"}, {"name": "2299", "shape": [1, 1, 640, 320], "dtype": "float32"}, {"name": "2301", "shape": [320], "dtype": "float32"}, {"name": "PartitionedCall/model_23/tf.concat_5/concat/axis", "shape": [], "dtype": "int32"}, {"name": "2303", "shape": [1, 1, 1280, 640], "dtype": "float32"}, {"name": "2305", "shape": [640], "dtype": "float32"}, {"name": "PartitionedCall/model_23/tf.concat_595/concat/axis", "shape": [], "dtype": "int32"}, {"name": "2525", "shape": [1, 1, 1280, 640], "dtype": "float32"}, {"name": "2527", "shape": [640], "dtype": "float32"}, {"name": "2557", "shape": [4], "dtype": "int32"}, {"name": "2559", "shape": [4], "dtype": "int32"}, {"name": "PartitionedCall/model_23/tf.strided_slice_21/ones_like", "shape": [4], "dtype": "int32"}, {"name": "PartitionedCall/model_23/tf.concat_597/concat/axis", "shape": [], "dtype": "int32"}, {"name": "2561", "shape": [1, 1, 640, 640], "dtype": "float32"}, {"name": "2563", "shape": [640], "dtype": "float32"}, {"name": "2649", "shape": [3, 3, 640, 80], "dtype": "float32"}, {"name": "2671", "shape": [80], "dtype": "float32"}, {"name": "2679", "shape": [3, 3, 80, 80], "dtype": "float32"}, {"name": "2687", "shape": [80], "dtype": "float32"}, {"name": "2697", "shape": [1, 1, 80, 51], "dtype": "float32"}, {"name": "2705", "shape": [51], "dtype": "float32"}, {"name": "PartitionedCall/model_23/tf.compat.v1.transpose_1182/transpose/perm", "shape": [4], "dtype": "int32"}, {"name": "PartitionedCall/model_23/tf.reshape_6/Reshape/shape", "shape": [3], "dtype": "int32"}, {"name": "PartitionedCall/model_23/tf.concat_599/concat/axis", "shape": [], "dtype": "int32"}, {"name": "PartitionedCall/model_23/tf.reshape_8/Reshape/shape", "shape": [4], "dtype": "int32"}, {"name": "2729", "shape": [4], "dtype": "int32"}, {"name": "2731", "shape": [4], "dtype": "int32"}, {"name": "PartitionedCall/model_23/tf.strided_slice_25/StridedSlice/strides", "shape": [4], "dtype": "int32"}, {"name": "PartitionedCall/model_23/tf.concat_601/concat/axis", "shape": [], "dtype": "int32"}, {"name": "PartitionedCall/model_23/tf.reshape_11/Reshape/shape", "shape": [3], "dtype": "int32"}, {"name": "PartitionedCall/model_23/output0/concat/axis", "shape": [], "dtype": "int32"}]}]}